models/CNTFET/pretrained_rnn_dcnt1.33_sca0.pth (torch, 206674 bytes, 28 tensors)

embedding.weight f4 [32, 1, 1]
0	0x39eb41e3	0.00044871782
1	0xbf25a252	-0.64700806
2	0xba529307	-0.0008032773
3	0x3e433b08	0.19065487
4	0x39a8b259	0.00032176336
5	0x3c3f9416	0.011693021
6	0xbe564836	-0.20925984
7	0x3da0382f	0.07823216
8	0xbdef48dc	-0.11683819
9	0x3f4b7d79	0.7948833
10	0x3f543423	0.82892054
11	0x39aad117	0.0003258071
12	0xbeeb1ec0	-0.45921898
13	0xbf5d8da1	-0.86544234
14	0xbafddf03	-0.0019368831
15	0x3a2f273a	0.00066815654
16	0xbbb75827	-0.0055952254
17	0xbf31fcbe	-0.6952628
18	0x3f7a64b6	0.9780992
19	0xbf543424	-0.8289206
20	0xbd1e4e9f	-0.038649198
21	0x38008c5b	3.0648294e-05
22	0x3f10cb68	0.56560373
23	0x39d42bdf	0.00040468478
24	0xb91d5db4	-0.00015007594
25	0xb96f86d0	-0.00022843038
26	0x3ee84f93	0.4537321
27	0x39c386d9	0.00037293768
28	0x3f18162b	0.59408826
29	0xbf58a1d3	-0.84621924
30	0x3ea1df91	0.3161588
31	0x3de2abfd	0.110679604

embedding.bias f4 [32]
0	0x39a5165b	0.0003148791
1	0x3e1eaf88	0.15496647
2	0x3a858854	0.0010187724
3	0x3f2b0558	0.6680503
4	0x3a9542e1	0.0011387729
5	0xbe314c3b	-0.17314236
6	0xbd09fe53	-0.033689808
7	0xbe4e757c	-0.20162004
8	0x3ec511ae	0.3849005
9	0xbefea74a	-0.49737006
10	0xbf0a2540	-0.5396309
11	0x388781aa	6.4614534e-05
12	0x3f3f2028	0.7465844
13	0x3e266abe	0.16251656
14	0xba5c18e1	-0.0008396041
15	0xba328e5d	-0.0006811375
16	0x3dbe52bb	0.09293123
17	0xbf38d402	-0.721985
18	0xbf433082	-0.7624589
19	0x3f35c2bd	0.7100027
20	0x3f139799	0.57653195
21	0xb90af67e	-0.00013252531
22	0xbf2de035	-0.6792024
23	0x3a9aafba	0.0011801638
24	0x3a881d2b	0.0010384669
25	0xba57b4e5	-0.00082285545
26	0x3e91f6ad	0.2850851
27	0xb9a0c628	-0.00030665216
28	0xbe05f2a4	-0.13080841
29	0x3e341439	0.1758584
30	0x3d1d1608	0.03835109
31	0xbe1a8104	-0.15088278

bigru.weight_ih_l0 f4 [96, 32]
0	0x3eca256f	0.39481685
1	0x3db28663	0.087170385
2	0x3e0e8283	0.13916974
3	0x3e144177	0.14478098
4	0xbde73341	-0.11289073
5	0xbd987801	-0.07444764
6	0x3de33075	0.11093227
7	0x3e07c31c	0.13258022
8	0x3ec70d89	0.38877514
9	0xbfedae16	-1.8568752
10	0xc026d1b5	-2.6065495
11	0x3ebd9bdc	0.37032974
12	0x3e6d4cfd	0.231739
13	0x3e3f2c4b	0.1866924
14	0xbe2a5325	-0.1663328
15	0x3e348d88	0.17632115
16	0xbddb175c	-0.10697815
17	0xbeef4cba	-0.46738225
18	0xbec269d7	-0.37971374
19	0x3f18f038	0.59741545
20	0x3e0a7054	0.13519412
21	0x3d2ca39b	0.042148214
22	0xbf2fc7fd	-0.6866453
23	0x3eb81198	0.35950923
24	0x3e274b1b	0.16337244
25	0x3e88122d	0.26576367
26	0x3e38590a	0.18002716
27	0x3b6bd8d3	0.0035987392
28	0xbecfdb69	-0.40597084
29	0x3da2e604	0.07954028
30	0x3e057216	0.13031802
31	0xbeadeeed	-0.33971348
32	0x3f0828ad	0.53187066
33	0xbf063780	-0.52428436
34	0x3df8b3ea	0.12143691
35	0x3eb703fd	0.3574523
36	0xbe32964c	-0.17440146
37	0xbf6234da	-0.88361895
38	0xbf693259	-0.9109245
39	0xbf0675dd	-0.52523595
40	0x3f9da514	1.2316003
41	0x3f0860e1	0.53272825
42	0x3e56a0d7	0.20959793
43	0x3ed698db	0.41913494
44	0x3f38552d	0.7200497
45	0xbf424e12	-0.75900376
46	0x3e9e45b3	0.3091255
47	0xbe4c71f5	-0.19965346
48	0x3f3910f8	0.7229152
49	0xbfa9d47d	-1.3267971
50	0x3e2b44ad	0.16725416
51	0xbee323ae	-0.4436316
52	0x3f4f6ebc	0.8102834
53	0x3c9dc08f	0.019256858
54	0x3e9289bd	0.2862071
55	0x3ee05a12	0.43818718
56	0xbec669dc	-0.3875264
57	0x3ee64a5c	0.44978607
58	0x3f1a9fb2	0.60399926
59	0x3e8071cf	0.2508683
60	0x3f33faae	0.7030438
61	0xbf1c4d74	-0.61055684
62	0x3f607fb6	0.8769487
63	0xc0b89069	-5.767628
64	0x3e17422e	0.1477134
65	0xbfa52eb5	-1.2904879
66	0x3e0f0926	0.13968334
67	0xbf1af404	-0.6052859
68	0xbea1d3ea	-0.3160699
69	0xbe1c4f26	-0.15264568
70	0xbdd2fbbf	-0.10301923
71	0xbe6c2820	-0.23062181
72	0xbd0063da	-0.031345226
73	0x3f64f8f3	0.89442366
74	0x3eee6246	0.46559352
75	0xbe28cd78	-0.1648463
76	0xbe62d530	-0.22151637
77	0xbf9ed3bc	-1.2408366
78	0xbde92cc6	-0.11385493
79	0x3dd20bb6	0.1025614
80	0xbe203d3a	-0.15648356
81	0xbeb0b9fb	-0.34516892
82	0x3e34f1a2	0.176703
83	0xbefb76c9	-0.49114063
84	0x3eb02994	0.34406722
85	0xbdac71fe	-0.0842018
86	0x3dbf8884	0.0935221
87	0x3ef14902	0.47126013
88	0xbe2c916a	-0.16852346
89	0xbe82966f	-0.25505397
90	0x3e641558	0.22273767
91	0x3e60d08e	0.21954557
92	0x3fb0080b	1.3752455
93	0xbf82e836	-1.0227115
94	0x3f00a9bf	0.5025901
95	0x3ee15116	0.44007176
96	0x3e94ac7d	0.29037848
97	0xbff1e0a2	-1.8896677
98	0x3e75900d	0.23980732
99	0x3e27bb0d	0.16379948
100	0x3f18bb71	0.5966101
101	0xbd672467	-0.0564312
102	0xbc29fddf	-0.010375469
103	0x3d88734a	0.06662615
104	0x3f130c52	0.57440674
105	0x3e099ca7	0.13438664
106	0x3e87ae7b	0.26500306
107	0x3dbb3144	0.09140256
108	0x3e63b302	0.22236255
109	0xbf9a6cb4	-1.2064424
110	0xbe13ab79	-0.1442088
111	0xbf107fc1	-0.56444937
112	0x3f1650ab	0.5871684
113	0xbf323e81	-0.69626623
114	0x3c73521e	0.014851121
115	0xbdf0e93f	-0.11763238
116	0x3e91ea1c	0.28498924
117	0xbe5c426e	-0.21509716
118	0xbdd23ecb	-0.10265883
119	0x3ff538ee	1.9157999
120	0x3dcfe38c	0.10150823
121	0x3fb42558	1.4073896
122	0x3f5bd458	0.85870886
123	0x3f93fe6b	1.1562017
124	0x3fd301e1	1.6484948
125	0xbf3ea53a	-0.74470866
126	0x3ed4dd1f	0.41574952
127	0xbf0e7e9b	-0.55661935
128	0xbe808596	-0.25101918
129	0xbf55db1c	-0.8353746
130	0x3e5cf5c6	0.2157813
131	0xbde223e2	-0.11042
132	0xbea0e04e	-0.3142113
133	0xbcdb8190	-0.026795179
134	0xbf097269	-0.536902
135	0x3f76fbb6	0.9647783
136	0xc0917fb8	-4.5468407
137	0x3fb28e7c	1.3949733
138	0x3f910da8	1.1332293
139	0xbd985915	-0.07438866
140	0xc00360d1	-2.0527842
141	0xbf9f16a4	-1.2428784
142	0xbe746174	-0.238653
143	0xbe09d79d	-0.13461156
144	0x3ed0cf03	0.40782937
145	0x3da5e3fd	0.08100126
146	0x3f8f61b0	1.1201687
147	0xbf6a83c0	-0.91607285
148	0x3dd74e90	0.105130315
149	0xbe802e79	-0.25035456
150	0x3f959e40	1.1688919
151	0x3f19fa60	0.60147667
152	0xbdaf4087	-0.085572295
153	0x3eb81478	0.35953116
154	0x3ecc6d88	0.39927316
155	0xbddc33a3	-0.107520364
156	0x3f04bc8d	0.51850206
157	0xbf37fdbc	-0.7187154
158	0x3ddd8ced	0.10817895
159	0x3fef8292	1.8711722
160	0x3e17b50e	0.1481516
161	0xbf8d7049	-1.1049892
162	0xbe507a71	-0.20359208
163	0xbe8daa69	-0.27669075
164	0xbc42fb4f	-0.011900737
165	0x3dae7967	0.085192494
166	0xbda699f9	-0.08134837
167	0x3e2683fc	0.16261286
168	0xbeb862d2	-0.36012894
169	0x3f938263	1.1524166
170	0x3f86f729	1.0544177
171	0x3c30eafc	0.010798212
172	0xbf05f017	-0.52319473
173	0xbef6ed00	-0.48227692
174	0xbe84d1d0	-0.25941324
175	0x3ec825a8	0.3909123
176	0x3dd75f42	0.10516216
177	0xbedc3fb9	-0.43017367
178	0x3f9b477d	1.2131191
179	0xbf7649fb	-0.96206635
180	0xbf0a5e82	-0.5405046
181	0x3e064efc	0.13116068
182	0x3f2f6bd7	0.68523926
183	0x3e96790c	0.29389226
184	0x3ef7681f	0.48321626
185	0xbe62c04b	-0.22143666
186	0x3d72e033	0.059295844
187	0xbe241a33	-0.16025619
188	0x3f143a87	0.57901806
189	0xbf0db1c4	-0.55349374
190	0x3cc54a03	0.024083143
191	0x3f5be3d4	0.85894513
192	0x3e8b526a	0.27211314
193	0x3ded115e	0.11575578
194	0xbe76c6fe	-0.24099347
195	0x3f0b25a7	0.5435433
196	0xbede8b7f	-0.43465802
197	0xbdc474ee	-0.09592615
198	0xbeb49254	-0.3526789
199	0x3ce93801	0.028469088
200	0x3d9fb10c	0.07797441
201	0xbf00c1d7	-0.50295776
202	0xbe615f0f	-0.22008918
203	0x3e7fb676	0.24971947
204	0x3eb6173d	0.35564604
205	0x3ce4b910	0.027920276
206	0xbe897aff	-0.2685165
207	0xbe40fcff	-0.1884651
208	0x3f4eef32	0.80833733
209	0xbf5cfdb9	-0.8632465
210	0xbf10c0b1	-0.56544024
211	0x3ea391a0	0.3194704
212	0x3e45298a	0.19254127
213	0x3e6195ec	0.22029847
214	0xbebe31b6	-0.371473
215	0x3f162fda	0.58666766
216	0xbe7d5e65	-0.2474304
217	0xbe75ce94	-0.24004585
218	0x3e8d9fa6	0.27660865
219	0x3eadcf57	0.3394725
220	0x3ef19ae3	0.47188482
221	0xbeb7dc01	-0.35910037
222	0x3ed08e95	0.4073378
223	0xbf134471	-0.5752631
224	0xbe72b29a	-0.23700944
225	0x3f93a88e	1.1535814
226	0xbe4e4cfa	-0.20146552
227	0xbf3c5c36	-0.735782
228	0x3eb56433	0.35428008
229	0x3ea50c2c	0.3223585
230	0x3f33aa67	0.7018189
231	0x3eeb825a	0.45997888
232	0xbf1748c3	-0.590954
233	0xbd32e8b6	-0.04367896
234	0x3e850655	0.25981393
235	0xbe4a8e14	-0.19780761
236	0xbf342aab	-0.70377606
237	0x3fa8b43d	1.3180004
238	0x3f206a1b	0.62661904
239	0x3f0b0f3e	0.5432013
240	0xbf8e9a7e	-1.1140897
241	0x3f7caa44	0.98697305
242	0x3e4e8b5f	0.20170353
243	0xbebde319	-0.37087324
244	0xbf39f65e	-0.7264155
245	0x3eb14924	0.34626114
246	0x3e9bedab	0.30454764
247	0xbf1bb62e	-0.6082486
248	0x3ec20c97	0.3790023
249	0xbe36c256	-0.17847571
250	0xbf77bd81	-0.96773535
251	0xbe4e30e9	-0.20135845
252	0xbf80125b	-1.0005602
253	0x3f3a17a5	0.7269233
254	0xbf85e9a2	-1.0461924
255	0x3f3394f0	0.70149136

bigru.weight_hh_l0 f4 [96, 32]
0	0x3e8971c0	0.26844597
1	0xbd68821a	-0.0567647
2	0xbf199b79	-0.6000286
3	0xbfc281ac	-1.5195823
4	0xbb177576	-0.0023110784
5	0xbf19180c	-0.5980232
6	0xbebcd29c	-0.36879432
7	0x3eca972b	0.39568457
8	0x3e4405ce	0.1914284
9	0x3e9f13b1	0.3106971
10	0xbe11a51d	-0.14223142
11	0xbc4fdc2e	-0.012686772
12	0x3dbdcecc	0.09267959
13	0x3f010dad	0.5041149
14	0x3e6af3a5	0.22944506
15	0x3e34b534	0.17647249
16	0xbd796d0a	-0.060895003
17	0xbe055f16	-0.13024554
18	0xbe968e1a	-0.2940529
19	0xbfb1992e	-1.3874872
20	0x3f1aa1f3	0.60403365
21	0xbdb8a2fc	-0.09015462
22	0xbeeace9e	-0.4586076
23	0x3de55d5e	0.11199449
24	0xbfdd1765	-1.7272764
25	0xbf3ba828	-0.7330346
26	0x3d4ed32e	0.050494365
27	0xbe908f69	-0.28234413
28	0xbe573a10	-0.21018243
29	0xbf05860f	-0.5215768
30	0x3ddd81ef	0.108157985
31	0xbf1b3b2b	-0.6063716
32	0xbe070cbf	-0.13188456
33	0x3d7e38a1	0.062065724
34	0x3d96d674	0.073651224
35	0x3e216a9f	0.15763329
36	0xbe048cb5	-0.129443
37	0xbc9062e8	-0.017625287
38	0xbe88740b	-0.26651034
39	0xbecfa8b5	-0.405584
40	0xbe030317	-0.12794147
41	0xbf0408f1	-0.51576144
42	0xbc280556	-0.010255178
43	0xbe3db031	-0.18524243
44	0x3d90c259	0.07068319
45	0xbd67e11d	-0.05661117
46	0xbe0183a4	-0.12647873
47	0xbc768126	-0.01504544
48	0x3afb9532	0.0019194244
49	0xbdae64b2	-0.085153
50	0x3eadf844	0.33978474
51	0x3e06fd90	0.13182664
52	0xbeddef1e	-0.43346494
53	0xbe18255d	-0.14858003
54	0xbd49aeef	-0.049239095
55	0xbe1eda9f	-0.15513085
56	0x3e2c6b6a	0.1683785
57	0xbc8c5276	-0.017129164
58	0xbd359c57	-0.04433855
59	0x3caa70e3	0.020805782
60	0x3e6df1ac	0.23236722
61	0xbdae6997	-0.085162334
62	0x3dcd0d46	0.10012297
63	0xbd6bbd43	-0.05755354
64	0x3ed4b1a6	0.41541785
65	0x3e2a8675	0.16652854
66	0x3e9a2846	0.3010885
67	0x3e94c100	0.29053497
68	0x3e9c5fd2	0.30541855
69	0x3abf670a	0.0014602852
70	0x40082d97	2.1277826
71	0x3ed0c5f6	0.40776032
72	0xbdedd675	-0.1161317
73	0xbf1d2035	-0.6137727
74	0x3eac18d9	0.33612707
75	0x3fb67e10	1.4257221
76	0xbd9616bc	-0.07328555
77	0x3e8282a2	0.2549029
78	0x3d607f31	0.0548088
79	0xbf117c7c	-0.56830573
80	0xbe718ec7	-0.23589621
81	0xbd847b56	-0.06468837
82	0xbf846f88	-1.0346537
83	0xbec6899c	-0.38776863
84	0xbe30b29d	-0.17255636
85	0x3e82468e	0.25444454
86	0x3f62c9b7	0.8858904
87	0x3da9927f	0.08279895
88	0x3e9511a5	0.29115024
89	0xbf8aa294	-1.0830865
90	0xbe61943e	-0.22029206
91	0x3ec05b53	0.37569675
92	0x3f333b3d	0.70012265
93	0xbf31cd0e	-0.69453514
94	0xbda67442	-0.08127643
95	0x3f32f22a	0.69900763
96	0xbf846a79	-1.0344993
97	0x3e599d83	0.21251492
98	0x3f578e18	0.8420119
99	0x3fc0a85b	1.5051378
100	0x3eac874e	0.3369698
101	0xbf8dc5c0	-1.1075974
102	0x3c05a2c5	0.008156483
103	0xbf8309b5	-1.0237337
104	0x3da03335	0.07822267
105	0x3ef385df	0.47563073
106	0x3f13229f	0.574747
107	0xbe7756e9	-0.24154247
108	0xbeeff6c0	-0.46867943
109	0x40486708	3.1312885
110	0x3e1a5c7a	0.1507434
111	0xbe22b863	-0.1589065
112	0xbc90f2ec	-0.01769396
113	0x3e5a91bf	0.2134466
114	0xbf4416a3	-0.7659704
115	0x3f5010c9	0.8127561
116	0xbe97ed79	-0.29673365
117	0x3f1f24c1	0.62165457
118	0xbe119481	-0.14216806
119	0x3e3817ef	0.1797788
120	0x3fb26a1c	1.3938632
121	0x3f7f4e4f	0.99728864
122	0xbf9db9fc	-1.2322383
123	0xbef37cb0	-0.47556067
124	0xbf550558	-0.8321128
125	0xbd1db879	-0.038506005
126	0x3ea9a440	0.33133125
127	0x3e72ec81	0.23723032
128	0xbea32627	-0.31865045
129	0xbea39d0f	-0.31955764
130	0xbea4fb27	-0.32222864
131	0xbed6ba5a	-0.4193905
132	0xbe20652b	-0.15663593
133	0x3e944988	0.2896235
134	0x3d00c89f	0.031441327
135	0x3e061195	0.13092645
136	0x3de83da2	0.113398805
137	0x3eb15bcf	0.34640357
138	0x3e6325c3	0.22182374
139	0xbefe3b28	-0.49654508
140	0x3e6fb79b	0.23409884
141	0x3e8a39d9	0.2699726
142	0xbe49c2cf	-0.1970322
143	0x3e462513	0.1935008
144	0x3eae7f11	0.3408132
145	0x3ec40d47	0.3829138
146	0x3e9a3387	0.30117437
147	0x3e5aaeb6	0.2135571
148	0x3e09b13a	0.13446513
149	0x3e733eef	0.23754476
150	0xbeb5e3bf	-0.3552532
151	0xbde04060	-0.109497786
152	0x3d410a4b	0.047128957
153	0x3eb886e2	0.36040407
154	0x3ec17b04	0.37789166
155	0x3e381821	0.17977954
156	0x3d4e5636	0.050375186
157	0x3ea0fb6d	0.31441823
158	0xbe9803e9	-0.29690483
159	0x3e8df8c1	0.27728847
160	0xbe52e2b0	-0.20594287
161	0xbdc012df	-0.093785994
162	0xbe3012cc	-0.1719467
163	0x3ec67275	0.387592
164	0xbe92cb56	-0.28670758
165	0xbf97da9d	-1.186359
166	0x3fadd002	1.3579104
167	0x3f47dc38	0.780704
168	0x3efed721	0.49773505
169	0x3e94c97d	0.29059973
170	0xbf15be52	-0.5849353
171	0xbe25033d	-0.16114517
172	0x3e181fd2	0.14855888
173	0x3de52525	0.111887254
174	0xbf66b7dd	-0.90124303
175	0x3ef77ccc	0.483374
176	0x3e9e1177	0.308727
177	0xbcab06d3	-0.020877277
178	0x3e9ddd65	0.30832973
179	0xc037fc4c	-2.874774
180	0x3f4b58a0	0.79432106
181	0x3edb3fa3	0.42821988
182	0xbe35a3d4	-0.17738277
183	0xbea7cd2f	-0.3277373
184	0xc03dcc71	-2.965603
185	0xbe931c4b	-0.28732523
186	0x3e54d12b	0.20782916
187	0x3d8c19b9	0.06840844
188	0x3eae02af	0.33986422
189	0x3d1d0ec2	0.038344152
190	0xbf4886c2	-0.78330624
191	0xbf82a140	-1.020546
192	0xbef709ed	-0.4824976
193	0xbf8783f3	-1.0587143
194	0xbeb39007	-0.35070822
195	0xbfe6bfc4	-1.8027272
196	0xbf27a6a3	-0.6548864
197	0x3f03068c	0.51181865
198	0xbee3a01a	-0.44458085
199	0xbcdddac3	-0.027081853
200	0xbfc463a4	-1.5342908
201	0xbf08a8c3	-0.5338251
202	0xbf62491e	-0.8839282
203	0xbf04fbe7	-0.5194687
204	0x3f8ef658	1.1168928
205	0x3efdb5d0	0.49552774
206	0x3ea24ee7	0.31700823
207	0xbf7c8dc4	-0.9865382
208	0xbe46060a	-0.19338241
209	0xbf4bf18c	-0.79665446
210	0x3f3537bf	0.70788187
211	0x3edbc86c	0.42926347
212	0xbf69692f	-0.9117612
213	0xbfe2db22	-1.7723124
214	0x3eb36728	0.3503964
215	0x3f098aa0	0.5372715
216	0x3fcdf625	1.6090742
217	0x4000a00a	2.009768
218	0xbec94551	-0.39310697
219	0xbe985343	-0.29751024
220	0x3f25af66	0.6472076
221	0xbf322ce2	-0.69599736
222	0x3eb310ec	0.34973848
223	0x3dec010f	0.115236394
224	0xbee72ba8	-0.45150495
225	0xbe59f17b	-0.21283524
226	0xbe69c09f	-0.22827385
227	0x3e58354a	0.21114078
228	0xbed48a51	-0.41511777
229	0x3e2394c7	0.15974723
230	0xbec4d64a	-0.3844474
231	0x3c8ef81b	0.01745229
232	0x3ebc165e	0.36735815
233	0x3d9a8f0c	0.07546815
234	0x39eb75de	0.0004491051
235	0xbed74945	-0.42048088
236	0x3e02dd7c	0.12779802
237	0x3e22592b	0.15854327
238	0xbf336a27	-0.7008385
239	0x3f01d677	0.5071787
240	0x3f4dbe23	0.8036825
241	0x3f3bdcc7	0.73383754
242	0xbec67601	-0.38761905
243	0x3d58fd9d	0.05297624
244	0xbd069813	-0.032859873
245	0x3d66cc26	0.056347035
246	0xbd4f3bd4	-0.050594166
247	0xbf02540b	-0.5090949
248	0x3cbbc0a6	0.02291901
249	0x3ecc26d7	0.39873382
250	0x3ee679ea	0.45014888
251	0x3e8c0058	0.27344012
252	0xba1b3266	-0.0005920291
253	0x3e3ba9a1	0.18326427
254	0xbf002866	-0.50061643
255	0x3e95f436	0.2928788

bigru.bias_ih_l0 f4 [96]
0	0x3e5c19f7	0.2149428
1	0x3f812c74	1.0091691
2	0x3d1cc2ee	0.038271837
3	0x3e41fcdb	0.18944113
4	0x3d315ea5	0.04330315
5	0xbe47605a	-0.19470349
6	0x3eaf2616	0.34208745
7	0xbf52ffe2	-0.82421696
8	0xbf567b84	-0.8378222
9	0xbf530fe4	-0.8244612
10	0xbef5ea79	-0.4803045
11	0x3e231167	0.15924607
12	0x3e85e07f	0.2614784
13	0x3f2f2260	0.6841183
14	0xbe4aa425	-0.19789179
15	0xbe7daeb0	-0.24773669
16	0xbef08dbf	-0.46983144
17	0xbeef8414	-0.46780455
18	0x3d615a00	0.05501747
19	0xbd92ad5e	-0.071619734
20	0xbf1f8333	-0.6230957
21	0xbe5c202d	-0.21496649
22	0x3d595542	0.053059824
23	0xbee8d269	-0.4547303
24	0x3e386af6	0.18009552
25	0xbf265de2	-0.64987004
26	0x3e6c4dd2	0.23076561
27	0xbf719812	-0.94372666
28	0xbe895fdb	-0.26830944
29	0xbf9948f6	-1.1975391
30	0xbf2bb541	-0.67073447
31	0x3d8b709e	0.068085894
32	0xbd2770dc	-0.040879115
33	0xbd85e275	-0.06537334
34	0x3d9c9866	0.07646255
35	0x3ec92e25	0.39293018
36	0xbcc796a8	-0.02436383
37	0x3d7b25d2	0.061315365
38	0xbd148139	-0.03625605
39	0x3e6c0dce	0.23052141
40	0x3d84a691	0.064770825
41	0xbd8abad7	-0.06773918
42	0x3e9acf0f	0.30236098
43	0xbf99a6d3	-1.2004036
44	0xbe08915f	-0.13336705
45	0x3b6fa9ca	0.0036569708
46	0x3c534134	0.012893964
47	0x3da61a95	0.08110539
48	0xbe90a24c	-0.28248823
49	0x3e3035d8	0.1720804
50	0xbee6d737	-0.4508607
51	0x3e82e080	0.25561905
52	0x3e9c4d99	0.30527952
53	0x3e643599	0.22286071
54	0xbe9359ef	-0.2877955
55	0xbe9b204e	-0.30298084
56	0x3e850fc3	0.25988588
57	0x3e98b86a	0.29828197
58	0xbd7a6f22	-0.06114114
59	0xbe9bdc55	-0.30441537
60	0x3e344b3a	0.17606822
61	0x3e020801	0.12698366
62	0xbee78b35	-0.45223394
63	0x3eedd96f	0.4645495
64	0xbc26014e	-0.010132147
65	0xbf10452f	-0.56355566
66	0x3e43160c	0.19051379
67	0x3de6babe	0.11266087
68	0xbf76a4c7	-0.9634518
69	0xbc3ddda7	-0.011588491
70	0x3d37c81e	0.04486858
71	0x3dc0b211	0.094089635
72	0xbda69087	-0.08133035
73	0x3d3628ad	0.044472385
74	0xbcf9b2b1	-0.030480715
75	0x3c309291	0.010777132
76	0x3e0bf1cd	0.13666458
77	0x3f7842da	0.9697701
78	0x3ebee826	0.3728649
79	0xbcd60ff6	-0.026130658
80	0xbcd772c7	-0.026299847
81	0xbd3a864d	-0.045538235
82	0xbdc506e1	-0.09620453
83	0x3c1d54d1	0.009602741
84	0xbd1162f1	-0.03549475
85	0x3a80ddee	0.0009831765
86	0xbd62cbd3	-0.055370163
87	0x3d823501	0.06357766
88	0xbd01d568	-0.03169766
89	0x3ead098b	0.33796343
90	0xbf212031	-0.62939745
91	0x3d9ee330	0.07758176
92	0x3ba6813f	0.0050813253
93	0x3d074b05	0.03303053
94	0x3ecf13bb	0.4044474
95	0x3dc2aeea	0.095060185

bigru.bias_hh_l0 f4 [96]
0	0x3e5c19f7	0.2149428
1	0x3f812c74	1.0091691
2	0x3d1cc2ee	0.038271837
3	0x3e41fcdb	0.18944113
4	0x3d315ea5	0.04330315
5	0xbe47605a	-0.19470349
6	0x3eaf2616	0.34208745
7	0xbf52ffe2	-0.82421696
8	0xbf567b84	-0.8378222
9	0xbf530fe4	-0.8244612
10	0xbef5ea79	-0.4803045
11	0x3e231167	0.15924607
12	0x3e85e07f	0.2614784
13	0x3f2f2260	0.6841183
14	0xbe4aa425	-0.19789179
15	0xbe7daeb0	-0.24773669
16	0xbef08dbf	-0.46983144
17	0xbeef8414	-0.46780455
18	0x3d615a00	0.05501747
19	0xbd92ad5e	-0.071619734
20	0xbf1f8333	-0.6230957
21	0xbe5c202d	-0.21496649
22	0x3d595542	0.053059824
23	0xbee8d269	-0.4547303
24	0x3e386af6	0.18009552
25	0xbf265de2	-0.64987004
26	0x3e6c4dd2	0.23076561
27	0xbf719812	-0.94372666
28	0xbe895fdb	-0.26830944
29	0xbf9948f6	-1.1975391
30	0xbf2bb541	-0.67073447
31	0x3d8b709e	0.068085894
32	0xbd2770dc	-0.040879115
33	0xbd85e275	-0.06537334
34	0x3d9c9866	0.07646255
35	0x3ec92e25	0.39293018
36	0xbcc796a8	-0.02436383
37	0x3d7b25d2	0.061315365
38	0xbd148139	-0.03625605
39	0x3e6c0dce	0.23052141
40	0x3d84a691	0.064770825
41	0xbd8abad7	-0.06773918
42	0x3e9acf0f	0.30236098
43	0xbf99a6d3	-1.2004036
44	0xbe08915f	-0.13336705
45	0x3b6fa9ca	0.0036569708
46	0x3c534134	0.012893964
47	0x3da61a95	0.08110539
48	0xbe90a24c	-0.28248823
49	0x3e3035d8	0.1720804
50	0xbee6d737	-0.4508607
51	0x3e82e080	0.25561905
52	0x3e9c4d99	0.30527952
53	0x3e643599	0.22286071
54	0xbe9359ef	-0.2877955
55	0xbe9b204e	-0.30298084
56	0x3e850fc3	0.25988588
57	0x3e98b86a	0.29828197
58	0xbd7a6f22	-0.06114114
59	0xbe9bdc55	-0.30441537
60	0x3e344b3a	0.17606822
61	0x3e020801	0.12698366
62	0xbee78b35	-0.45223394
63	0x3eedd96f	0.4645495
64	0x3e3d0b29	0.18461289
65	0xbf154a65	-0.5831664
66	0x3eccf227	0.40028498
67	0x3dbbd4c1	0.09171439
68	0xbf75537b	-0.95830506
69	0x3f6b5e4b	0.91940755
70	0x3e014508	0.1262399
71	0x3c8135ae	0.015772667
72	0x3cbe7c83	0.023252731
73	0xbdb33b5d	-0.08751557
74	0x3eb590f0	0.3546214
75	0x3d1157cd	0.035484124
76	0x3e172cc6	0.14763173
77	0x3f3de977	0.74184364
78	0x3e65548f	0.22395538
79	0xbec3b084	-0.38220608
80	0x3ce8a167	0.028397275
81	0x3c14170c	0.009038698
82	0xbdf296e6	-0.11845188
83	0x3c501ee9	0.012702682
84	0xbdc0691a	-0.093950465
85	0xbe3ce155	-0.18445332
86	0x3e71b766	0.23605117
87	0x3da4771c	0.08030531
88	0xbd6441b7	-0.055726733
89	0x3e733359	0.23750056
90	0xbf20c434	-0.6279938
91	0x3f37baa4	0.71769166
92	0x3cad9dac	0.021193348
93	0x3d7ec020	0.062194943
94	0x3e6bc2e6	0.23023567
95	0x3e069981	0.13144495

bigru.weight_ih_l0_reverse f4 [96, 32]
0	0xbdb66b25	-0.08907155
1	0xbf4983ea	-0.7871691
2	0xbdd3fdbd	-0.10351131
3	0xbf9e8d4d	-1.2386872
4	0x3f50fae8	0.8163285
5	0x3f95939c	1.1685672
6	0x3f815be3	1.0106167
7	0x3f4cd00e	0.80004966
8	0xbef9a27b	-0.48756775
9	0x3f3f2c63	0.74677104
10	0x3f334bfb	0.7003781
11	0xbf842831	-1.0324765
12	0xbfbb5623	-1.4635662
13	0x3dfd2344	0.12360242
14	0x3eca6d4c	0.39536512
15	0x3d1ea4ff	0.03873157
16	0xbf8ad72a	-1.0846913
17	0x3f929ab5	1.1453463
18	0x3f29a025	0.66259986
19	0xbf86f222	-1.0542643
20	0xbf72be03	-0.94821185
21	0x3e75740b	0.23970048
22	0x3f5254f1	0.8216086
23	0x3f732ab0	0.9498701
24	0x3f40ddef	0.75338644
25	0x3e22ee8f	0.15911315
26	0xbfa6e022	-1.303715
27	0xbf94ff0b	-1.1640333
28	0x3e5861fe	0.21131131
29	0xbf096b69	-0.5367952
30	0xbf3fceac	-0.7492473
31	0x3f236120	0.63820076
32	0x3da8250c	0.08210191
33	0x3d8f37f1	0.06993092
34	0x3ed1e85b	0.40997586
35	0x3e8b6246	0.27223414
36	0xbf3b7715	-0.7322858
37	0xbe8e57ca	-0.27801353
38	0xbf265de8	-0.6498704
39	0xbebe5ae3	-0.37178716
40	0x3f222665	0.63339835
41	0xbd8248df	-0.06361555
42	0xbf1ceec7	-0.61301845
43	0x3efa5af7	0.48897526
44	0x3ecf5e4a	0.40501624
45	0xbd9a9523	-0.07547977
46	0xbe001d26	-0.12511119
47	0xbed6cf42	-0.41955
48	0x3ed4c157	0.41553757
49	0xbe32e997	-0.1747192
50	0xbeeb3613	-0.45939693
51	0x3e676d2b	0.22600238
52	0x3f140dd0	0.57833576
53	0xbf1ac8eb	-0.60462826
54	0xbf5842cb	-0.8447692
55	0x3f1ce59a	0.61287844
56	0x3d0d4702	0.034491546
57	0x3c5fc534	0.013657857
58	0x3f2c01e8	0.6719041
59	0x3e101d8e	0.14073774
60	0xbe6c2cfd	-0.23064037
61	0x3d73c638	0.059515208
62	0xbe4873a6	-0.19575366
63	0xbe0e1182	-0.13873866
64	0xbf829292	-1.020098
65	0x3fdc9945	1.7234274
66	0x3db7a864	0.08967665
67	0x3e154738	0.14577949
68	0x3e2ea667	0.17055665
69	0x3e011740	0.12606525
70	0x3ef0dab4	0.47041857
71	0xbe408bed	-0.18803377
72	0x3e3008d7	0.17190872
73	0xc00a54e7	-2.161432
74	0xbfb0d71e	-1.3815649
75	0xbe5f2496	-0.217913
76	0x3db435e0	0.08799338
77	0x3f7e9e71	0.9946051
78	0xbe958dd9	-0.29209784
79	0xbe4d6a98	-0.20060194
80	0xbe0315f9	-0.1280135
81	0x3ea5411b	0.32276234
82	0xbf6ecf87	-0.9328541
83	0x3f374ff6	0.71606386
84	0x3cdbf04f	0.026847987
85	0xbec47e2c	-0.38377512
86	0xbf468875	-0.77551967
87	0xbec89a57	-0.39180252
88	0x3ec98909	0.39362362
89	0xbe4a267f	-0.19741248
90	0xbf1f5dca	-0.62252486
91	0xbe6ca882	-0.23111156
92	0xbf58d36f	-0.8469762
93	0x3faa2e10	1.3295307
94	0xbe9a4760	-0.3013258
95	0xbe5e622f	-0.21717142
96	0xbf1d3fe0	-0.6142559
97	0xbe8e2cc8	-0.2776854
98	0x3e9d9be1	0.3078299
99	0x3d301657	0.042990055
100	0x3d9f1b35	0.07768861
101	0xbe35c570	-0.17751098
102	0xbebc4274	-0.3676945
103	0xbe97f32d	-0.29677716
104	0xbc547aed	-0.012968761
105	0x3ef061e0	0.46949673
106	0x3e36dcbd	0.17857642
107	0xbf3c083d	-0.7345007
108	0xbe15933e	-0.1460695
109	0xbf32f142	-0.6989938
110	0xbe2e9b05	-0.17051323
111	0x3f0e6472	0.5562202
112	0x3ed6d0f6	0.419563
113	0xbe3f2ea4	-0.18670136
114	0x3ed1d0cb	0.4097961
115	0xbed9a449	-0.42508152
116	0x3da626a2	0.081128374
117	0x3d92012d	0.071291305
118	0x3e0cf1a5	0.13764055
119	0x3f289550	0.6585283
120	0x3eac6900	0.3367386
121	0x3f36c314	0.71391416
122	0x3ecc824d	0.39943162
123	0xbf63e001	-0.8901368
124	0x3f3f482b	0.74719495
125	0xbe03aec8	-0.12859643
126	0x3ee3bc25	0.4447948
127	0xbd82193c	-0.06352469
128	0xbf1ce871	-0.6129218
129	0x3f44660d	0.7671822
130	0xbcdae09a	-0.026718426
131	0xbf132461	-0.57477385
132	0x3ec65644	0.3873769
133	0x3e46d807	0.19418345
134	0xbd23c8b9	-0.039986346
135	0x3edac113	0.4272543
136	0xbdfffabe	-0.12498997
137	0xbf1098bc	-0.56483054
138	0xbde5c0ce	-0.11218415
139	0xbdc8add1	-0.09798778
140	0x3e495617	0.19661747
141	0x3f37cf65	0.71800834
142	0x3d08a7dc	0.03336321
143	0x3ee1b0c3	0.4408017
144	0xbed28ad8	-0.41121554
145	0x3f460819	0.77356106
146	0xbef9a8bd	-0.4876155
147	0x3e3d671b	0.18496363
148	0x3d0bccf6	0.034131013
149	0xbcbf0702	-0.023318771
150	0xbb8bcd30	-0.0042664036
151	0x3e55a003	0.20861821
152	0xbe05209d	-0.13000722
153	0xbe95e03a	-0.29272634
154	0xbefe6556	-0.49686688
155	0xbe69ddbe	-0.22838494
156	0xbf809cd8	-1.0047865
157	0x3e5324fa	0.20619574
158	0xbef3a70f	-0.47588393
159	0x3ef61ed7	0.48070404
160	0xbea0b9f9	-0.31391886
161	0x3e4a671d	0.19765897
162	0xbef62c7d	-0.48080817
163	0xbf2fcdcd	-0.686734
164	0xbefd7e84	-0.49510586
165	0xbe2ae9b3	-0.16690712
166	0x3dcf3f05	0.10119442
167	0x3f7a9e18	0.9789748
168	0xbf7aacbc	-0.9791982
169	0x3f1d26b4	0.6138718
170	0x3f56dde4	0.8393233
171	0xbef93b73	-0.4867817
172	0xbe71dc28	-0.23619139
173	0x3e52fc78	0.20604122
174	0x3eae3d6b	0.34031233
175	0x3f802134	1.0010133
176	0xbd524747	-0.051337507
177	0xbde23a3d	-0.11046264
178	0x3f27adb1	0.6549941
179	0xbf137ef8	-0.57615614
180	0xbed246e8	-0.41069722
181	0xbd02de47	-0.03195026
182	0x3ea5d233	0.32386932
183	0xbee2a8a4	-0.44269288
184	0xbe838c6e	-0.25693077
185	0xbef19f77	-0.47191975
186	0xbddf5ce2	-0.10906388
187	0xbf37fabf	-0.71866983
188	0xbeae4d23	-0.34043226
189	0x3e02e899	0.12784041
190	0x3ed7c604	0.4214326
191	0x3d106881	0.035255913
192	0x3ec68afa	0.38777906
193	0xbf0fa65d	-0.56113225
194	0x3ec6f76f	0.38860652
195	0x3f32bd52	0.6982013
196	0xbe6e4f07	-0.23272334
197	0x3de619ad	0.11235366
198	0xbe894e0e	-0.26817364
199	0x3f037151	0.5134478
200	0xbe74f819	-0.23922767
201	0x3f51ba83	0.8192522
202	0x3e04cf11	0.12969615
203	0xbec188b4	-0.3779961
204	0x3d0871ad	0.033311535
205	0xbeadef62	-0.33971697
206	0x3db58f10	0.08865178
207	0xbf379222	-0.71707356
208	0xbe90905f	-0.28235146
209	0xbd0077ab	-0.031364124
210	0xbe0e762a	-0.13912264
211	0xbe83bd40	-0.25730324
212	0x3d85bc36	0.06530039
213	0x3f3af01f	0.73022646
214	0x3e69487c	0.22781557
215	0x3f6457f4	0.89196706
216	0x3e86495e	0.2622785
217	0x3f16a287	0.5884175
218	0x3f340b82	0.7033006
219	0xbf0618cb	-0.5238158
220	0x3eee9070	0.46594572
221	0xbeb3de66	-0.35130614
222	0x3f558cf8	0.83418226
223	0x3ee1af8b	0.4407924
224	0x3ec1d35e	0.37856573
225	0x3d6ea580	0.0582633
226	0x3edecc8a	0.43515426
227	0x3f4359fc	0.7630918
228	0xbfa214ff	-1.2662657
229	0xbf29d071	-0.6633368
230	0xbfbe6220	-1.4873695
231	0xbd1afbb0	-0.037837684
232	0x3eb6b5b1	0.35685495
233	0xbf0902d7	-0.5351996
234	0xbddec15e	-0.108767256
235	0x3f5b433a	0.85649455
236	0xbdcffeb0	-0.10156
237	0xbf0ca748	-0.5494275
238	0x3b8d9e55	0.004321853
239	0xbf046759	-0.51720196
240	0x3ec20648	0.37895417
241	0xbf4966f0	-0.78672695
242	0xbeda2e25	-0.4261333
243	0x3ea90620	0.33012486
244	0x3f2b6c19	0.6696182
245	0xbf04c12d	-0.5185726
246	0xbeb5660c	-0.35429418
247	0x3ea1fa1e	0.31636137
248	0xbe83cd2d	-0.25742474
249	0x3effbc50	0.4994836
250	0x3f9a27e4	1.2043424
251	0x3e2ef781	0.17086603
252	0xbdaa610d	-0.08319292
253	0xbea5b9f3	-0.3236843
254	0x3fdd2746	1.727761
255	0xbe59303d	-0.21209808

bigru.weight_hh_l0_reverse f4 [96, 32]
0	0xbf14c3a4	-0.58111024
1	0xbc95a834	-0.018268682
2	0x3eaf3185	0.34217468
3	0xbf1d982e	-0.6156033
4	0xbf3efef2	-0.74607766
5	0x3f3856cd	0.7200745
6	0xbe249e82	-0.16076091
7	0xbe6489de	-0.22318217
8	0xbe7a4f93	-0.24444418
9	0xbeebf007	-0.46081564
10	0xbecb5806	-0.39715594
11	0x3e6c9548	0.23103821
12	0xbf64aa56	-0.8932241
13	0xbf1e9c14	-0.61956906
14	0xbed06098	-0.40698695
15	0x3ec3a056	0.38208264
16	0xbfe72df7	-1.8060902
17	0x3f470991	0.7774897
18	0xbde4443a	-0.11145826
19	0xbf1bd822	-0.6087667
20	0xbf709957	-0.9398398
21	0xbea1328a	-0.3148387
22	0x3f4463bd	0.7671469
23	0xbf6251e8	-0.8840623
24	0xbf9d0ff2	-1.2270491
25	0x3e84a573	0.25907478
26	0x3deb0fdd	0.11477635
27	0xbf0d2d45	-0.551472
28	0xbe9d5006	-0.30725116
29	0xbf59a4d2	-0.8501712
30	0xbf0969cb	-0.5367705
31	0x3eee499e	0.4654054
32	0x3e2d4207	0.16919719
33	0x3f90399d	1.1267582
34	0x3efa7367	0.4891617
35	0x3e036e99	0.12835158
36	0xbf27a817	-0.6549086
37	0x3dd2a203	0.102848075
38	0xbf8e4ab4	-1.1116548
39	0x3f594e51	0.84885126
40	0xbdc3ab50	-0.0955416
41	0x3e32cc45	0.17460735
42	0xbfdcba2f	-1.7244319
43	0xbf3ec634	-0.74521184
44	0x3e8137a0	0.2523775
45	0xbd56fc9e	-0.05248701
46	0xbed1c169	-0.40967873
47	0xbe6d7fb7	-0.2319325
48	0xbd922dce	-0.07137643
49	0xbe984e22	-0.2974711
50	0x3f216584	0.63045526
51	0xbee2285d	-0.4417142
52	0x3e0f4d65	0.13994367
53	0x3e94d78b	0.29070696
54	0xbe70ae17	-0.2350391
55	0x3d59e29b	0.053194623
56	0xbe8dd44d	-0.27701035
57	0x3f7e601b	0.99365395
58	0x3f431ec7	0.7621884
59	0x3fe99af4	1.8250413
60	0xbf4255d8	-0.7591224
61	0xbe852338	-0.26003432
62	0xbf0094cd	-0.5022705
63	0xbfcbf8a2	-1.5935252
64	0x3e95d862	0.2926665
65	0x3ec002fb	0.37502274
66	0x3f6403b8	0.89068174
67	0x3e3ef736	0.18648991
68	0xbf059af6	-0.52189577
69	0x3dc76c10	0.09737408
70	0xbf341892	-0.7034999
71	0xbf29e2f8	-0.6636195
72	0xbf198b3a	-0.5997807
73	0x3e373093	0.17889623
74	0xbfb488cc	-1.4104247
75	0xbf9c71d9	-1.2222244
76	0x3e56e13f	0.20984362
77	0x3e902fc0	0.2816143
78	0xbd73cf72	-0.059524007
79	0xbeb4c59f	-0.35307023
80	0xbbfd1877	-0.0077238637
81	0x3dda371f	0.10655045
82	0x3fa961cc	1.323297
83	0xbea195a6	-0.31559485
84	0x3e9289dd	0.28620806
85	0x3f69fd4e	0.9140214
86	0xbcfac8d2	-0.030613337
87	0x3e45508f	0.19269012
88	0xbe075557	-0.13216148
89	0x3e93fccb	0.28903803
90	0x3f312ec0	0.6921196
91	0x3e0e8ba7	0.1392046
92	0xbf11a27e	-0.5688857
93	0xbe70f9a2	-0.23532727
94	0xbefd97f7	-0.49530002
95	0x3f075e48	0.52878237
96	0xbd343f90	-0.04400593
97	0x3f18cc18	0.5968642
98	0x3f1e9828	0.6195092
99	0xbf120a04	-0.5704653
100	0xbefe1a63	-0.49629506
101	0x3ed832cb	0.42226252
102	0xbfb71ef6	-1.4306324
103	0xbf615348	-0.880177
104	0xbf3a9a5c	-0.72891784
105	0xbea752dd	-0.32680407
106	0x3f5d75fd	0.8650816
107	0xbf3a75c9	-0.72835976
108	0xbf1476ac	-0.5799358
109	0xbf132324	-0.57475495
110	0x3e51dfda	0.20495549
111	0xbd390236	-0.045168124
112	0xbda53aa8	-0.080678284
113	0x3e0bf282	0.13666728
114	0x3f03e56e	0.51521957
115	0xbe92dfc3	-0.28686342
116	0xbe8a642a	-0.27029544
117	0x3fcf120a	1.617738
118	0x3f0cd810	0.55017185
119	0xbe20f87e	-0.15719792
120	0xbf1467cb	-0.57970876
121	0x3f2d0ef1	0.67600924
122	0x3fa12b36	1.2591312
123	0xbf9978fc	-1.1990047
124	0x3e7f4848	0.24929917
125	0xbf323efb	-0.6962735
126	0xbf67fb32	-0.9061767
127	0x3fb71c2b	1.4305471
128	0xbe2e1ca3	-0.17003112
129	0xbebb2911	-0.3655477
130	0x3e0f1e8b	0.13976495
131	0x3dde08c0	0.10841513
132	0x3c82a277	0.01594661
133	0x3e285356	0.1643804
134	0x3f080af7	0.5314173
135	0xbf0dd5b3	-0.55404204
136	0x3de2b5bb	0.110698186
137	0xbe056553	-0.13026933
138	0xbf28ef36	-0.65990007
139	0xbe8372b5	-0.25673452
140	0x3d89144a	0.06693323
141	0x3bbadee4	0.00570284
142	0xbf01de28	-0.5072961
143	0xbdad7c88	-0.08471018
144	0xbef89a42	-0.4855519
145	0x3f0193dd	0.50616246
146	0x3d0d3d59	0.034482334
147	0xbc504114	-0.012710828
148	0x3d250a81	0.04029322
149	0xbe93dd07	-0.28879568
150	0xbd85deb0	-0.06536615
151	0xbdf62e69	-0.12020571
152	0xbef5f342	-0.48037153
153	0x3dfca8b3	0.12336864
154	0xbf54d160	-0.8313198
155	0xbd86702a	-0.06564362
156	0xbe9ad2af	-0.30238864
157	0x3d083890	0.033257067
158	0x3d6b38c4	0.057427183
159	0xbebd5efb	-0.36986527
160	0xbf23ee5c	-0.6403558
161	0x3eabc214	0.33546507
162	0x4022aa5e	2.5416484
163	0xbef8cf1d	-0.48595515
164	0x3d89f305	0.067358054
165	0x3ee269ba	0.44221288
166	0xc05791f0	-3.3682823
167	0x3f392de3	0.7233564
168	0xbfe76f94	-1.8080926
169	0xbf2a74fe	-0.66584766
170	0x400ba2f9	2.181822
171	0xc0604353	-3.5041091
172	0xbf0c2fe8	-0.547606
173	0xbecaccaa	-0.3960927
174	0x3eccf1cc	0.40028226
175	0x3f1b9962	0.6078092
176	0xbd337a87	-0.043818023
177	0xbdfbacec	-0.122888416
178	0xbda7c9df	-0.08192801
179	0xbf7d67ad	-0.9898632
180	0xbf50b5c0	-0.8152733
181	0xbea6b952	-0.32563263
182	0x3f13cd1f	0.57734865
183	0xbe85f831	-0.26165918
184	0x3f176830	0.5914335
185	0xbef15378	-0.47133994
186	0x3fa2afb2	1.2709868
187	0xbe72bdff	-0.2370529
188	0xbeb26e8f	-0.34849975
189	0xbeba12e5	-0.3634254
190	0xbf34bc40	-0.70599747
191	0x3f36bd89	0.7138296
192	0x3f8034e0	1.0016136
193	0x3edb2b72	0.42806584
194	0x3f4cd5ba	0.8001362
195	0x3d474b17	0.048655596
196	0xbee91d27	-0.45530054
197	0x3e1dc8d5	0.15408643
198	0xbf5edfc7	-0.8706021
199	0x3f976dcf	1.1830386
200	0x40565fbe	3.3495936
201	0x3d802cc7	0.062585406
202	0xbe9e4e18	-0.30918956
203	0xbf7cd7e7	-0.9876694
204	0x3eb22ff9	0.34802225
205	0x3ecc8e45	0.39952293
206	0xbfc3abf2	-1.5286849
207	0xbf52b74c	-0.8231094
208	0x3f86a3bb	1.0518717
209	0xbfa2e506	-1.2726142
210	0x3dd15396	0.10221021
211	0xbe11a078	-0.1422137
212	0x3f38321e	0.7195147
213	0x3f37dfd8	0.71825933
214	0xbd9deaa9	-0.077107735
215	0x3fab7e4c	1.3397918
216	0x3cafb620	0.021449149
217	0xbee37f17	-0.444329
218	0x3eb3efeb	0.3514398
219	0x3fe93000	1.8217773
220	0x3e603e1b	0.21898691
221	0xbe5c47d5	-0.21511777
222	0xbf48d48a	-0.7844931
223	0xbee0f1dd	-0.43934527
224	0x3f8d16fe	1.1022642
225	0x3e008580	0.12550926
226	0x3e96b950	0.29438257
227	0x3ecbcd5f	0.39805123
228	0x3e061dc9	0.130973
229	0xbe4ede79	-0.20202054
230	0xbed1561f	-0.40886018
231	0xbea8670c	-0.3289112
232	0x3ed4e3c5	0.41580024
233	0x3dbbe52c	0.091745704
234	0x3fcfdc93	1.6239189
235	0xbea544c1	-0.32279018
236	0x3ef94f23	0.4869319
237	0x3f1a330e	0.60234153
238	0x4002fca7	2.0466707
239	0xbf31d727	-0.6946892
240	0x4013e778	2.3110027
241	0xc03d6195	-2.959081
242	0xbf9969a1	-1.198536
243	0x3ee0f2f1	0.4393535
244	0x3fa0c4c9	1.2560054
245	0xbf0baad1	-0.5455752
246	0xbef34142	-0.47510725
247	0x3f2a593b	0.66542405
248	0x402ff00a	2.7490258
249	0xbfb07b8f	-1.3787707
250	0xbf3d9685	-0.740578
251	0x3fb05b56	1.3777874
252	0x3ff11700	1.8835144
253	0x3e914329	0.28371552
254	0xbe098988	-0.1343137
255	0x3fa095bf	1.2545699

bigru.bias_ih_l0_reverse f4 [96]
0	0xbf8aeeed	-1.0854164
1	0x3eb0f7a1	0.34563926
2	0xbdbe4bab	-0.09291776
3	0x3dea2c76	0.114342615
4	0xbdb4cc16	-0.08827989
5	0xbe9ba1c3	-0.30396852
6	0x3d7aacd0	0.061199963
7	0x3ef2b72f	0.47405383
8	0x3e6d4590	0.23171067
9	0x3e3741a8	0.1789614
10	0x3e279a8d	0.1636755
11	0xbe96efd7	-0.29479858
12	0xbf231dfe	-0.6371764
13	0x3fce7bed	1.6131569
14	0xbe593c1f	-0.2121434
15	0xbf39644b	-0.7241866
16	0xbfa72c01	-1.3060304
17	0xbfd828a6	-1.6887405
18	0xbf36ab96	-0.7135557
19	0x3f018330	0.505908
20	0x3d964c4a	0.0733877
21	0xbe2d67cd	-0.16934128
22	0x3e91a2ff	0.2844467
23	0x3e36de07	0.17858134
24	0x3d892174	0.06695834
25	0xbf94001d	-1.1562535
26	0xbed77a3d	-0.42085448
27	0xbe5560a1	-0.20837642
28	0xbf26df4b	-0.6518447
29	0x3ca4284a	0.020038743
30	0x3ec64f4e	0.3873238
31	0xbf8ba273	-1.090895
32	0x3e018fb0	0.12652469
33	0xbe8f89f3	-0.28034934
34	0x3f33a742	0.7017709
35	0x3eab98b0	0.3351493
36	0x3e1b66f5	0.15175994
37	0x3eeba81e	0.460267
38	0x3e3e62b4	0.1859234
39	0x3f076b80	0.52898407
40	0x3eb546a9	0.35405472
41	0x3dda033b	0.106451474
42	0x3ebe7a0b	0.37202486
43	0x3f577fb7	0.8417925
44	0x3d904398	0.070441425
45	0x3e0e1e3a	0.13878718
46	0x3df6a062	0.12042309
47	0xbe69366c	-0.22774667
48	0xbf1922bc	-0.59818625
49	0xbef859ff	-0.48506162
50	0xbe88656a	-0.26639873
51	0x3f7ee323	0.99565333
52	0xbebf1600	-0.37321472
53	0xbe6b1f8c	-0.22961253
54	0x3f58b58c	0.8465202
55	0xbef72991	-0.482739
56	0xbee6d546	-0.4508459
57	0xbf36e141	-0.7143746
58	0x3d8cd4c6	0.06876521
59	0x3e5167d5	0.20449765
60	0xbf515827	-0.81775135
61	0x3eaa8a2f	0.3330855
62	0x3f8e9cf3	1.1141647
63	0x3e929274	0.2862736
64	0x3e143df8	0.14476764
65	0x3c9e0282	0.019288305
66	0xbdabb5cc	-0.083842844
67	0x3f030bd1	0.51189905
68	0x3d8fc578	0.07020086
69	0xbf0d1565	-0.5511077
70	0xbd06cf82	-0.03291274
71	0xbc8bcbe2	-0.017064992
72	0xbdd08262	-0.101811185
73	0x3eb253e5	0.3482963
74	0x3dcccf93	0.10000529
75	0x3da80738	0.08204502
76	0x3fac6173	1.3467239
77	0x3f8a9c02	1.082886
78	0x3d8f8476	0.07007687
79	0xbe0665b7	-0.13124739
80	0x3bc766f9	0.0060852733
81	0xbb962e2d	-0.0045831413
82	0xbb06e70d	-0.0020584494
83	0x3e208ff3	0.15679912
84	0x3e9129d0	0.28352213
85	0xbcabe085	-0.020981083
86	0xbe903fe7	-0.28173754
87	0x3ec19325	0.37807575
88	0x3c596f3d	0.01327115
89	0x3d3c055f	0.04590356
90	0x3da6f3fe	0.081520066
91	0xbcc865c1	-0.024462583
92	0xbb53cdaa	-0.003231863
93	0x3f4d761c	0.80258346
94	0x3e49f665	0.19722898
95	0x3da5a82e	0.08088718

bigru.bias_hh_l0_reverse f4 [96]
0	0xbf8aeeed	-1.0854164
1	0x3eb0f7a1	0.34563926
2	0xbdbe4bab	-0.09291776
3	0x3dea2c76	0.114342615
4	0xbdb4cc16	-0.08827989
5	0xbe9ba1c3	-0.30396852
6	0x3d7aacd0	0.061199963
7	0x3ef2b72f	0.47405383
8	0x3e6d4590	0.23171067
9	0x3e3741a8	0.1789614
10	0x3e279a8d	0.1636755
11	0xbe96efd7	-0.29479858
12	0xbf231dfe	-0.6371764
13	0x3fce7bed	1.6131569
14	0xbe593c1f	-0.2121434
15	0xbf39644b	-0.7241866
16	0xbfa72c01	-1.3060304
17	0xbfd828a6	-1.6887405
18	0xbf36ab96	-0.7135557
19	0x3f018330	0.505908
20	0x3d964c4a	0.0733877
21	0xbe2d67cd	-0.16934128
22	0x3e91a2ff	0.2844467
23	0x3e36de07	0.17858134
24	0x3d892174	0.06695834
25	0xbf94001d	-1.1562535
26	0xbed77a3d	-0.42085448
27	0xbe5560a1	-0.20837642
28	0xbf26df4b	-0.6518447
29	0x3ca4284a	0.020038743
30	0x3ec64f4e	0.3873238
31	0xbf8ba273	-1.090895
32	0x3e018fb0	0.12652469
33	0xbe8f89f3	-0.28034934
34	0x3f33a742	0.7017709
35	0x3eab98b0	0.3351493
36	0x3e1b66f5	0.15175994
37	0x3eeba81e	0.460267
38	0x3e3e62b4	0.1859234
39	0x3f076b80	0.52898407
40	0x3eb546a9	0.35405472
41	0x3dda033b	0.106451474
42	0x3ebe7a0b	0.37202486
43	0x3f577fb7	0.8417925
44	0x3d904398	0.070441425
45	0x3e0e1e3a	0.13878718
46	0x3df6a062	0.12042309
47	0xbe69366c	-0.22774667
48	0xbf1922bc	-0.59818625
49	0xbef859ff	-0.48506162
50	0xbe88656a	-0.26639873
51	0x3f7ee323	0.99565333
52	0xbebf1600	-0.37321472
53	0xbe6b1f8c	-0.22961253
54	0x3f58b58c	0.8465202
55	0xbef72991	-0.482739
56	0xbee6d546	-0.4508459
57	0xbf36e141	-0.7143746
58	0x3d8cd4c6	0.06876521
59	0x3e5167d5	0.20449765
60	0xbf515827	-0.81775135
61	0x3eaa8a2f	0.3330855
62	0x3f8e9cf3	1.1141647
63	0x3e929274	0.2862736
64	0xbe080182	-0.13281825
65	0x3d2aab88	0.04166749
66	0xbe6897e9	-0.22714199
67	0x3f388aa3	0.7208654
68	0x3db899c0	0.090137005
69	0xbdcc5480	-0.099770546
70	0xbc9f393c	-0.019436471
71	0xbda2fd14	-0.07958427
72	0xbd812afe	-0.06307028
73	0x3f3795c4	0.717129
74	0xbe0e6ef8	-0.13909519
75	0x3dab4122	0.083620325
76	0x3f0bb557	0.5457358
77	0x407378d1	3.804249
78	0x3d44edbe	0.04807829
79	0x3d58da31	0.05294246
80	0xbe029074	-0.12750417
81	0x3dd6445f	0.104622595
82	0x3d9eaeb0	0.07748163
83	0x3e13b288	0.14423573
84	0x3e1f5f8f	0.15563796
85	0xbd892ea1	-0.06698347
86	0xbf0a183d	-0.53943235
87	0x3d9379b7	0.0720095
88	0xbcf09745	-0.029369006
89	0xbdb2e822	-0.08735682
90	0x3ba0c799	0.0049066064
91	0xbd27497c	-0.040841565
92	0xbd31e775	-0.043433625
93	0x3f8710f0	1.0552044
94	0x3edd1b40	0.43184853
95	0xbcc8d1e8	-0.024514154

bigru.weight_ih_l1 f4 [96, 64]
0	0x3ed2b111	0.41150716
1	0x3d952e76	0.07284252
2	0x3f99bd0c	1.2010818
3	0x40c6f3b2	6.217248
4	0x3d8cec9f	0.068810694
5	0x3f3899e7	0.72109836
6	0xbf156115	-0.5835126
7	0xbeb8d18d	-0.36097375
8	0xbc61c60b	-0.013780127
9	0xbf21297b	-0.6295392
10	0xc0516a68	-3.2721195
11	0x3fc773f4	1.5582261
12	0x3c3312d2	0.01092978
13	0xbf3c59a6	-0.7357429
14	0xbe725371	-0.23664643
15	0x3f5fd926	0.8744072
16	0xbed17e14	-0.40916502
17	0xbf0f11a2	-0.5588628
18	0x3f6fc201	0.936554
19	0xc00234ec	-2.03448
20	0xbe82b04f	-0.25525138
21	0x3e757ce6	0.23973426
22	0x3f8a470b	1.080293
23	0x3df97ce0	0.12182021
24	0xc0c6bf9f	-6.2108912
25	0x3f7ea752	0.9947406
26	0x3f88b2bf	1.0679549
27	0x3e1edcb5	0.1551388
28	0xbeebec83	-0.46078882
29	0xbd90f7b1	-0.070784934
30	0x3daba176	0.083804056
31	0x3ea61673	0.32439002
32	0x3e873189	0.2640498
33	0xbf7a9e9b	-0.9789826
34	0x3e030e30	0.12798381
35	0x3dbf61d8	0.09344834
36	0xbf8d00e5	-1.1015898
37	0x3c411baa	0.011786381
38	0xbfce6122	-1.6123393
39	0xbebc3b4b	-0.36763987
40	0xbe8c621f	-0.2741861
41	0xbf4c4068	-0.79785776
42	0xbff8914f	-1.9419345
43	0x3f228ae4	0.6349318
44	0x3ddfad71	0.10921753
45	0x3ef6e3ca	0.48220664
46	0xbf4d5950	-0.80214405
47	0xbdc8b3b7	-0.09799903
48	0xbf350cd3	-0.70722693
49	0x3f69fe3d	0.9140356
50	0x3f6fad5a	0.9362389
51	0x3ef7d902	0.4840775
52	0xbf671e07	-0.90280193
53	0xbe7946da	-0.24343434
54	0x3ef1c1c1	0.47218135
55	0xbf1e7604	-0.6189883
56	0xbe21af39	-0.15789498
57	0x3f2a9ea0	0.6664829
58	0x3ea6452c	0.3247465
59	0xc04d511c	-3.2080755
60	0xbecc3459	-0.39883688
61	0xbf8d3038	-1.103034
62	0xbf853443	-1.0406574
63	0x3fc0070a	1.5002148
64	0x3c355390	0.011067286
65	0xbf0311bf	-0.51198953
66	0x3f45cd0e	0.77266014
67	0xc038db71	-2.8883936
68	0xbeb67172	-0.35633427
69	0x40180f79	2.3759444
70	0x3ec2d15c	0.38050354
71	0x3f3e204c	0.7426803
72	0x3f6f8a9f	0.93570894
73	0x3f258ed4	0.64671063
74	0xbf28f8dd	-0.66004735
75	0x3f186fc9	0.5954557
76	0xbbc1fa33	-0.0059197186
77	0x3eb15640	0.34636116
78	0xbe80f940	-0.25190163
79	0x3eb34897	0.3501632
80	0x3de8ebb4	0.11373082
81	0x3eba2227	0.3635418
82	0x3e85b0a9	0.26111344
83	0xc01e8428	-2.4768162
84	0x3fa04638	1.2521429
85	0x3f248653	0.6426746
86	0x3ff38293	1.9024223
87	0xbd3d6a86	-0.046244167
88	0xc07665f4	-3.8499727
89	0xbfb2a8c6	-1.3957756
90	0xbe371370	-0.17878509
91	0x401d8c08	2.4616718
92	0xbf83ae10	-1.0287495
93	0xbf2ca434	-0.67438054
94	0x3dc31bdc	0.09526798
95	0xc01678e8	-2.3511295
96	0xbf2e430e	-0.6807107
97	0x3e9267a1	0.28594688
98	0xbdb44fec	-0.088043064
99	0x3d1bcf0c	0.038039252
100	0xbda3a41c	-0.07990286
101	0xbdc7c40b	-0.09754189
102	0xbece23cf	-0.40261695
103	0x3fac78a0	1.3474312
104	0x3fab15de	1.3366048
105	0x3de32939	0.11091847
106	0xbf25b1b9	-0.6472431
107	0x3e3196d7	0.17342697
108	0xbce191c5	-0.027535329
109	0x3ea8acd0	0.32944345
110	0xbd2f85c6	-0.042852186
111	0x3f072c9d	0.5280245
112	0xbe9ee59d	-0.31034556
113	0x3ec561ee	0.38551277
114	0xbebaf339	-0.3651369
115	0xbdeb97a6	-0.11503534
116	0x3dacd9bc	0.08439967
117	0xbe8b1f91	-0.2717252
118	0xbe3be45d	-0.18348832
119	0x3f56e489	0.83942467
120	0xbf1e61fd	-0.6186827
121	0x3ddb5cd0	0.10711062
122	0x3e0cee80	0.13762856
123	0x3f4c550c	0.7981727
124	0xbea70bb9	-0.3262613
125	0x3ec2fa4a	0.3808158
126	0xbed811cc	-0.42201078
127	0xbec68ab4	-0.38777697
128	0xbdf638b3	-0.12022533
129	0xbea6cd67	-0.32578585
130	0xbf9bc0cc	-1.2168212
131	0x3f1e743f	0.6189613
132	0xbda23824	-0.07920864
133	0x3f221f17	0.6332869
134	0x3e60347d	0.21895023
135	0xbd0159fa	-0.03157995
136	0x3f7e69d7	0.9938025
137	0xbe8903b3	-0.26760635
138	0x3e796f63	0.24358897
139	0x3c830868	0.01599522
140	0x3e5c5c84	0.21519667
141	0x3f3b79ad	0.7323254
142	0xbeed89ba	-0.4639414
143	0xbe1a04e2	-0.15040925
144	0x3ed82d2f	0.42221972
145	0x3e99d8fe	0.30048364
146	0x3f426427	0.7593407
147	0xbf3cc6fc	-0.73741126
148	0xbdb31972	-0.08745088
149	0x3fd7c1b5	1.685599
150	0xbe54d106	-0.20782861
151	0xbdabd5f9	-0.083904214
152	0x3d76d264	0.060259238
153	0xbf56a325	-0.8384269
154	0x3f5c4a85	0.8605121
155	0x3d76fc44	0.060299173
156	0x3ecd8c10	0.40145922
157	0xbf099969	-0.5374971
158	0xbf299ada	-0.6625191
159	0x3e31872b	0.17336719
160	0xbd0f1a55	-0.03493722
161	0x3f001e3d	0.5004614
162	0xbf26c643	-0.65146273
163	0xbe5577c8	-0.20846474
164	0x3db7c12f	0.08972394
165	0xbf1190b7	-0.5686144
166	0xbcc579a5	-0.024105856
167	0xbee8d441	-0.45474437
168	0x3db125d8	0.08649796
169	0x3e112088	0.14172566
170	0x3fea8b6a	1.8323796
171	0xbea116f3	-0.3146282
172	0xbf1dd301	-0.6165009
173	0xbe9de498	-0.30838466
174	0xbed05035	-0.40686193
175	0x3f158254	0.5840199
176	0xbe60cdf7	-0.2195357
177	0x3f04e5ca	0.5191313
178	0x3f1f8895	0.6231778
179	0xbeb67645	-0.35637107
180	0x3cee21d2	0.029068861
181	0x3ef1f27e	0.4725532
182	0x3d83ffe1	0.064452894
183	0xbf162d7f	-0.5866317
184	0xbfa737df	-1.3063926
185	0x3f0e5ce8	0.55610514
186	0x3e790f08	0.2432214
187	0xbfb29dd0	-1.395441
188	0xbf3e3a54	-0.7430775
189	0xbe78b016	-0.24285921
190	0x3ddfd7c8	0.10929829
191	0x400775ae	2.1165576
192	0xbf148138	-0.5800967
193	0x3e958c46	0.29208583
194	0x3dd144a4	0.1021817
195	0xbf8656f6	-1.0495288
196	0xbdc6253c	-0.09675071
197	0xbf829314	-1.0201135
198	0xbe3388db	-0.17532675
199	0x3ff86b2f	1.940771
200	0x3eb815bb	0.3595408
201	0x3f4a0ac1	0.7892266
202	0x3df20c6d	0.11818776
203	0x3d2f79df	0.042840835
204	0xbedbe683	-0.42949304
205	0x3e3f92b9	0.18708314
206	0x3e61a3a0	0.22035074
207	0x3e4d1cef	0.20030569
208	0x3e6897c0	0.22714138
209	0xbeb17e2e	-0.3466658
210	0x3edba896	0.42902058
211	0x3ee17a08	0.44038415
212	0x3f429ed6	0.76023614
213	0xbec6a859	-0.38800314
214	0xbd533a12	-0.051569052
215	0x3e2f09eb	0.17093627
216	0xbd8cb8ff	-0.06871223
217	0x3f0d43e5	0.55181724
218	0xbf07c308	-0.5303197
219	0xbebb10d7	-0.36536285
220	0xbed566ec	-0.41680086
221	0x3e48bce7	0.1960331
222	0x3da0ed37	0.07857745
223	0xbdedc896	-0.11610524
224	0x3ef1b306	0.47206897
225	0xbdd652b9	-0.10464997
226	0xbd46c618	-0.04852876
227	0xbc974731	-0.018466564
228	0xbdcb8bdd	-0.09938786
229	0x3e070b59	0.13187923
230	0x3d5b3e7d	0.05352639
231	0x3f7f7152	0.9978229
232	0x3f37669d	0.7164095
233	0x3df290a6	0.11843996
234	0x3fd7c604	1.6857305
235	0x3eac94de	0.33707327
236	0x3f74b80f	0.9559335
237	0x3f0f8038	0.5605502
238	0xbee14d45	-0.44004264
239	0x3dbfc344	0.09363416
240	0xbe4c1586	-0.19930086
241	0xbe8a7260	-0.27040386
242	0x3f44dd9a	0.7690064
243	0x3b2a8f9c	0.002602554
244	0x3eaa929c	0.3331498
245	0xbecaaf15	-0.39586702
246	0xbd99dfaf	-0.075133674
247	0xbe1b409d	-0.15161367
248	0xbcf208de	-0.029545244
249	0x3e29c84f	0.16580318
250	0xbe3b60df	-0.18298672
251	0xbfa28b39	-1.2698737
252	0xbf298145	-0.66212875
253	0xbe0d5a13	-0.13803892
254	0xbe507719	-0.20357932
255	0x3fbf9661	1.4967767
