models/CNTFET/pretrained_rnn_dcnt1.02_sca1.pth (torch, 206674 bytes, 28 tensors)

embedding.weight f4 [32, 1, 1]
0.002015834 -0.64816785 -0.0054769632 0.01154285 -0.022705777 0.020113286 -0.36148798 0.16021058
-0.27136227 0.8741207 0.8158112 -0.04889455 -0.36126915 -0.768165 -0.0009860478 0.0009694703
-0.019389857 -0.57712114 1.0279164 -0.8764854 0.0908756 0.0038733385 0.581423 0.16031516
0.0017246472 0.00017720292 -0.009679308 -0.002282896 0.55151826 -0.93186593 0.46019855 0.20830397
00000000: 151c 043b 54ee 25bf 1978 b3bb 391e 3d3c
00000010: 7701 babc 9ec4 a43c f414 b9be 3e0e 243e
00000020: ffef 8abe 60c6 5f3f 01d9 503f a745 48bd
00000030: 45f8 b8be 76a6 44bf 463e 81ba 0d24 7e3a
00000040: 7ad7 9ebc 36be 13bf c492 833f 5961 60bf
00000050: fd1c ba3d d6d7 7d3b 23d8 143f a829 243e
00000060: 8f0d e23a 8ccf 3939 f695 1ebc a49c 15bb
00000070: 4d30 0d3f c48e 6ebf 259f eb3e a34d 553e

embedding.bias f4 [32]
-0.0004535169 0.17800495 0.064668894 0.67991257 0.008314027 -0.33867136 -0.12444856 -0.35161772
0.36424777 -0.49013296 -0.54241914 0.62487346 0.7373016 0.1680638 -0.0014105007 0.0037816318
0.31401992 -0.783151 -0.7824638 0.72404456 0.7525757 0.0021070864 -0.69660276 -0.061423697
-0.0009556435 0.0009886042 0.17341498 0.0005871525 -0.16274163 0.15996945 0.035799507 -0.44787186
00000000: 02c6 edb9 ee46 363e 2071 843d c00e 2e3f
00000010: 8f37 083c 5566 adbe e3de febd 3d07 b4be
00000020: af7e ba3e b5f2 fabe fbdb 0abf b5f7 1f3f
00000030: ccbf 3c3f eb18 2c3e 8de0 b8ba 41d5 773b
00000040: 38c7 a03e 957c 48bf 8c4f 48bf fc5a 393f
00000050: cda8 403f 0b17 0a3b 8f54 32bf 6a97 7bbd
00000060: 2684 7aba 0d94 813a b293 313e 23eb 193a
00000070: bea5 26be 08cf 233e 81a2 123d 764f e5be

bigru.weight_ih_l0 f4 [96, 32]
-0.053985495 -0.61650366 -0.27590263 0.066725135 -0.4796851 0.062091358 0.04781909 0.41485178
0.14256571 0.64222676 -0.066700615 0.45122612 -0.07668336 -0.4879017 -0.38361746 0.27404496
-0.131519 -0.4634616 0.5037927 -0.08626876 0.07335482 -0.18738806 -0.2992425 0.2589234
0.12876119 -0.18314195 0.28079382 -0.1941424 0.36739376 -0.5244491 0.21088889 -0.07769525
0.6842082 -0.51353335 0.23357095 0.2341349 -0.33317176 -0.8727785 -0.8824389 -0.9498784
0.53303456 0.5375033 0.15434021 0.582926 1.0623606 -0.7234542 -0.0008496934 -0.2196237
0.6462436 -1.2209488 0.1202672 -0.3953955 0.7656324 -0.61091924 -5.781393 0.53840077
-0.29389304 0.5720235 0.44885904 0.323795 0.6534883 -0.6118885 0.8124241 -0.6833231
-0.16637458 -0.55432844 0.15629812 -0.57639873 0.06124048 -0.24560049 -0.027985694 -0.26337194
-0.048594046 0.9342805 0.4611821 -0.23651128 -0.18903226 -0.4742487 -0.12732655 -0.08803053
-0.1189544 -0.3583789 0.2674258 -0.58195806 0.43042848 -0.44000953 0.08460568 0.27250022
-0.12609962 -0.3609172 0.17990498 0.18020855 0.70476407 -0.29643458 0.40072104 0.3903246
0.9540667 -1.8340175 0.62324184 0.5090573 -1.1688292 -0.4259323 -0.57576424 -0.1742352
0.7259384 0.25458565 0.21054354 0.38427618 0.45794484 -1.5377365 -1.3799185 0.8932325
0.9576131 -1.1827437 -0.011385841 -0.08190797 0.7503576 -0.67975116 -0.2614451 1.7820914
-1.5267911 0.4201617 1.2335627 0.9291773 1.7020482 -0.9841543 1.213738 -0.82752955
-1.070233 -0.21334124 -0.83177525 -1.348241 0.214539 1.2319105 0.23502012 3.8333557
-3.1235144 1.226593 1.0934124 -1.4914021 -4.233159 -0.55389285 0.52586377 0.24221191
-0.8199519 1.1199775 1.1759082 -1.0633923 -0.97063977 0.26634702 2.0489624 0.120483704
0.78762984 0.14002639 -0.5698302 -1.1355186 -0.090522714 -0.0017315564 -0.598537 9.7186
-0.1429985 -1.5089874 -0.26088747 -0.13962822 -0.13939984 -0.14605822 0.010820209 -0.33651793
0.005055279 0.21428823 0.04584175 0.19064744 -0.08474136 -0.61527956 -0.0838828 0.08808338
0.45737183 -0.5033533 0.33954445 -0.1780612 -0.3080021 0.5680537 0.13766624 -0.2220596
0.4717668 0.09230934 0.065513805 -0.1750738 1.166656 -0.45962766 -0.016973546 0.4094999
0.6919865 0.16283965 0.3559296 0.596752 -0.6322123 -0.11657944 -0.4132327 0.05705158
0.090318546 -0.47430378 -0.20377985 0.92344123 0.3789388 0.19568406 -0.8312182 -0.49416602
0.82304525 -0.93961954 -0.58761585 0.3341206 0.24165156 -0.18775778 -0.38430697 0.8709732
-0.31613404 0.26745608 0.34169415 0.44397223 0.41106367 -0.35829464 0.44044548 -0.5504526
-1.1490834 0.08099064 0.06679768 -0.05406966 0.047226626 -0.11987542 -0.10823124 0.23188342
-0.2910787 0.56517464 0.68521506 0.08321471 -0.39294967 0.075825416 0.66722065 0.4929261
-0.68472964 0.08216268 0.43271297 -0.49010453 -0.094319575 0.23131835 0.12960061 -0.25703314
1.1901973 0.89584816 -0.14986725 0.5051852 0.06912572 -0.57240915 -0.1767335 0.38953456
00000000: e51f 5dbd 2fd3 1dbf 1c43 8dbe 30a7 883d
00000010: 4999 f5be 8253 7e3d f3dd 433d 7467 d43e
00000020: bffc 113e f968 243f 559a 88bd 1c07 e73e
00000030: 2a0c 9dbd 40ce f9be 8269 c4be 9f4f 8c3e
00000040: ebac 06be d74a edbe 8ff8 003f adad b0bd
00000050: 0d3b 963d a8e2 3fbe 5036 99be 9c91 843e
00000060: f9d9 033e 9089 3bbe 35c4 8f3e 44cd 46be
00000070: 091b bc3e 4c42 06bf 42f3 573e b01e 9fbd
00000080: 4528 2f3f ec76 03bf 392d 6f3e 0fc1 6f3e
00000090: 7d95 aabe 696e 5fbf 84e7 61bf 3b2b 73bf
000000a0: f474 083f d199 093f 5c0b 1e3e a33a 153f
000000b0: 6ffb 873f 4b34 39bf f5bd 5eba 09e5 60be
000000c0: 3870 253f 0d48 9cbf a64e f63d 4771 cabe
000000d0: 7c00 443f 3465 1cbf 2c01 b9c0 a2d4 093f
000000e0: 2679 96be 2270 123f dad0 e53e 75c8 a53e
000000f0: 024b 273f baa4 1cbf 07fb 4f3f 43ee 2ebf
00000100: 195e 2abe 78e8 0dbf 9d0c 203e de8e 13bf
00000110: 4cd7 7a3d b27e 7bbe 4142 e5bc b0d8 86be
00000120: 8d0a 47bd 022d 6f3f 0f20 ec3e 0330 72be
00000130: ac91 41be bad0 f2be e461 02be 5a49 b4bd
00000140: 5d9e f3bd 707d b7be 09ec 883e 34fb 14bf
00000150: 1f61 dc3e ee48 e1be be45 ad3d 2685 8b3e
00000160: 4220 01be 24ca b8be 0339 383e 9788 383e
00000170: 6b6b 343f 46c6 97be 4f2b cd3e a0d8 c73e
00000180: b73d 743f 16c1 eabf c78c 1f3f 9451 023f
00000190: 329c 95bf cc13 dabe 4965 13bf b66a 32be
000001a0: 19d7 393f 0d59 823e ba98 573e d9bf c43e
000001b0: bf77 ea3e 8dd4 c4bf 2ba1 b0bf e3aa 643f
000001c0: 2226 753f 2564 97bf ae8b 3abc 5ebf a7bd
000001d0: 7017 403f 2c04 2ebf 22dc 85be 921b e43f
000001e0: e46d c3bf 6f1f d73e 62e5 9d3f 90de 6d3f
000001f0: b7dc d93f 89f1 7bbf c45b 9b3f fad8 53bf
00000200: 65fd 88bf 2076 5abe 39ef 54bf 2993 acbf
00000210: 1db0 5b3e 3eaf 9d3f 1da9 703e b355 7540
00000220: a9e7 47c0 0001 9d3f f0f4 8b3f 44e6 bebf
00000230: 0a76 87c0 eccb 0dbf 029f 063f 6606 783e
00000240: 5ee8 51bf 6c5b 8f3f 2984 963f 3d1d 88bf
00000250: d97b 78bf a35e 883e 3322 0340 29c0 f63d
00000260: 1ca2 493f 1463 0f3e 64e0 11bf ac58 91bf
00000270: f963 b9bd 64f5 e2ba b939 19bf 637f 1b41
00000280: 336e 12be 8026 c1bf 0b93 85be b3fa 0ebe
00000290: d5be 0ebe 4990 15be 3f47 313c 144c acbe
000002a0: c1a6 a53b 606e 5b3e 8fc4 3b3d 1539 433e
000002b0: e18c adbd f682 1dbf bfca abbd 0f65 b43d
000002c0: a42c ea3e c3db 00bf c5d8 ad3e ad55 36be
000002d0: 74b2 9dbe f86b 113f 61f8 0c3e 9763 63be
000002e0: 6b8b f13e ae0c bd3d 1a2c 863d 8c46 33be
000002f0: fc54 953f 5154 ebbe 1b0c 8bbc f9a9 d13e
00000300: 0726 313f 70bf 263e 683c b63e bdc4 183f
00000310: aad8 21bf 34c1 eebd 3d93 d3be ebae 693d
00000320: eef8 b83d f2d7 f2be aaab 50be a566 6c3f
00000330: 4404 c23e 6761 483e b7ca 54bf 5403 fdbe
00000340: 18b3 523f e88a 70bf fe6d 16bf db11 ab3e
00000350: 8273 773e 9343 40be e2c3 c4be 1af8 5e3f
00000360: 52dc a1be 01f0 883e 89f2 ae3e 5450 e33e
00000370: f076 d23e 6572 b7be 1282 e13e 76ea 0cbf
00000380: 2a15 93bf 6cde a53d 39cd 883d 2678 5dbd
00000390: b570 413d 3f81 f5bd 57a8 ddbd d972 6d3e
000003a0: 4408 95be 49af 103f 416a 2f3f 796c aa3d
000003b0: b330 c9be 5b4a 9b3d f9ce 2a3f cf60 fc3e
000003c0: 714a 2fbf e844 a83d 8e8c dd3e fbee fabe
000003d0: 9f2a c1bd b8de 6c3e 06b6 043e d999 83be
000003e0: 6358 983f 4e56 653f cd76 19be d153 013f
000003f0: c991 8d3d 6889 12bf a0f9 34be 1371 c73e

bigru.weight_hh_l0 f4 [96, 32]
0.10858951 0.23197418 2.4635258 1.1206253 0.13614006 -1.5214821 -1.2310507 0.08602182
0.01570912 -0.12553354 0.76989114 0.36120862 -0.8125419 -0.24320987 0.17206316 0.11942466
0.15367985 -0.5722795 -1.2179506 -2.329163 0.3086074 -2.2616708 1.0685893 -0.0688446
-0.3639381 -0.65717447 -1.692843 0.7716812 -0.68822473 -0.43316868 0.56019187 -0.055201553
0.058912937 0.19518498 -0.021514796 0.11480847 -0.05543165 -0.08126218 0.011736089 -0.12581275
-0.05146003 0.026992783 0.028714033 -0.104360275 -0.18504976 -0.04677161 -0.11192708 -0.07254027
-0.048587054 -0.07516328 0.15747425 0.06423891 0.28419596 -0.10165935 -0.09936134 -0.0936973
-0.12907174 -0.06142671 0.023542626 -0.030956997 -0.12468561 0.015687833 0.114432335 -0.009061835
0.18142803 -0.134046 -0.6788158 -0.46430528 -0.08720417 -0.8267693 -0.53160477 -0.23421587
-0.35666904 -1.0590277 -1.1338845 1.0777625 -1.8106865 -0.22275147 -0.028501991 -0.0011984322
0.27770954 -0.6698714 -0.47677162 0.32829216 0.03241905 -0.17126913 3.473806 -0.37262055
1.6693107 -0.8037326 0.54817384 0.0701616 -0.66292477 -0.88015604 0.6349677 -0.26898673
-0.6175022 -0.23666717 -0.122005574 -0.60798085 0.034546904 0.24251495 -0.40151373 -0.8274948
-0.6148545 -0.45096573 -0.73264956 0.39860445 -0.53446937 -0.034753658 1.4231303 0.07093332
-0.40733084 -0.5909627 -1.1290921 1.4847509 -0.26998806 -0.7933464 0.32425135 0.54778945
0.4930078 -0.5864517 -0.40370116 -0.40153423 -0.08437462 -0.5572951 0.4162477 -0.49662083
-0.24171399 -0.23002109 -0.48232183 -0.6292483 -0.06089727 0.13981824 -0.03343568 -0.15388851
0.106494 0.06788611 0.42122865 -0.37655616 0.101846494 0.17096521 -0.20805608 0.08980354
0.34474808 0.36915824 -0.32029858 0.42091995 -0.15228552 0.45567203 -0.32216716 -0.105914235
0.33527038 0.50728226 0.17951375 0.063802406 0.643251 0.27256295 -0.2972045 0.31104988
0.47203666 -0.32353154 0.87644666 0.20654352 -0.44106045 0.12845956 -1.5517635 0.021396382
0.17488696 -0.21930744 -1.0129617 0.3154578 0.21749707 0.22544636 -0.13020268 0.48407704
-0.1561784 -0.4521967 0.40306708 -0.2894829 -0.13534205 0.25228328 0.014612215 0.123929955
-0.033148997 0.2981378 0.20315187 0.34022534 -0.6002605 -0.30810916 -0.4754336 0.7956736
-0.06027245 0.29237634 0.39272088 0.16011995 0.1450574 0.765186 0.59012306 -0.04302073
0.17008927 -0.13601035 -1.9730093 -0.35192496 -0.48050952 0.023952313 0.42310247 -0.039642587
-0.32979983 -0.0028899244 -0.9509707 1.0841763 -0.5098845 -0.7473261 1.1550754 0.50801545
0.23857975 -1.1366544 -1.4060493 1.1418513 -0.022345373 -0.52438694 0.43743825 0.19705138
-0.17769462 -0.18390274 -1.8851053 -2.0021102 -0.23401384 -1.2804954 -1.1248331 -0.61553985
0.0023183774 0.11171504 0.53254193 0.22128257 -0.18885516 0.05464105 -0.24147372 0.17448835
0.25200534 -0.50143325 0.40673685 1.299703 0.04122961 -0.25252914 0.3744529 -0.13647874
-1.1364291 1.2705405 1.6909957 -1.8471233 -0.54274344 -0.048932236 0.027533125 0.09859303
00000000: 2d64 de3d a48a 6d3e 68aa 1d40 a670 8f3f
00000010: 4d68 0b3e edbf c2bf 1293 9dbf 352c b03d
00000020: 6ab0 803c dd8b 00be 9617 453f 56f0 b83e
00000030: bf02 50bf 020c 79be 5331 303e eb94 f43d
00000040: 405e 1d3e e980 12bf cee5 9bbf 0211 15c0
00000050: ca01 9e3e 37bf 10c0 89c7 883f 66fe 8cbd
00000060: 1856 babe 963c 28bf 14af d8bf e68c 453f
00000070: 7f2f 30bf 49c8 ddbe bc68 0f3f 061b 62bd
00000080: b14e 713d 92de 473e cc3f b0bc b420 eb3d
00000090: 4c0c 63bd c96c a6bd ba48 403c 0fd5 00be
000000a0: c1c7 52bd f81f dd3c b139 eb3c d7ba d5bd
000000b0: af7d 3dbe 9693 3fbd 063a e5bd fe8f 94bd
000000c0: 3803 47bd 35ef 99bd ee40 213e b18f 833d
000000d0: 2282 913e c732 d0bd f57d cbbd 5fe4 bfbd
000000e0: 622b 04be 939a 7bbd 77dc c03c 8799 fdbc
000000f0: 2b5b ffbd c583 803c 805b ea3d 1778 14bc
00000100: 45c8 393e 5b43 09be dfc6 2dbf 6cb9 edbe
00000110: 1a98 b2bd 27a7 53bf 4017 08bf 49d6 6fbe
00000120: 539d b6be 388e 87bf 2123 91bf 1ff4 893f
00000130: 93c4 e7bf f618 64be 027d e9bc b614 9dba
00000140: f22f 8e3e b17c 2bbf 691b f4be e915 a83e
00000150: d6c9 043d 2d61 2fbe d652 5e40 1fc8 bebe
00000160: f9ab d53f 6bc1 4dbf 1f55 0c3f e3b0 8f3d
00000170: 70b5 29bf e851 61bf 3e8d 223f a1b8 89be
00000180: a014 1ebf e158 72be 0fde f9bd a2a4 1bbf
00000190: 0e81 0d3d d755 783e 3593 cdbe b3d6 53bf
000001a0: 1b67 1dbf fbe4 e6be ec8e 3bbf e215 cc3e
000001b0: fcd2 08bf da59 0ebd 2229 b63f 7d45 913d
000001c0: ab8d d0be 5549 17bf 1786 90bf 510c be3f
000001d0: e03b 8abe c018 4bbf 4604 a63e ee3b 0c3f
000001e0: 856b fc3e b321 16bf ebb1 cebe e595 cdbe
000001f0: 9acc acbd e4aa 0ebf 6b1e d53e 1645 febe
00000200: df83 77be a68a 6bbe e3f2 f6be 6b16 21bf
00000210: 6a6f 79bd 832c 0f3e daf3 08bd f394 1dbe
00000220: 8719 da3d df07 8b3d 48ab d73e f8cb c0be
00000230: e594 d03d 8111 2f3e a70c 55be ebea b73d
00000240: d282 b03e 4f02 bd3e 2dfe a3be d282 d73e
00000250: bcf0 1bbe d84d e93e 18f3 a4be 90e9 d8bd
00000260: 8fa8 ab3e 40dd 013f 74d2 373e d6aa 823d
00000270: 19ac 243f 5f8d 8b3e 302b 98be ee41 9f3e
00000280: caae f13e eda5 a5be cf5e 603f 2580 533e
00000290: add2 e1be e78a 033e 30a0 c6bf 7747 af3c
000002a0: 9115 333e 2192 60be bba8 81bf af83 a13e
000002b0: 8db7 5e3e 69db 663e da53 05be f2d8 f73e
000002c0: 3bed 1fbe 5386 e7be cf5e ce3e 1a37 94be
000002d0: 1b97 0abe 462b 813e 1268 6f3c fdce fd3d
000002e0: 3ec7 07bd 85a5 983e 0b07 503e 0432 ae3e
000002f0: acaa 19bf 7cc0 9dbe 086c f3be 44b1 4b3f
00000300: 3fe0 76bd 5ab2 953e b612 c93e 7cf6 233e
00000310: ed89 143e 3be3 433f 4e12 173f 8136 30bd
00000320: e22b 2e3e 4c46 0bbe 928b fcbf 822f b4be
00000330: 5805 f6be a437 c43c e3a0 d83e 4460 22bd
00000340: 86db a8be e364 3dbb d172 73bf 4ac6 8a3f
00000350: ca87 02bf c350 3fbf 83d9 933f 4d0d 023f
00000360: 404e 743e e47d 91bf 6cf9 b3bf 2f28 923f
00000370: a50d b7bc 393e 06bf e8f7 df3e d6c7 493e
00000380: 94f5 35be 0051 3cbe 214b f1bf 9322 00c0
00000390: 53a1 6fbe 46e7 a3bf 88fa 8fbf 0594 1dbf
000003a0: ebef 173b dbca e43d ab54 083f e697 623e
000003b0: 3f63 41be 4bcf 5f3d e344 77be 13ad 323e
000003c0: d806 813e ee5d 00bf d03f d03e ab5c a63f
000003d0: 61e0 283d 804b 81be 4ab8 bf3e 15c1 0bbe
000003e0: 8276 91bf 12a1 a23f 8c72 d83f 896e ecbf
000003f0: 3cf1 0abf 2b6d 48bd 268d e13c 24eb c93d

bigru.bias_ih_l0 f4 [96]
0.053883497 0.81575024 0.085289076 0.5266761 -1.5035834 0.027653016 0.39423233 -0.20471828
-0.3488163 -1.0360552 -0.1478031 0.036341473 0.2719013 0.1170175 -0.38601887 1.9080917
-0.36100993 -0.7004253 0.069180526 0.25270286 -0.4720677 0.12761088 -0.20210986 -0.07299618
0.2565902 -0.32313284 -0.16482028 -0.005496979 0.05711422 -1.1793096 -0.09049934 0.10672171
0.10371628 0.0047567943 0.45931995 0.05759165 -0.058292024 0.22177915 0.045156423 0.2279897
-0.8977664 0.028038565 0.443369 -0.9348152 -0.13244005 -0.077057265 -0.22330487 0.010721432
-0.3885392 0.28250042 0.12649351 -0.0037488749 0.20317319 0.3128908 0.047514725 -0.0055443957
0.2190518 -0.35369053 -0.118842565 -0.05430496 0.14093865 0.01688574 -0.07069127 0.3870278
0.11632254 -0.3283371 0.24021448 0.18895058 -1.7962404 0.0020315573 -0.119604364 -0.09353786
0.05841847 0.025592143 0.16759473 0.008052838 0.08240563 0.14234063 -0.06991082 0.433398
-0.10848466 -0.0057890243 -0.07029459 -0.06591863 -0.01637809 -0.0029130152 -0.06469519 -0.037175473
-0.29745248 0.018581845 -0.32753256 0.07561733 -0.088292465 0.015922047 -0.06729609 -0.020930443
00000000: f1b4 5c3d 02d5 503f 0aac ae3d 3fd4 063f
00000010: 6c75 c0bf 9488 e23c d2d8 c93e aba1 51be
00000020: 0d98 b2be 759d 84bf b259 17be ccda 143d
00000030: a636 8b3e dfa6 ef3d 44a4 c5be 593c f43f
00000040: 4bd6 b8be 134f 33bf 85ae 8d3d 4562 813e
00000050: dcb2 f1be 6dac 023e e3f5 4ebe 057f 95bd
00000060: ca5f 833e ab71 a5be a6c6 28be 0120 b4bb
00000070: 9af0 693d 9ef3 96bf b857 b9bd e990 da3d
00000080: 3369 d43d e2de 9b3b fc2b eb3e 39e5 6b3d
00000090: 9ec3 6ebd 131a 633e f1f5 383d 2276 693e
000000a0: 05d4 65bf 22b1 e53c 4301 e33e 0d50 6fbf
000000b0: 5d9e 07be 33d0 9dbd 08aa 64be f2a8 2f3c
000000c0: 9cee c6be e5a3 903e 8487 013e afaf 75bb
000000d0: a20c 503e 3933 a03e cd9e 423d c3ad b5bb
000000e0: 1d4f 603e ed16 b5be bb63 f3bd e16e 5ebd
000000f0: 3952 103e f753 8a3c 96c6 90bd 8228 c63e
00000100: 833a ee3d cd1b a8be c9fa 753e 437c 413e
00000110: 35eb e5bf e023 053b 22f3 f4bd c790 bfbd
00000120: 3548 6f3d 9da6 d13c f49d 2b3e 0df0 033c
00000130: 48c4 a83d bec1 113e 672d 8fbd 58e6 dd3e
00000140: 352d debd dbb1 bdbb 9cf6 8fbd 5900 87bd
00000150: 582b 86bc 49e8 3ebb e97e 84bd 4f45 18bd
00000160: b14b 98be f438 983c 59b2 a7be 42dd 9a3d
00000170: aed2 b4bd f46e 823c 88d2 89bd 5276 abbc

bigru.bias_hh_l0 f4 [96]
0.053883497 0.81575024 0.085289076 0.5266761 -1.5035834 0.027653016 0.39423233 -0.20471828
-0.3488163 -1.0360552 -0.1478031 0.036341473 0.2719013 0.1170175 -0.38601887 1.9080917
-0.36100993 -0.7004253 0.069180526 0.25270286 -0.4720677 0.12761088 -0.20210986 -0.07299618
0.2565902 -0.32313284 -0.16482028 -0.005496979 0.05711422 -1.1793096 -0.09049934 0.10672171
0.10371628 0.0047567943 0.45931995 0.05759165 -0.058292024 0.22177915 0.045156423 0.2279897
-0.8977664 0.028038565 0.443369 -0.9348152 -0.13244005 -0.077057265 -0.22330487 0.010721432
-0.3885392 0.28250042 0.12649351 -0.0037488749 0.20317319 0.3128908 0.047514725 -0.0055443957
0.2190518 -0.35369053 -0.118842565 -0.05430496 0.14093865 0.01688574 -0.07069127 0.3870278
-0.013375842 -0.3082929 0.28035313 0.18789396 -1.8102745 0.088563435 -0.09875214 -0.111453176
-0.032229356 0.09724645 -0.096128464 0.14255303 0.070038885 0.13277191 0.060612842 1.1486633
-0.061531074 -0.021856155 -0.33193412 0.12994282 -0.22623925 0.027244855 0.31763887 0.1045378
-0.3058098 -0.16210921 -0.42580444 0.9814463 -0.004790209 -0.020641597 -0.06960461 -0.11674892
00000000: f1b4 5c3d 02d5 503f 0aac ae3d 3fd4 063f
00000010: 6c75 c0bf 9488 e23c d2d8 c93e aba1 51be
00000020: 0d98 b2be 759d 84bf b259 17be ccda 143d
00000030: a636 8b3e dfa6 ef3d 44a4 c5be 593c f43f
00000040: 4bd6 b8be 134f 33bf 85ae 8d3d 4562 813e
00000050: dcb2 f1be 6dac 023e e3f5 4ebe 057f 95bd
00000060: ca5f 833e ab71 a5be a6c6 28be 0120 b4bb
00000070: 9af0 693d 9ef3 96bf b857 b9bd e990 da3d
00000080: 3369 d43d e2de 9b3b fc2b eb3e 39e5 6b3d
00000090: 9ec3 6ebd 131a 633e f1f5 383d 2276 693e
000000a0: 05d4 65bf 22b1 e53c 4301 e33e 0d50 6fbf
000000b0: 5d9e 07be 33d0 9dbd 08aa 64be f2a8 2f3c
000000c0: 9cee c6be e5a3 903e 8487 013e afaf 75bb
000000d0: a20c 503e 3933 a03e cd9e 423d c3ad b5bb
000000e0: 1d4f 603e ed16 b5be bb63 f3bd e16e 5ebd
000000f0: 3952 103e f753 8a3c 96c6 90bd 8228 c63e
00000100: 5926 5bbc 91d8 9dbe 728a 8f3e 4667 403e
00000110: 13b7 e7bf bf60 b53d 903e cabd 9041 e4bd
00000120: ee02 04bd 2629 c73d 00df c4bd 6cf9 113e
00000130: 8c70 8f3d 5cf5 073e 2c45 783d 6607 933f
00000140: 0208 7cbd ae0b b3bc 45f3 a9be bb0f 053e
00000150: 43ab 67be 9a30 df3c 90a1 a23e ea17 d63d
00000160: 1a93 9cbe f5ff 25be 0a03 dabe 1140 7b3f
00000170: 2ff7 9cbb 9118 a9bc dd8c 8ebd 0f1a efbd

bigru.weight_ih_l0_reverse f4 [96, 32]
-0.2065113 -0.5050525 0.0167813 -0.8943754 1.0333349 0.8851938 0.922276 0.5785117
-0.22813836 0.44842574 0.40115216 -1.009028 -1.1289412 0.41534922 0.54715323 0.015974825
-0.9226239 0.84173113 0.31867197 -0.7163278 -0.62070256 0.17088921 0.49134776 0.2656265
0.6223455 0.46558833 -1.0674814 -1.2731216 0.019186271 0.080904186 -0.67583185 0.36082166
-0.07153582 0.7057017 0.52701414 0.2665266 -0.38601565 -0.25028467 -0.37881848 -0.6900939
1.0370197 -1.5649648 -1.8545283 0.71835303 0.70500094 0.47339532 0.2398912 0.19996993
0.5417259 -0.055702217 -1.5943187 1.2865247 0.5205902 0.9612811 -1.3589593 0.15592572
0.6066651 -1.1718862 0.5742174 -0.41702422 -0.8384245 0.5827501 -0.46389428 -0.36427143
0.51049066 1.0093081 0.91023463 0.99718297 0.15340073 -0.6858789 -0.4211429 -0.9686914
1.0280198 -1.9391552 -1.2503276 -0.036169708 0.86997545 0.2526768 -1.1984754 -0.8322743
0.6041641 -0.5427093 -1.3988923 1.3510765 0.7889803 -2.0321531 -1.5216217 -0.26225114
-0.12558065 -0.34582144 0.22655757 0.1468378 -0.3013451 0.41601253 0.49613374 -1.0077878
0.39669025 0.7001416 0.03728375 0.01285535 -0.15976104 -0.21959503 0.12020619 -2.485564
1.6785512 -0.5583496 -0.95033437 0.18364023 2.0466862 0.19619048 0.17867094 0.13781738
0.7386454 0.07732387 -0.6221042 0.6036062 -0.0539288 -0.2707724 -1.1853273 0.15716103
-1.4827516 -0.111288495 0.06476714 0.48487136 -0.24976876 0.74133426 -0.08946766 -5.080661
0.017571952 0.27719355 -0.48061988 -0.46635976 -0.2666008 0.24936765 -0.31844962 2.3744087
-0.94238406 0.32570666 0.7310224 -0.25911722 -1.7986217 0.23796037 0.021879828 0.1956328
-0.42525086 0.5155344 0.20002787 -0.4472633 0.18160057 0.27498263 0.7104961 -0.36923113
0.05463527 0.028066644 -0.32333985 -0.23114365 -0.47683755 -0.2605011 -0.16214691 2.2012513
-0.77883554 -1.8570461 -0.07443974 0.17060167 -0.88236934 -1.111193 -1.0704942 0.47157773
-0.406822 4.597203 2.3486207 0.47147027 0.20106457 -1.7996938 -0.44410497 -0.40438685
0.840454 -1.1418606 1.4580474 -1.1323736 0.6487994 -0.65273225 0.14790167 1.0275224
0.4285968 1.9352998 0.8744784 0.036380906 1.7830651 -1.7434523 1.7450206 -0.49001437
0.102400996 0.53564686 0.17999522 0.5197068 0.31882158 0.25376555 0.18270478 0.37794423
-0.17465118 0.3549509 -0.2550364 0.19614117 0.11541989 0.6645585 -0.39730856 0.063424274
-0.44101545 0.2559356 -0.5400277 0.16430368 -0.12719692 -0.22055504 0.042240668 0.32185596
-0.6542325 -0.5091882 0.37389928 -0.7273024 -0.671049 0.59689295 0.33854046 0.36499473
0.6087531 0.1813741 0.43499306 0.48847395 -1.1111532 -0.4932164 -0.8571059 0.04183424
0.2233576 -0.21313179 0.21416086 0.6307134 -0.24444415 -0.42513514 0.002891656 -0.27234283
0.25122708 -0.44283283 -0.029537825 -0.064711295 0.4908061 -1.0965688 -0.21345735 0.28526074
0.27583826 0.7393333 0.8047137 0.96247435 -0.2906702 -0.37832102 1.4996732 -0.120897055
00000000: b377 53be 1f4b 01bf f078 893c c9f5 64bf
00000010: 5144 843f 109c 623f 481a 6c3f 5819 143f
00000020: 1a9d 69be 0f98 e53e d163 cd3e d427 81bf
00000030: 2581 90bf a7a8 d43e 3c12 0c3f a3dd 823c
00000040: 1431 6cbf b17b 573f f928 a33e 4261 37bf
00000050: 5de6 1ebf 95fd 2e3e ef91 fb3e 3200 883e
00000060: 0952 1f3f 9861 ee3e 3ba3 88bf a6f5 a2bf
00000070: 872c 9d3c 18b1 a53d 5103 2dbf 9ebd b83e
00000080: 5f81 92bd dea8 343f 66ea 063f 2d76 883e
00000090: d8a3 c5be 5025 80be 7ff4 c1be fea9 30bf
000000a0: 10bd 843f c450 c8bf 2f61 edbf fce5 373f
000000b0: f17a 343f df60 f23e 0aa6 753e ebc4 4c3e
000000c0: 8cae 0a3f 0228 64bd a312 ccbf d7ac a43f
000000d0: 6645 053f 8516 763f 61f2 adbf feaa 1f3e
000000e0: 674e 1b3f 5e00 96bf e9ff 123f 3384 d5be
000000f0: fda2 56bf 1c2f 153f 8d83 edbe c981 babe
00000100: 84af 023f 0231 813f 2305 693f 6247 7f3f
00000110: 1515 1d3e c295 2fbf 0ba0 d7be 29fc 77bf
00000120: 2796 833f 3d36 f8bf bc0a a0bf b026 14bd
00000130: b6b6 5e3f db5e 813e a467 99bf ee0f 55bf
00000140: 80aa 1a3f ffee 0abf e70e b3bf 13f0 ac3f
00000150: 9dfa 493f cc0e 02c0 80c4 c2bf c845 86be
00000160: 3798 00be 820f b1be b5fe 673e a65c 163e
00000170: e849 9abe 98ff d43e 3e05 fe3e 31ff 80bf
00000180: fc1a cb3e 7b3c 333f d8b6 183d 3f9f 523c
00000190: 6698 23be 85dd 60be aa2e f63d 7b13 1fc0
000001a0: c4da d63f 00f0 0ebf 1d49 73bf 2f0c 3c3e
000001b0: e8fc 0240 28e6 483e 84f5 363e 0020 0d3e
000001c0: dd17 3d3f fa5b 9e3d 3942 1fbf f085 1a3f
000001d0: 72e4 5cbd aea2 8abe ceb8 97bf d2ee 203e
000001e0: ceca bdbf 39eb e3bd a2a4 843d 0f41 f83e
000001f0: 62c3 7fbe 15c8 3d3f d23a b7bd c694 a2c0
00000200: 0ef3 8f3c 50ec 8d3e cf13 f6be b5c6 eebe
00000210: e67f 88be 3c5a 7f3e d40b a3be 50f6 1740
00000220: 1540 71bf 06c3 a63e 4924 3b3f 03ab 84be
00000230: 3c39 e6bf e2ab 733e 533d b33c f753 483e
00000240: 7bba d9be 10fa 033f 1bd4 4c3e b2ff e4be
00000250: 80f5 393e 86ca 8c3e 13e3 353f dd0b bdbe
00000260: 3cc9 5f3d 05ec e53c cd8c a5be ecb0 6cbe
00000270: 0d24 f4be 6660 85be d709 26be 4de1 0c40
00000280: c461 47bf b0b3 edbf dd73 98bd 34b2 2e3e
00000290: f5e2 61bf 923b 8ebf f405 89bf a372 f13e
000002a0: f94a d0be 491c 9340 cd4f 1640 8d64 f13e
000002b0: dfe3 4d3e 5e5c e6bf ba61 e3be cb0b cfbe
000002c0: fe27 573f 7d28 92bf 4ca1 ba3f 9ef1 90bf
000002d0: b817 263f 7619 27bf 8973 173e db85 833f
000002e0: 0a71 db3e e7b7 f73f d1dd 5f3f 2504 153d
000002f0: 7a3b e43f 7229 dfbf d65c df3f 2ae3 fabe
00000300: 9db7 d13d 2720 093f ab50 383e 810b 053f
00000310: 953c a33e 8fed 813e f616 3b3e e881 c13e
00000320: c2d7 32be 20bc b53e 2294 82be 3bd9 483e
00000330: 4361 ec3d 8120 2a3f 076c cbbe 96e4 813d
00000340: c7cc e1be fe09 833e 413f 0abf 393f 283e
00000350: e93f 02be 2ed9 61be 8d04 2d3d 4eca a43e
00000360: c87b 27bf 285a 02bf ba6f bf3e 7d30 3abf
00000370: dec9 2bbf facd 183f 2d55 ad3e 97e0 ba3e
00000380: 3ed7 1b3f 22ba 393e 69b7 de3e 4219 fa3e
00000390: 453a 8ebf dc86 fcbe 4b6b 5bbf 615a 2b3d
000003a0: dbb7 643e 383f 5abe fc4c 5b3e 6f76 213f
000003b0: 914f 7abe 50ab d9be f081 3d3b 8570 8bbe
000003c0: d6a0 803e fcba e2be 4ff9 f1bc 5b87 84bd
000003d0: f04a fb3e 5e5c 8cbf 9094 5abe b20d 923e
000003e0: ac3a 8d3e f244 3d3f b801 4e3f b864 763f
000003f0: b9d2 94be 4bb3 c1be 4bf5 bf3f e098 f7bd

bigru.weight_hh_l0_reverse f4 [96, 32]
-3.4819665 -0.83876354 0.4256933 -0.40744382 0.009457012 0.6351682 0.7679672 0.5698583
0.54191583 -0.63612276 0.125442 0.60338503 -0.6386183 -0.37884837 -0.5756991 0.35112554
-0.34247243 -0.6285972 -0.6583626 -0.21588174 0.37743282 -0.9492435 0.602209 -0.5588544
-0.21704198 -1.7454287 -1.2248702 -0.20371154 0.5260129 -0.74606174 -0.33316913 -0.64590555
0.2757096 0.358958 0.28904027 0.29892164 -0.2217537 -0.08170235 -0.35460374 -0.18361475
-0.42642397 0.25450245 0.067116655 -0.3690127 0.3575128 0.082191445 -0.20756583 -0.14157444
0.037918493 0.11240172 0.23328413 -0.29510918 -0.22540198 0.18853466 -0.16496526 0.018872645
-0.017340051 0.06942984 0.33570367 0.4864301 0.30290717 -0.37936985 -0.10083194 -0.11705364
0.36528525 -0.7270623 -1.0389395 0.95525116 0.5971645 -0.9793993 0.97354233 0.31954405
0.72046185 1.0248971 -0.40550187 -0.45400342 0.8430743 0.9856409 -0.7851076 -0.045272257
0.16721365 -0.37280777 0.1902138 0.79709554 1.3632053 -0.79200226 -0.7164299 0.47748658
0.18298498 -0.06062493 -1.1572906 0.3250086 -0.06808625 0.9612513 1.2561995 -0.13998578
0.02891174 0.493852 0.65659267 -0.748488 -0.54488474 0.6063255 -0.5043839 0.5022333
1.2816634 -0.6087139 -2.0478787 -0.49235886 -0.82660973 -0.82059395 -0.13440464 -0.09649544
-0.1651746 1.5529755 -0.11633338 -0.54177386 -0.5163141 0.7524074 -0.07452789 0.1259118
0.07550288 -0.20952564 0.41547298 -0.3220348 0.23453991 -0.73341507 -0.60131615 0.1824879
0.060105503 0.08265483 -0.09723888 0.11035716 0.13407099 0.20571816 0.0666523 -1.9494864
0.45238566 -0.12853828 -0.5561458 0.034927797 0.10609492 0.045072895 -0.42725402 -0.24774313
0.0040878085 -0.24214901 -0.13939632 0.027212188 -0.031558547 -0.07102914 -1.2276927 0.95898974
-0.13331276 0.5693594 -0.08899637 0.3874685 -0.60090786 0.14191401 0.03068153 -0.641605
0.33513072 0.19159922 0.13471892 0.450469 -0.5450706 -0.40617484 -0.37072846 0.121947624
0.19264625 0.40902093 -0.20295365 -0.1805292 0.37241748 0.36414525 0.07584395 0.053181805
0.35232186 0.04712704 -0.16224895 0.12934735 -0.35738492 0.25518486 -0.3546059 0.5440505
0.44777572 0.15224926 1.3578598 0.5542513 0.08414977 0.2761509 -0.14273593 0.012602384
-0.1033195 0.08470033 0.6646368 -0.6222833 -0.5649281 0.7088205 -0.33584335 0.20634966
0.506169 -0.33073306 -0.20687073 -0.10447508 -0.5015697 -0.37342408 1.2233708 -0.24714768
-0.8135758 0.98109126 0.21828647 -1.2163178 -0.37713382 0.16335025 0.35306644 -0.46454996
-1.2453603 0.8078911 0.74069625 -1.2833115 -0.084121265 -0.7959187 -0.56752974 -1.2428336
0.83212316 0.92593926 0.5285038 -0.09257035 0.19326214 0.1703348 -1.0844264 0.41360295
-0.17212437 0.379581 -0.0060910354 -0.3479201 -0.20457266 0.037084267 0.57748765 -0.76726896
-0.16215782 0.45530793 0.90861255 -0.16542122 -0.53590775 0.8631872 -0.07253608 -0.010777905
-0.20839533 0.949171 0.20081005 -0.26122805 -0.8089231 -0.11338311 -0.41634253 0.09650271
00000000: 8ad8 5ec0 35b9 56bf 79f4 d93e 7a9c d0be
00000010: 95f1 1a3c 629a 223f 8099 443f 3ce2 113f
00000020: ffba 0a3f f1d8 22bf de73 003e 7177 1a3f
00000030: 7d7c 23bf 6af8 c1be 0461 13bf bac6 b33e
00000040: 8c58 afbe bfeb 20bf 748a 28bf 1a10 5dbe
00000050: e03e c13e 9f01 73bf 5e2a 1a3f 1511 0fbf
00000060: 4140 5ebe 356a dfbf 8cc8 9cbf c299 50be
00000070: c8a8 063f e7fd 3ebf 2595 aabe 115a 25bf
00000080: cf29 8d3e 58c9 b73e 16fd 933e 420c 993e
00000090: 6713 63be 9053 a7bd 9f8e b5be 8105 3cbe
000000a0: 3e54 dabe 254e 823e 7574 893d 3cef bcbe
000000b0: eb0b b73e fd53 a83d 238c 54be e4f8 10be
000000c0: 6c50 1b3d df32 e63d 09e2 6e3e 8d18 97be
000000d0: c7cf 66be 3b0f 413e a7ec 28be ce9a 9a3c
000000e0: b90c 8ebc 3b31 8e3d 5ae1 ab3e 5e0d f93e
000000f0: a616 9b3e c43c c2be fa80 cebd d2b9 efbd
00000100: ab06 bb3e c120 3abf f8fb 84bf 578b 743f
00000110: c6df 183f eab9 7abf 123a 793f 479b a33e
00000120: 3070 383f d42f 833f f19d cfbe 2373 e8be
00000130: b8d3 573f f652 7c3f d0fc 48bf 676f 39bd
00000140: 0e3a 2b3e a9e0 bebe 68c7 423e 740e 4c3f
00000150: 837d ae3f a9c0 4abf f367 37bf 1f79 f43e
00000160: 6a60 3b3e d951 78bd 1922 94bf 8767 a63e
00000170: ce70 8bbd 9114 763f 25cb a03f 6f58 0fbe
00000180: 50d8 ec3c 2bda fc3e 7516 283f e99c 3fbf
00000190: 917d 0bbf 2638 1b3f 4e1f 01bf 5d92 003f
000001a0: 8c0d a43f add4 1bbf 7210 03c0 7616 fcbe
000001b0: b29c 53bf 7212 52bf 5fa1 09be 679f c5bd
000001c0: 8823 29be e7c7 c63f 3240 eebd b1b1 0abf
000001d0: 292d 04bf c59d 403f 14a2 98bd 06ef 003e
000001e0: 41a1 9a3d e48d 56be e0b8 d43e bfe1 a4be
000001f0: 3b2b 703e 17c1 3bbf dbef 19bf 1cde 3a3e
00000200: 3031 763d ef46 a93d 2e25 c7bd ef02 e23d
00000210: e849 093e c8a7 523e 0081 883d c588 f9bf
00000220: 189f e73e 8a9f 03be 925f 0ebf 7310 0f3d
00000230: 4b48 d93d 5b9e 383d 0ac1 dabe 60b0 7dbe
00000240: 06f3 853b e9f5 77be e9bd 0ebe 18ec de3c
00000250: 8943 01bd ba77 91bd 0925 9dbf 5a80 753f
00000260: 2483 08be 8ac1 113f bb43 b6bd 4562 c63e
00000270: 19d5 19bf e851 113e d557 fb3c 3a40 24bf
00000280: 4196 ab3e 9632 443e c2f3 093e dfa3 e63e
00000290: bf89 0bbf 26f6 cfbe 1fd0 bdbe adbf f93d
000002a0: 0f45 453e 316b d13e 15d3 4fbe a6dc 38be
000002b0: 81ad be3e 3f71 ba3e 1354 9b3d 2ad5 593d
000002c0: 8863 b43e 4808 413d 9724 26be a273 043e
000002d0: 28fb b6be 97a7 823e e88e b5be e546 0b3f
000002e0: dc42 e53e 3be7 1b3e 5ace ad3f 6ae3 0d3f
000002f0: b756 ac3d a763 8d3e 5e29 12be 3b7a 4e3c
00000300: 2d99 d3bd 5e77 ad3d a325 2a3f f54d 1fbf
00000310: 219f 10bf 4375 353f a9f3 abbe 534d 533e
00000320: 4b94 013f d855 a9be ecd5 53be 08f7 d5bd
00000330: df66 00bf 7131 bfbe 6a97 9c3f 4814 7dbe
00000340: 8146 50bf cc28 7b3f 7d86 5f3e 4db0 9bbf
00000350: af17 c1be 4a45 273e 20c5 b43e 7ed9 edbe
00000360: f767 9fbf f3d1 4e3f 459e 3d3f 8d43 a4bf
00000370: c547 acbd 54c1 4bbf a149 11bf 2c15 9fbf
00000380: 0606 553f 5b0a 6d3f 064c 073f 8695 bdbd
00000390: 83e6 453e 3f6c 2e3e 7cce 8abf c4c3 d33e
000003a0: 5f41 30be 7158 c23e 4f97 c7bb 9522 b2be
000003b0: 7f7b 51be ace5 173d 3bd6 133f bd6b 44bf
000003c0: b30c 26be 1f1e e93e d59a 683f 2e64 29be
000003d0: 4031 09bf d6f9 5c3f cc8d 94bd cf95 30bc
000003e0: 9665 55be dffc 723f 26a1 4d3e afbf 85be
000003f0: 9615 4fbf 6735 e8bd d92a d5be 36a3 c53d

bigru.bias_ih_l0_reverse f4 [96]
-0.74129695 0.38386127 0.74643314 0.522016 -0.04957322 0.51046056 -0.045056496 0.22882597
0.6007232 0.18146205 -0.8157695 0.9434952 -0.387439 -0.4158989 0.69957525 -0.3025619
-0.6411032 -0.46394578 0.11320361 0.057359546 0.25701934 -1.0663221 -0.32199278 0.12777252
-0.12375233 -1.3066131 0.49561143 -0.22245784 -0.4973427 -0.13891207 0.2549684 -0.5493393
-0.028940829 0.05952726 0.86265355 0.19186458 0.35724676 0.32018128 0.19479199 0.36814645
0.09872878 0.11093836 0.4424308 0.07469774 0.08053763 0.19339369 0.2384215 -0.34098008
-0.8956283 0.29949766 -0.34653458 0.061356418 0.33503258 0.077166714 0.1713569 -0.27992985
-0.8195106 0.16813242 0.029677615 -0.22080094 -0.48167622 0.106873535 1.1130488 0.17297728
0.08588863 0.043317463 -0.23915285 0.5084058 0.32908258 -0.49198163 -0.034727614 -0.095970266
-0.08198718 0.39826652 0.09629584 -0.41480604 0.29208404 0.8031528 0.08859761 -0.008549041
-0.015561542 0.047109134 -0.011161471 0.024692252 0.06394353 -0.05584642 -1.4825 0.37932155
-0.04411952 0.069338724 0.08595924 -0.005085647 -0.012347992 0.5407046 0.20938025 0.0009848112
00000000: a3c5 3dbf 7789 c43e 3e16 3f3f d7a2 053f
00000010: 4a0d 4bbd 8bad 023f 298d 38bd 5b51 6a3e
00000020: ffc8 193f 30d1 393e 45d6 50bf e788 713f
00000030: 685e c6be b3f0 d4be 5d17 333f 65e9 9abe
00000040: 571f 24bf 4d8a edbe 4bd7 e73d d8f1 6a3d
00000050: 0a98 833e 3e7d 88bf 3ddc a4be cdd6 023e
00000060: dd71 fdbd 193f a7bf c8c0 fd3e fdcb 63be
00000070: b4a3 febe f73e 0ebe 388b 823e 80a1 0cbf
00000080: 5115 edbc dbd2 733d ddd6 5c3f 2678 443e
00000090: 0ce9 b63e cdee a33e 8d77 473e b17d bc3e
000000a0: 5132 ca3d a733 e33d 4a86 e23e 21fb 983d
000000b0: eaf0 a43d ff08 463e c424 743e f194 aebe
000000c0: e547 65bf c257 993e fb6c b1be de50 7b3d
000000d0: 6489 ab3e 9509 9e3d 2f78 2f3e f752 8fbe
000000e0: 72cb 51bf e82a 2c3e 781e f33c a419 62be
000000f0: 449e f6be 83e0 da3d 6278 8e3f f520 313e
00000100: 61e6 af3d a76d 313d 7ce4 74be e226 023f
00000110: 837d a83e 04e5 fbbe 8b3e 0ebd 0f8c c4bd
00000120: e5e8 a7bd 97e9 cb3e c136 c53d 7561 d4be
00000130: 0a8c 953e 6c9b 4d3f aa72 b53d 4711 0cbc
00000140: d6f5 7ebc 82f5 403d 9ade 36bc 6847 ca3c
00000150: d3f4 823d 37bf 64bd 8fc2 bdbf 6f36 c23e
00000160: abb6 34bd 7601 8e3d 660b b03d 80a5 a6bb
00000170: 3b4f 4abc 9e6b 0a3f c767 563e c814 813a

bigru.bias_hh_l0_reverse f4 [96]
-0.74129695 0.38386127 0.74643314 0.522016 -0.04957322 0.51046056 -0.045056496 0.22882597
0.6007232 0.18146205 -0.8157695 0.9434952 -0.387439 -0.4158989 0.69957525 -0.3025619
-0.6411032 -0.46394578 0.11320361 0.057359546 0.25701934 -1.0663221 -0.32199278 0.12777252
-0.12375233 -1.3066131 0.49561143 -0.22245784 -0.4973427 -0.13891207 0.2549684 -0.5493393
-0.028940829 0.05952726 0.86265355 0.19186458 0.35724676 0.32018128 0.19479199 0.36814645
0.09872878 0.11093836 0.4424308 0.07469774 0.08053763 0.19339369 0.2384215 -0.34098008
-0.8956283 0.29949766 -0.34653458 0.061356418 0.33503258 0.077166714 0.1713569 -0.27992985
-0.8195106 0.16813242 0.029677615 -0.22080094 -0.48167622 0.106873535 1.1130488 0.17297728
0.08782681 0.059714485 -0.2450961 0.5543005 -0.13695572 -0.48847547 -0.18376404 -0.06337212
-0.12716001 0.46807694 -0.52711457 -0.3859386 0.33675155 0.32576925 0.12574095 -0.14584908
-0.16383652 -0.10029732 0.18584202 -0.09036799 -0.00039694438 0.096085906 -1.5734552 -0.39304462
-0.21983507 0.08313052 0.30331331 0.034710046 -0.10411097 0.8177416 0.5354806 0.08068463
00000000: a3c5 3dbf 7789 c43e 3e16 3f3f d7a2 053f
00000010: 4a0d 4bbd 8bad 023f 298d 38bd 5b51 6a3e
00000020: ffc8 193f 30d1 393e 45d6 50bf e788 713f
00000030: 685e c6be b3f0 d4be 5d17 333f 65e9 9abe
00000040: 571f 24bf 4d8a edbe 4bd7 e73d d8f1 6a3d
00000050: 0a98 833e 3e7d 88bf 3ddc a4be cdd6 023e
00000060: dd71 fdbd 193f a7bf c8c0 fd3e fdcb 63be
00000070: b4a3 febe f73e 0ebe 388b 823e 80a1 0cbf
00000080: 5115 edbc dbd2 733d ddd6 5c3f 2678 443e
00000090: 0ce9 b63e cdee a33e 8d77 473e b17d bc3e
000000a0: 5132 ca3d a733 e33d 4a86 e23e 21fb 983d
000000b0: eaf0 a43d ff08 463e c424 743e f194 aebe
000000c0: e547 65bf c257 993e fb6c b1be de50 7b3d
000000d0: 6489 ab3e 9509 9e3d 2f78 2f3e f752 8fbe
000000e0: 72cb 51bf e82a 2c3e 781e f33c a419 62be
000000f0: 449e f6be 83e0 da3d 6278 8e3f f520 313e
00000100: 8bde b33d 2d97 743d 79fa 7abe a3e6 0d3f
00000110: 1f3e 0cbe 7519 fabe a42c 3cbe 3ec9 81bd
00000120: 3c36 02be c8a7 ef3e fbf0 06bf bf99 c5be
00000130: b36a ac3e 3acb a63e 3cc2 003e 7659 15be
00000140: c3c4 27be ae68 cdbd 5f4d 3e3e da12 b9bd
00000150: f91c d0b9 b0c8 c43d fb66 c9bf 253d c9be
00000160: 721c 61be 5640 aa3d e24b 9b3e 1f2c 0e3d
00000170: 2238 d5bd 8357 513f 4215 093f fc3d a53d

bigru.weight_ih_l1 f4 [96, 64]
-0.40396085 0.17972317 1.6545185 0.2738474 0.44466722 1.107144 -1.3482577 0.4747169
-0.023429316 -0.28435865 -0.31417993 1.0744456 -0.10796799 -0.7045827 0.040308565 -0.17382479
-0.342019 -0.6279852 -0.17889597 2.2929204 1.050168 -0.56918573 0.804002 -0.061018433
-0.06079673 -0.077074684 0.104711905 -0.6965741 -0.24971122 0.25349608 0.57613844 0.2180742
-0.30135232 -0.7724463 -0.48519304 -0.15111376 -0.70376015 1.0157701 -0.55665845 0.6938626
-0.8553841 -0.20424849 -0.07611763 -0.31773773 0.01935588 0.24603035 -1.0484955 0.08643854
-0.18049501 -0.8742018 -0.32464498 -0.02779433 0.8422121 -0.10129294 -0.81661755 -0.31725597
0.022151994 0.35768506 -0.32641613 0.07635277 -0.008720497 -0.05953746 -0.26091763 -0.14413871
-0.08483282 -0.20047005 0.12961331 0.2583828 -0.086809404 0.45313826 -1.0147183 0.17757319
0.012208888 0.30441177 -0.047542777 0.04571048 -0.15816486 0.2883166 -0.02609745 0.2817712
-0.067201234 -0.37110177 0.050853807 -0.15825328 -0.074645385 -0.9197836 0.46666086 0.10832304
-0.2433875 0.094240636 0.48547137 -0.67628044 -0.8220359 -0.19211411 0.32404163 -0.1406812
-0.44122314 0.19025458 0.035955723 -0.7491057 -0.09968587 0.06811277 -0.3175643 -0.16108587
-0.27801257 0.29950193 0.02269432 0.06459178 -0.10313023 0.111179136 0.21341169 0.064725436
-0.7941621 -0.026544701 -0.05843068 -0.26246086 0.1798761 -0.20677501 0.0022886153 0.29711962
-0.617466 -0.021724775 -0.19031344 -0.3769711 -0.3238555 0.17758279 -0.39015198 -0.13031137
0.030424654 -0.42399982 -1.1822604 0.27578023 -0.21060883 0.57820475 -0.12469318 0.20736268
0.16785076 -0.921901 -1.1864294 0.29125684 0.19787121 -0.28276178 0.0024851519 -0.06683625
0.2638701 -0.07705224 0.1502872 0.62737244 0.03309104 0.65071046 0.1585196 0.10585872
0.45878148 0.07629654 0.21734345 -0.7238263 -0.26486626 -0.43078336 -0.2630644 -0.21135657
0.14802921 0.25454456 -0.33503285 -0.31306168 0.08431523 0.0437688 0.046360653 -0.11342089
0.69298583 0.11958853 -0.23438321 0.07963481 -0.07426328 0.022138003 0.37990892 0.19999366
-0.36016145 -0.015071634 0.08495568 0.03303561 0.3137474 0.16517413 0.117232904 -0.44319084
-0.14892706 -0.34370118 0.07779074 -0.80564547 -0.3906675 0.3799643 0.7747895 0.20912623
-0.29706034 0.44110224 0.6190677 -0.472741 0.050320458 -0.060970817 -0.045251135 -0.3025265
0.10103305 0.02651557 -0.28982985 0.019641565 -0.6228805 -0.20667362 0.14168775 -0.011951679
0.15633634 -0.5246058 -0.065830596 0.38313797 0.390598 -1.5736524 0.3957022 0.14378636
-0.07678608 0.15584843 0.12172583 -0.35307142 0.16147774 -0.35386452 0.28142735 -0.42085293
-0.032956764 0.12817958 0.42125762 -0.45317546 -0.017457196 0.23311597 -0.3168618 0.30724877
1.0473537 0.089647114 -0.11482713 0.026091743 0.26107034 0.041536193 -0.09195014 0.17083816
-0.2806811 -0.52270097 0.15592249 -1.0193771 -0.19316575 -0.23249839 0.027624689 -0.2444691
0.031921387 -0.22015227 -0.16382928 -0.22660652 -0.5078053 -0.13293633 -0.16192734 -0.6353167
00000000: f5d3 cebe 5a09 383e 43c7 d33f ba35 8c3e
00000010: 6cab e33e e5b6 8d3f b593 acbf 180e f33e
00000020: d6ee bfbc 7597 91be 31dc a0be 6f87 893f
00000030: 521e ddbd 885f 34bf 981a 253d 20ff 31be
00000040: 1d1d afbe a3c3 20bf 8130 37be 35bf 1240
00000050: e86b 863f 28b6 11bf 13d3 4d3f 77ee 79bd
00000060: fe05 79bd 55d9 9dbd 3273 d63d ae52 32bf
00000070: 4cb4 7fbe 3dca 813e cf7d 133f d84e 5f3e
00000080: da4a 9abe 0abf 45bf 396b f8be 91bd 1abe
00000090: a029 34bf c104 823f 2b81 0ebf fba0 313f
000000a0: 74fa 5abf 8426 51be 8fe3 9bbd 85ae a2be
000000b0: 3990 9e3c 61ef 7b3e 1a35 86bf b006 b13d
000000c0: afd3 38be b0cb 5fbf de37 a6be efb0 e3bc
000000d0: 369b 573f ac72 cfbd d90d 51bf 606f a2be
000000e0: 1978 b53c 7f22 b73e 0420 a7be d75e 9c3d
000000f0: 6ae0 0ebc 8ddd 73bd ff96 85be 1999 13be
00000100: d4bc adbd 0548 4dbe 5ab9 043e c04a 843e
00000110: 21c9 b1bd bd01 e83e 4ae2 81bf bfd5 353e
00000120: ca07 483c dcdb 9b3e 37bc 42bd ea3a 3b3d
00000130: f8f5 21be 3c9e 933e 52ca d5bc 5144 903e
00000140: cda0 89bd 0d01 bebe 154c 503d 260d 22be
00000150: aedf 98bd f076 6bbf 2cee ee3e 78d8 dd3d
00000160: 933a 79be 3c01 c13d b48f f83e b720 2dbf
00000170: f270 52bf 90b9 44be c9e8 a53e bc0e 10be
00000180: 00e8 e1be 19d2 423e 4f46 133d 64c5 3fbf
00000190: 1b28 ccbd b57e 8b3d ca97 a2be b2f3 24be
000001a0: aa57 8ebe 5158 993e 70e9 b93c b248 843d
000001b0: f135 d3bd e3b1 e33d 9888 5a3e c58e 843d
000001c0: 354e 4bbf 4674 d9bc 0255 6fbd 4561 86be
000001d0: 7131 383e d4bc 53be 98fc 153b 1020 983e
000001e0: 4012 1ebf 28f8 b1bc 87e1 42be 5b02 c1be
000001f0: 63d0 a5be 43d8 353e 00c2 c7be 5870 05be
00000200: 203d f93c 8116 d9be 4f54 97bf 1133 8d3e
00000210: d7a9 57be 3a05 143f 235f ffbd e256 543e
00000220: 12e1 2b3e b401 6cbf ebdc 97bf 9e1f 953e
00000230: c09e 4a3e 27c6 90be eedd 223b 72e1 88bd
00000240: fb19 873e 91cd 9dbd e3e4 193e 7b9b 203f
00000250: 788a 073d f694 263f f652 223e 75cc d83d
00000260: 68e5 ea3e 5c41 9c3d 488f 5e3e ae4c 39bf
00000270: 8d9c 87be a38f dcbe 61b0 86be db6d 58be
00000280: f894 173e aa53 823e 6d89 abbe 9f49 a0be
00000290: 77ad ac3d ea46 333d abe4 3d3d 3649 e8bd
000002a0: 8567 313f d5ea f43d 2702 70be 9317 a33d
000002b0: 5917 98bd c25a b53c 6c83 c23e 23cb 4c3e
000002c0: 1567 b8be 04ef 76bc 3efd ad3d 5950 073d
000002d0: 80a3 a03e 6823 293e ce17 f03d e9e9 e2be
000002e0: 5680 18be 9af9 afbe c050 9f3d c83e 4ebf
000002f0: 9205 c8be ae8a c23e 9b58 463f 3025 563e
00000300: 4b18 98be 27d8 e13e 397b 1e3f 1c0b f2be
00000310: d31c 4e3d 89bc 79bd 4159 39bd c1e4 9abe
00000320: 6aea ce3d 2e37 d93c 9464 94be 59e7 a03c
00000330: 1975 1fbf 40a2 53be 9816 113e fad0 43bc
00000340: a216 203e 914c 06bf 31d2 86bd a92a c43e
00000350: 76fc c73e 716d c9bf 7b99 ca3e bb3c 133e
00000360: 0542 9dbd bb96 1f3e 644b f93d c7c5 b4be
00000370: 6c5a 253e bb2d b5be 3f17 903e 097a d7be
00000380: acfd 06bd 8241 033e 14af d73e 9d06 e8be
00000390: 6502 8fbc f4b5 6e3e b63b a2be b64f 9d3e
000003a0: b00f 863f e898 b73d 7d2a ebbd 5abe d53c
000003b0: 03ab 853e db21 2a3d 5b50 bcbd 33f0 2e3e
000003c0: 6fb5 8fbe bbcf 05bf 25aa 1f3e f37a 82bf
000003d0: 3ecd 45be 0f14 6ebe 2c4d e23c 1c56 7abe
000003e0: 00c0 023d 996f 61be ddc2 27be 8a0b 68be
000003f0: 87ff 01bf 7620 08be 48d0 25be 1ea4 22bf

bigru.weight_hh_l1 f4 [96, 32]
0.23306811 0.57377553 -0.29786336 -0.24162005 0.010606386 -0.8653148 0.7007719 -0.4136261
0.78036565 1.1693277 0.22956616 2.6219606 -0.14431931 -0.86039776 0.46641126 -0.3263813
-0.015571543 0.030981798 -1.4066818 -2.5846386 0.15241426 0.94062614 0.22895466 0.8973722
0.024796648 0.16989693 -0.0920879 0.60550976 1.8452063 0.040497117 -0.76312953 -0.10305889
0.30104658 0.64029324 -0.09670535 -0.032718312 -0.30324763 0.1733959 -0.3638045 -0.1238083
0.3453863 -0.55174303 0.14012733 0.28177676 -0.09786248 0.12760265 0.08638607 -0.09987768
-0.045791127 -0.14457859 -0.032022513 0.20482515 -0.2058844 -0.25345 0.3916936 -0.030646168
-0.19535333 0.31790277 -0.23449422 -0.51136863 0.059536938 0.07148504 -0.29567957 -0.3184536
1.8399814 1.1861705 -0.28765118 0.37331674 -0.007977279 -0.22312473 0.42669004 -0.26449746
-0.16110235 0.21009159 0.11865698 -0.023692148 0.60693365 0.42111248 0.45063233 0.67654115
0.088909745 0.13234301 -0.25771436 0.050967284 0.15640964 -0.21558696 -0.91868025 -0.4966254
0.21948719 0.6385911 0.07811663 -0.5818263 0.60890627 0.030112198 -0.37203002 0.26872286
-0.024844645 0.4463017 -0.45001578 0.5143998 0.39231718 0.102588944 -0.11073065 -0.09489864
-0.31512907 0.1031723 0.32990015 0.18367928 0.17342924 0.4246872 0.5702377 0.5063404
0.088081926 0.2371575 -0.16236205 -1.9973437 0.21480286 -0.9609534 0.04483288 -0.11533755
0.19337262 0.24712425 -0.70098263 0.20056875 -0.4406403 -0.67642456 -1.1380209 0.31042656
0.6156836 -0.5661199 -0.4213693 0.4643235 -0.31248125 -0.3368015 0.40422797 -0.3159914
-0.19340834 0.8854294 0.35070318 0.25017226 0.41787022 0.368866 0.53350097 0.78526163
-0.2624194 0.02805876 -0.87714237 -1.5547336 -0.3091148 -0.42963398 0.6029962 -0.5220088
0.31354076 -0.06922237 0.11759064 0.62032956 0.1376324 0.060589008 0.41537148 0.52512014
-1.3721889 0.37468144 -0.29499412 -0.49905756 -0.17966194 -0.009354353 1.0467252 0.19011407
0.011011248 -0.021227608 -0.37495548 0.62273437 -0.29136983 0.17451636 0.036430363 -0.19136573
-0.46254975 0.047350135 -1.4939314 -1.3684816 0.81809205 0.29208437 -0.17534128 -0.20794111
0.45778954 -0.032876786 0.11081116 -0.54396015 0.9971742 -0.34564397 0.47321704 0.2823875
0.12304142 0.4806805 -0.0023357477 0.037240244 0.040312137 0.31867513 0.07382547 0.35180882
-0.6737639 -1.2487035 -0.35604113 0.017996142 0.1527566 0.91065276 0.016005706 0.83008987
-0.11654081 -0.058360793 0.92055166 1.5075312 0.40890718 0.2561549 -0.16566859 0.3082577
-0.27120382 -0.6854815 -0.29719192 0.2860951 0.18733191 0.23024526 -0.21160923 0.41009194
0.12435713 0.19554012 0.17139015 0.19218057 -0.3187907 0.1345055 -0.6020153 -0.51547885
-0.13796869 -0.18215245 0.6263511 0.8458548 -0.32021543 0.35482067 0.09902078 -0.21906166
-0.32664862 0.06884255 0.8226394 -0.5646619 0.5697267 0.061795007 0.14485464 -0.31238347
0.112747304 -0.8617631 -0.42250136 0.2457055 0.15533763 0.2185772 -0.89431775 0.56127584
00000000: 68a9 6e3e f4e2 123f 8c81 98be 3f6b 77be
00000010: 68c6 2d3c 4585 5dbf ca65 333f cdc6 d3be
00000020: 0bc6 473f 88ac 953f 6413 6b3e 34ce 2740
00000030: 71c8 13be 0743 5cbf 75cd ee3e 731b a7be
00000040: c91f 7fbc 8acd fd3c 260e b4bf b86a 25c0
00000050: 7c12 1c3e e0cc 703f 1773 6a3e 2fba 653f
00000060: 5722 cb3c 76f9 2d3e 9598 bcbd b002 1b3f
00000070: b82f ec3f 4ee0 253d 755c 43bf 8a10 d3bd
00000080: c722 9a3e 42ea 233f 740d c6bd a303 06bd
00000090: 4643 9bbe b28e 313e 9544 babe 358f fdbd
000000a0: 79d6 b03e 083f 0dbf 8a7d 0f3e 0b45 903e
000000b0: 206c c8bd 45aa 023e 2eeb b03d ab8c ccbd
000000c0: 7a8f 3bbd 690c 14be 0a2a 03bd afbd 513e
000000d0: 5cd3 52be 33c4 81be 108c c83e ac0d fbbc
000000e0: b40a 48be 27c4 a23e 411f 70be 0ee9 02bf
000000f0: 01dd 733d c066 923d 5063 97be 5a0c a3be
00000100: 8384 eb3f 6fd4 973f 0447 93be 5f23 bf3e
00000110: 22b3 02bc cf7a 64be 1e77 da3e 366c 87be
00000120: 04f8 24be 4022 573e 6e02 f33d 0916 c2bc
00000130: 0160 1b3f 0e9c d73e 48b9 e63e cd31 2d3f
00000140: 5016 b63d ed84 073e 23f3 83be 12c3 503d
00000150: d929 203e d4c2 5cbe a12e 6bbf af45 febe
00000160: 40c1 603e b57a 233f 9dfb 9f3d 92f2 14bf
00000170: 48e1 1b3f dbad f63c b87a bebe 0b96 893e
00000180: ff86 cbbc a881 e43e 7868 e6be b5af 033f
00000190: ccdd c83e 271a d23d c0c6 e2bd 385a c2bd
000001a0: 9958 a1be 004c d33d ace8 a83e 6c16 3c3e
000001b0: 6f97 313e 9a70 d93e 19fb 113f 869f 013f
000001c0: 4c64 b43d 6ad9 723e 3d42 26be f5a8 ffbf
000001d0: 48f5 5b3e 0b01 76bf afa2 373d 1836 ecbd
000001e0: 7903 463e 240e 7d3e 9973 33bf e561 4d3e
000001f0: 9b9b e1be 292a 2dbf abaa 91bf 3bf0 9e3e
00000200: 719d 1d3f 3ced 10bf b8bd d7be cfbb ed3e
00000210: 8bfd 9fbe 3f71 acbe f8f6 ce3e a0c9 a1be
00000220: d60c 46be 80ab 623f 5e8f b33e 9416 803e
00000230: 16f3 d53e 01dc bc3e 8593 083f e806 493f
00000240: d65b 86be 7cdb e53c 678c 60bf 8301 c7bf
00000250: 4c44 9ebe fcf8 dbbe f55d 1a3f 5ea2 05bf
00000260: 6a88 a03e 75c4 8dbd 5dd3 f03d ebcd 1e3f
00000270: 82ef 0c3e 2e2c 783d 92ab d43e 466e 063f
00000280: e3a3 afbf 3fd6 bf3e 7809 97be 7984 ffbe
00000290: 4df9 37be 0043 19bc 17fb 853f 43ad 423e
000002a0: 8668 343c 85e5 adbc 2afa bfbe 856b 1f3f
000002b0: 6d2e 95be 6bb4 323e 0138 153d 61f5 43be
000002c0: 52d3 ecbe 37f2 413d 2539 bfbf 682a afbf
000002d0: 7b6e 513f 158c 953e aa8c 33be 84ee 54be
000002e0: 6463 ea3e cfa9 06bd f6f0 e23d f940 0bbf
000002f0: cf46 7f3f 3ff8 b0be 8149 f23e 1895 903e
00000300: 24fd fb3d c11b f63e 5813 19bb 3a89 183d
00000310: 571e 253d 6329 a33e cf31 973d 4920 b43e
00000320: ca7b 2cbf 84d5 9fbf 064b b6be a56c 933c
00000330: 3a6c 1c3e 8a20 693f 661e 833c c580 543f
00000340: f3ac eebd ba0b 6fbd 46a9 6b3f c8f6 c03f
00000350: 485c d13e bc26 833e 07a5 29be f4d3 9d3e
00000360: 3adb 8abe b77b 2fbf 8a29 98be 0f7b 923e
00000370: f0d3 3f3e 6ac5 6b3e 17b0 58be 92f7 d13e
00000380: f3ae fe3d ab3b 483e e680 2f3e fcca 443e
00000390: 8938 a3be cfbb 093e ad1d 1abf 6cf6 03bf
000003a0: aa47 0dbe 2c86 3abe 8c58 203f f189 583f
000003b0: 47f3 a3be 0eab b53e 68cb ca3d b351 60be
000003c0: 7d3e a7be 53fd 8c3d 7f98 523f af8d 10bf
000003d0: 9cd9 113f c31c 7d3d c654 143e baf0 9fbe
000003e0: 0fe8 e63d 829c 5cbf 1952 d8be 399a 7b3e
000003f0: d410 1f3e b4d2 5f3e 02f2 64bf c6af 0f3f

bigru.bias_ih_l1 f4 [96]
0.12657015 0.018413838 -0.15514445 0.06302562 -0.29777187 -0.3338422 -0.094748385 -0.3247038
-0.31445 0.0026601786 0.12538224 -0.2843709 -0.22982231 0.053829934 -0.030719455 -0.276958
-0.14977548 0.53940374 0.0840918 0.25858423 -0.3699669 -0.063658826 -0.13535088 0.05289514
0.25639358 0.37022877 0.27636296 -0.15933217 -0.17577116 -0.22558561 -0.18526313 0.03310534
0.4979873 0.22328074 0.045626793 -0.19764458 -0.079127744 0.051683333 0.0015495827 0.002859131
0.025757356 0.34574044 0.024470655 0.13365597 0.038220312 0.31356245 0.3094928 -0.08900267
-0.14638893 -0.15099224 0.059505455 0.28313747 -0.090518944 0.06587741 0.012856449 -0.06731545
0.19188195 0.2865034 -0.08059605 0.059135072 -0.076620094 -0.1663035 0.29003954 -0.35881957
0.1057836 0.14848796 -0.059745267 -0.11760397 -0.0728348 0.022121882 -0.06059752 0.0040604235
-0.009893258 0.07995993 0.08186653 0.06846748 -0.032870993 0.013500053 0.047083274 -0.049911045
-0.10712749 -0.38124374 0.017007073 0.12289406 -0.03170738 0.002323086 0.11039375 0.15799746
-0.16643588 0.06826557 -0.032910258 -0.09931084 -0.043820217 0.070878126 0.01627303 -0.29617372
00000000: 9b9b 013e 9ed8 963c 30de 1ebe 9413 813d
00000010: 8e75 98be 5ded aabe 710b c2bd 943f a6be
00000020: 97ff a0be 6456 2e3b 3464 003e 1099 91be
00000030: 8a56 6bbe c77c 5c3d 5ea7 fbbc 70cd 8dbe
00000040: be5e 19be 5d16 0a3f 5238 ac3d 2765 843e
00000050: 4d6c bdbe 8f5f 82bd 6c99 0abe 93a8 583d
00000060: 0546 833e a08e bd3e 727f 8d3e f927 23be
00000070: 5bfd 33be eaff 66be 9eb5 3dbe 7799 073d
00000080: 31f8 fe3e b5a3 643e 29e3 3a3d 5763 4abe
00000090: ba0d a2bd e7b1 533d 5e1b cb3a 4260 3b3b
000000a0: 1701 d33c e404 b13e af76 c83c 1cdd 083e
000000b0: e78c 1c3d 428b a03e d775 9e3e 0847 b6bd
000000c0: fbe6 15be b69d 1abe febb 733d 65f7 903e
000000d0: ff61 b9bd bcea 863d dba3 523c afdc 89bd
000000e0: b47c 443e 93b0 923e 8b0f a5bd 9e37 723d
000000f0: ffea 9cbd 774b 2abe 1080 943e 33b7 b7be
00000100: 12a5 d83d 3a0d 183e 74b7 74bd 5ada f0bd
00000110: 692a 95bd f338 b53c 1b35 78bd 4d0d 853b
00000120: 5517 22bc 08c2 a33d a4a9 a73d ae38 8c3d
00000130: bca3 06bd 542f 5d3c 64da 403d 866f 4cbd
00000140: a865 dbbd 6132 c3be 6b52 8b3c e2af fb3d
00000150: 99df 01bd ea3e 183b 1e16 e23d 16ca 213e
00000160: 2b6e 2abe d2ce 8b3d e8cc 06bd 7b63 cbbd
00000170: d47c 33bd 8d28 913d 044f 853c 15a4 97be
