models/CNTFET/pretrained.pth (torch, 12489 bytes, 19 tensors)

embedding.weight f4 [8, 1, 1]
0.0010961923 -0.0023279623 0.003105626 -0.002415532 0.004886451 0.0026952806 0.00012764579 -1.6725088
00000000: 1cae 8f3a ba90 18bb c287 4b3b e74d 1ebb
00000010: 861e a03b 4ea3 303b a8d8 0539 c514 d6bf

embedding.bias f4 [8]
0.0019694997 -0.001368228 -0.0005962362 -0.0013547303 0.00084705866 0.0018446516 0.0005906764 0.3389231
00000000: b912 013b 1d56 b3ba bc4c 1cba 3591 b1ba
00000010: 250d 5e3a 3dc8 f13a 9fd7 1a3a 5487 ad3e

bigru.weight_ih_l0 f4 [24, 8]
0.017178964 0.084102124 -0.23813213 -0.048884507 -0.100592494 0.09871203 0.21689726 0.07756207
0.027800929 0.048830982 -0.0003137613 -0.037243832 0.023858683 0.009834725 0.04228985 2.3456147
0.040670812 -0.21915482 0.15434924 -0.12572768 0.14267331 -0.010930954 0.033968933 -3.4761236
0.5625718 0.27727768 -0.0483822 0.08138224 0.086760044 0.050152693 0.083030276 10.197748
-0.48650688 -2.724406 0.88304025 0.43215212 1.9481736 -1.2840908 -1.3080219 0.4854698
-0.14297421 -0.057171162 -0.011176741 0.15405208 0.10755568 -0.009893647 0.02082671 -10.509352
0.052513853 0.01622707 -0.009216908 -0.01990394 0.09216104 -0.012866717 -1.8932895e-05 -2.9560745
0.35417068 0.08359238 0.0026975614 -0.5618794 0.07306173 -0.26385495 -0.12633696 1.1793721
-0.0002572624 -0.010171995 0.008221322 -0.0006706119 0.008550814 -0.0038122784 -0.0043782443 0.81276983
-0.05044202 -0.013703893 0.029381132 0.014702472 -0.025588471 -0.042114515 0.005094361 -0.9609997
0.002467322 -0.0099890875 0.005029911 -0.0041131135 0.0034788004 -0.0059869457 -0.0036703553 -0.27739924
-0.07863278 0.03228631 0.0012909076 0.1698287 -0.094134465 0.0431738 0.006886569 4.794898
-0.007400535 -0.0101699 0.0033469414 0.013601093 -0.04027051 -0.04279494 -0.020194914 -0.42437622
0.074791715 0.04999068 -0.058934733 -0.03796006 -0.07629998 0.027437242 0.007962817 1.577293
0.06724902 0.055778217 -0.0073091476 -0.011799675 0.0040866216 0.036121473 0.033283222 2.584393
0.052647963 0.040548954 -0.039566897 0.054396085 -0.0128618395 0.13855164 0.005687756 -0.8465746
0.008865299 0.006754073 -0.030426368 -0.011643238 -0.027942156 -0.0037309641 0.008593117 -0.29729974
-0.0022924067 -0.007450195 0.01138102 -0.008546613 0.010769406 0.007577943 0.003025259 -2.202909
-0.0011001751 0.034129295 -0.029835587 0.036531914 -0.0027577255 -0.014855998 0.0071711205 0.35414392
-0.016208474 0.044744704 -0.03165346 0.058377817 0.08196465 0.021339266 0.07069287 -1.5653424
0.036387507 0.02679355 0.0018626939 0.0032828276 -0.008353716 -0.0032967394 -0.0070859534 -6.550326
-0.025628515 -0.029587371 0.01006765 -0.011086594 0.005024066 0.008189482 0.010347704 2.663281
0.0107257785 0.004063141 0.006044978 -0.004423249 0.0016871309 0.016354986 0.005471978 3.2199616
0.018623605 0.021440884 -0.027814146 0.0018021382 -0.024627268 0.023644825 0.0039751385 -3.8188646
00000000: e6ba 8c3c bc3d ac3d e9d8 73be 1f3b 48bd
00000010: 7003 cebd 8829 ca3d 511a 5e3e ddd8 9e3d
00000020: c6be e33c ff02 483d 5480 a4b9 fd8c 18bd
00000030: 4973 c33c d421 213c 1f38 2d3d 8d1e 1640
00000040: 7096 263d 1f6a 60be ba0d 1e3e c2be 00be
00000050: f418 123e be17 33bc 0223 0b3d cf78 5ec0
00000060: b504 103f 57f7 8d3e 6a2c 46bd bbab a63d
00000070: 40af b13d e96c 4d3d c70b aa3d fa29 2341
00000080: 6e17 f9be ab5c 2ec0 ed0e 623f 0b43 dd3e
00000090: c15d f93f 165d a4bf 436d a7bf 7f8f f83e
000000a0: d567 12be 4f2c 6abd a61e 37bc d4bf 1d3e
000000b0: 2746 dc3d f718 22bc c79c aa3c 4e26 28c1
000000c0: c418 573d a2ee 843c 8402 17bc 960d a3bc
000000d0: edbe bc3d ecce 52bc 15d2 9eb7 5330 3dc0
000000e0: dc55 b53e 7b32 ab3d 92c9 303b 54d7 0fbf
000000f0: 63a1 953d ff17 87be 7a5e 01be aaf5 963f
00000100: 2de1 86b9 70a8 26bc b9b2 063c 01cc 2fba
00000110: b718 0c3c 6bd7 79bb 6077 8fbb af11 503f
00000120: 4b9c 4ebd 4b86 60bc b3b0 f03c a3e2 703c
00000130: ea9e d1bc 4580 2cbd 99ee a63b 1404 76bf
00000140: cbb2 213b 45a9 23bc f4d1 a43b 4cc7 86bb
00000150: 96fc 633b 242e c4bb 588a 70bb 4607 8ebe
00000160: 390a a1bd a63e 043d ac33 a93a 93e7 2d3e
00000170: 92c9 c0bd 03d7 303d baa8 e13b ce6f 9940
00000180: 3080 f2bb a79f 26bc 5c58 5b3b 1ed7 5e3c
00000190: b1f2 24bd bf49 2fbd ce6f a5bc d747 d9be
000001a0: 662c 993d 07c3 4c3d 8c65 71bd 027c 1bbd
000001b0: 2a43 9cbd 11c4 e03c 7a76 023c bde4 c93f
000001c0: dbb9 893d b377 643d 9381 efbb 6d53 41bc
000001d0: 11e9 853b 1cf4 133d fd53 083d b266 2540
000001e0: 64a5 573d a916 263d e610 22bd 6ece 5e3d
000001f0: 77ba 52bc 7be0 0d3e 5b60 ba3b 1db9 58bf
00000200: c23f 113c 4551 dd3b b840 f9bc 48c3 3ebc
00000210: f3e6 e4bc 3183 74bb 25ca 0c3c ac37 98be
00000220: 343c 16bb c420 f4bb 7577 3a3c 1807 0cbc
00000230: 2a72 303c 6550 f83b 6c43 463b 76fc 0cc0
00000240: c033 90ba 29cb 0b3d c369 f4bc 7da2 153d
00000250: f5ba 34bb 9266 73bc b8fb ea3b 5a52 b53e
00000260: a2c7 84bc 3946 373d 0fa7 01bd 941d 6f3d
00000270: 15dd a73d afcf ae3c 6cc7 903d 245d c8bf
00000280: 110b 153d 267e db3c a325 f43a b524 573b
00000290: 06de 08bc 1c0e 58bb 4931 e8bb 459c d1c0
000002a0: e4f2 d1bc 3761 f2bc c9f2 243c 8ca4 35bc
000002b0: eca0 a43b 2d2d 063c 6b89 293c 3273 2a40
000002c0: 2dbb 2f3c 1924 853b f314 c63b e7f0 90bb
000002d0: b822 dd3a e4fa 853c 474e b33b da13 4e40
000002e0: 8890 983c cba4 af3c 7eda e3bc b935 ec3a
000002f0: 20bf c9bc cbb2 c13c e141 823b 4768 74c0

bigru.weight_hh_l0 f4 [24, 8]
-1.5388509 -4.861746 1.9086038 1.1292026 -1.9428748 1.1121294 0.78205764 2.4105444
3.3392792 3.4727285 -1.621621 -0.42991894 -0.5137786 2.423164 4.395185 -0.13189714
24.153183 -0.8647066 1.8797677 -0.7714234 1.293898 -0.20750749 0.5112422 -5.8136935
5.4522476 6.476399 2.1031187 3.3933187 1.7831451 -0.9951751 1.326554 1.3914527
-2.204226 1.1107364 9.208265 4.6729193 -2.6713908 3.765565 -0.5358254 5.696064
8.188834 2.252751 -5.9727 -4.3835535 1.6286119 1.1454964 1.1700283 -0.2632861
2.524489 -6.469673 -0.8330516 -3.920018 0.014816268 -1.1856225 -0.6368572 -1.9966123
3.949297 -1.0632107 3.74385 0.79026586 -6.246479 -0.5082798 -0.52997756 0.55597997
2.7007174 1.2521293 2.4717152 0.9609893 0.27208728 2.4194233 1.4852409 3.0712183
0.6306689 0.39850792 -1.0896146 0.17681557 0.50799316 1.6461428 -2.6987877 1.1900215
6.728087 -0.30860034 -2.3031342 -0.29332933 0.6594287 -0.2074213 0.14615053 -2.0049894
7.9226255 -1.8437567 -2.160536 -0.33352956 1.3406703 0.26310137 3.9164083 -0.8394236
-2.429896 0.96523094 0.26595783 0.48650858 1.164138 -0.8659709 -2.0072722 1.1832132
0.97048175 2.4385526 -3.0746858 -0.5975191 -1.1719189 3.3266077 -3.4464388 -1.2010878
0.3145804 1.882536 -0.65378994 0.51884556 -1.7227309 -0.038014438 -3.9662075 -0.35781392
13.473452 -3.4891155 0.6768968 -5.6841125 3.8813016 -7.143877 -3.6557772 0.67928433
1.6387086 -0.39441863 1.1553582 -0.09445884 2.4047062 1.6160625 -1.5020707 0.09071949
-1.4108932 -5.773533 -0.9230852 -1.2366678 1.1105099 0.061417438 1.9337744 -0.926888
3.7337127 0.22233732 2.177462 -0.70448095 -0.1593599 -1.4081533 -2.232918 0.19139048
5.8766036 3.524591 1.5270095 -1.838747 -0.51355803 -0.62423015 -2.2433124 -0.842193
2.0526328 1.3780789 -5.1944885 -0.6958283 3.261488 -10.173191 -3.4448328 -3.227047
-3.3888042 -0.31778282 -0.29030007 -0.14368297 -0.47631547 -0.11143214 -4.139898 -0.43387207
-1.1694741 -5.4102945 1.8512917 -1.7309408 -2.4614031 1.8198225 3.1136675 0.3115845
-2.4935734 1.0525185 1.3176506 -1.3305892 1.3427624 1.3785876 1.7180517 0.42985377
00000000: 11f9 c4bf 6c93 9bc0 214d f43f b689 903f
00000010: 1fb0 f8bf 425a 8e3f ee34 483f 5c46 1a40
00000020: c0b6 5540 2f41 5e40 4791 cfbf 561e dcbe
00000030: ff86 03bf 1e15 1b40 5ba5 8c40 0b10 07be
00000040: b839 c141 695d 5dbf 3a9c f03f 017c 45bf
00000050: 739e a53f d87c 54be c5e0 023f c709 bac0
00000060: d078 ae40 a93e cf40 7f99 0640 222c 5940
00000070: 193e e43f ccc3 7ebf 85cc a93f 1f1b b23f
00000080: 0a12 0dc0 9c2c 8e3f 0e55 1341 8e88 9540
00000090: 11f8 2ac0 04ff 7040 da2b 09bf 2846 b640
000000a0: 7705 0341 132d 1040 5c20 bfc0 1246 8cc0
000000b0: 5b76 d03f a09f 923f 7dc3 953f 70cd 86be
000000c0: 3a91 2140 9007 cfc0 df42 55bf 93e1 7ac0
000000d0: efbf 723c 7ac2 97bf 1309 23bf fe90 ffbf
000000e0: 48c1 7c40 4a17 88bf 3d9b 6f40 dd4e 4a3f
000000f0: 28e3 c7c0 a01e 02bf 9cac 07bf b454 0e3f
00000100: 8ed8 2c40 c645 a03f 9530 1e40 6503 763f
00000110: 064f 8b3e d5d7 1a40 601c be3f d78e 4440
00000120: 8473 213f 3b09 cc3e 7e78 8bbf 240f 353e
00000130: d70b 023f cfb4 d23f f0b8 2cc0 a052 983f
00000140: 7d4c d740 dd00 9ebe 8d66 13c0 432f 96be
00000150: 52d0 283f 4066 54be 7ca8 153e bf51 00c0
00000160: 2686 fd40 3800 ecbf 3946 0ac0 63c4 aabe
00000170: 169b ab3f 39b5 863e 6fa6 7a40 77e4 56bf
00000180: 6b83 1bc0 6019 773f a02b 883e a717 f93e
00000190: 7902 953f 45b0 5dbf 2677 00c0 8873 973f
000001a0: 7e71 783f 3f11 1c40 a7c7 44c0 03f7 18bf
000001b0: 7001 96bf 24e7 5440 7492 5cc0 3fbd 99bf
000001c0: af10 a13e f1f6 f03f c75e 27bf 10d3 043f
000001d0: 7282 dcbf 07b5 1bbd 58d6 7dc0 6333 b7be
000001e0: 4293 5741 ab4d 5fc0 1c49 2d3f 40e4 b5c0
000001f0: 3f67 7840 a49a e4c0 41f8 69c0 94e5 2d3f
00000200: 34c1 d13f 3df1 c9be c7e2 933f a373 c1bd
00000210: b5e6 1940 23db ce3f da43 c0bf 24cb b93d
00000220: 2698 b4bf c8c0 b8c0 504f 6cbf 214b 9ebf
00000230: 3025 8e3f da90 7b3d eb85 f73f 8848 6dbf
00000240: 26f5 6e40 65ac 633e 8a5b 0b40 dd58 34bf
00000250: 3e2f 23be 5e3e b4bf 21e8 0ec0 defb 433e
00000260: 230d bc40 e692 6140 0c75 c33f 105c ebbf
00000270: 8a78 03bf 8ccd 1fbf 6e92 0fc0 f699 57bf
00000280: 565e 0340 e464 b03f 4039 a6c0 ce21 32bf
00000290: 38bc 5040 64c5 22c1 2478 5cc0 f087 4ec0
000002a0: 2be2 58c0 6eb4 a2be 36a2 94be a121 13be
000002b0: 9fdf f3be 8936 e4bd 0b7a 84c0 7b24 debe
000002c0: 54b1 95bf 2221 adc0 20f7 ec3f 788f ddbf
000002d0: a187 1dc0 f2ef e83f 5446 4740 0188 9f3e
000002e0: b596 1fc0 edb8 863f c6a8 a83f bf50 aabf
000002f0: a3df ab3f 8f75 b03f 1ee9 db3f cb15 dc3e

bigru.bias_ih_l0 f4 [24]
0.8634468 -1.9169688 -1.3274351 0.5356599 -4.1354623 -0.52160597 -1.9114579 2.3106663
3.6594357 -1.1363778 -1.504588 0.68507254 0.17955777 0.09229644 -0.7169007 -5.704426
-1.4772387 0.1830233 1.5840299 -0.015405301 -0.7585402 1.5138558 0.09935834 0.5873026
00000000: d90a 5d3f 3c5f f5bf 65e9 a9bf 0221 093f
00000010: b555 84c0 f887 05bf a7aa f4bf f5e1 1340
00000020: 3234 6a40 d474 91bf 5796 c0bf ea60 2f3f
00000030: fedd 373e ea05 bd3d ce86 37bf a88a b6c0
00000040: 2816 bdbf 766a 3b3e 7ec1 ca3f 8466 7cbc
00000050: b12f 42bf 07c6 c13f 637c cb3d 7759 163f

bigru.bias_hh_l0 f4 [24]
0.8634468 -1.9169688 -1.3274351 0.5356599 -4.1354623 -0.52160597 -1.9114579 2.3106663
3.6594357 -1.1363778 -1.504588 0.68507254 0.17955777 0.09229644 -0.7169007 -5.704426
0.21186928 -1.0542451 -0.7372582 2.4662921 -0.2475785 -1.2626554 0.11202121 0.6614194
00000000: d90a 5d3f 3c5f f5bf 65e9 a9bf 0221 093f
00000010: b555 84c0 f887 05bf a7aa f4bf f5e1 1340
00000020: 3234 6a40 d474 91bf 5796 c0bf ea60 2f3f
00000030: fedd 373e ea05 bd3d ce86 37bf a88a b6c0
00000040: 43f4 583e 81f1 86bf f4bc 3cbf bbd7 1d40
00000050: 3885 7dbe b19e a1bf 606b e53d c852 293f

bigru.weight_ih_l0_reverse f4 [24, 8]
-0.37545583 0.42573985 -0.05042355 0.341809 -0.0060446565 0.05357619 -0.058199137 -0.7371209
0.423614 -0.82177943 -0.28169674 0.46854353 0.7048806 0.26664054 0.2383568 1.9206839
0.026023865 0.0054050665 -0.0206782 -0.018418713 0.009995002 -0.006028835 0.007463046 8.829402
-0.5418896 0.9565101 1.28714 -0.33593246 -1.0160509 -0.2904163 0.8276848 0.4222654
-0.0030834137 -0.059173256 -0.00721369 0.024869466 0.12106783 -0.03405348 0.034841865 -9.729098
0.26295924 0.07699253 0.090406746 -0.030171037 0.034130894 -0.10892779 0.00022046252 2.6485205
0.24264325 0.25133306 -0.039819114 0.13838547 0.23656934 0.06981901 0.06565367 -2.3230138
-0.012747009 0.022294143 0.05708447 0.02067599 -0.0049226475 0.024465818 -0.054348387 -8.461296
0.02880777 0.03809458 0.0022514819 -0.034896985 0.022621203 -0.03555598 -0.0136784995 1.3480687
0.028655699 0.008041118 -0.018020444 -0.045475587 -0.01740767 0.012931247 0.025187837 0.29276067
-0.016145943 -0.06308848 0.093581766 0.038872086 0.07244358 -0.02995973 -0.037170388 0.6911189
-0.008855947 -0.013867375 0.002970831 -0.030793434 -0.019884177 -0.031150168 -0.01600744 -1.7682854
0.021873737 0.0266727 -0.028213056 0.013739321 0.04939972 0.0645899 0.041746635 -0.8487118
0.005140575 0.033610884 -0.012404572 -2.05496e-05 -0.018131105 0.010916846 0.0068856883 0.19195288
0.001471954 -0.029334052 0.016376121 0.010876653 0.03335694 -0.0062906933 -0.036267653 -0.950483
-0.021548053 -0.036779184 0.033122197 0.0059216274 0.035515416 -0.006922941 -0.013025931 -0.29724008
0.03717667 0.20128515 -0.11774696 0.04389699 0.0129049355 0.04213269 0.056016084 8.289183
-0.11029495 0.25192228 0.062002476 0.12649292 -0.07190201 -0.0014770278 -0.2664604 -2.8318472
-0.022373207 -0.007931111 0.00823968 -0.00029181183 -0.050071508 -0.023942646 0.028493902 -0.26881015
-0.42185515 2.1777034 1.0294641 0.05411152 -1.9904671 -0.58804363 1.872834 -1.7836381
0.013787087 0.0043194164 -0.0058017313 -0.015375765 0.004667144 0.013682009 0.007352756 -1.7502128
0.06445234 -0.12749948 0.10210389 -0.16321239 -0.027473139 -0.009217037 -0.022303812 2.1717746
-0.0051987777 -0.010366999 0.07326858 -0.004279493 -0.045203455 -0.02574892 0.02398959 -4.4877715
0.030193571 0.034385934 -0.034166045 -0.008907341 -0.022054527 0.04197273 -0.012541185 0.84957314
00000000: bf3b c0be 93fa d93e ed88 4ebd 9701 af3e
00000010: 4112 c6bb b572 5b3d 3862 6ebd f5b3 3cbf
00000020: efe3 d83e 2360 52bf 8e3a 90be f0e4 ef3e
00000030: 0e73 343f 1c85 883e ce13 743e f8d8 f53f
00000040: 0030 d53c fc1c b13b 5465 a9bc d7e2 96bc
00000050: 14c2 233c 898d c5bb 918c f43b 3b45 0d41
00000060: 47b9 0abf d9dd 743f 01c1 a43f 57ff abbe
00000070: f50d 82bf 72b1 94be 27e3 533f 2c33 d83e
00000080: 1913 4abb a85f 72bd d160 ecbb 0dbb cb3c
00000090: 69f2 f73d a97b 0bbd 58b6 0e3d 63aa 1bc1
000000a0: 98a2 863e 42ae 9d3d 2c27 b93d 4029 f7bc
000000b0: d6cc 0b3d 8815 dfbd f52b 6739 5c81 2940
000000c0: 7977 783e baae 803e 5e19 23bd ecb4 0d3e
000000d0: 3c3f 723e 45fd 8e3d 6e75 863d 42ac 14c0
000000e0: d5d8 50bc 35a2 b63c 68d1 693d b260 a93c
000000f0: 294e a1bb 8a6c c83c 6a9c 5ebd 7861 07c1
00000100: 46fe eb3c 1009 1c3d 998d 133b 24f0 0ebd
00000110: 1a50 b93c 26a3 11bd c91b 60bc 848d ac3f
00000120: 5bbf ea3c e5be 033c 9c9f 93bc 9c44 3abd
00000130: 889a 8ebc 95dd 533c b956 ce3c bae4 953e
00000140: 7f44 84bc 8834 81bd cca7 bf3d 5638 1f3d
00000150: 4d5d 943d 1c6e f5bc fa3f 18bd 2bed 303f
00000160: 8918 11bc fd33 63bc 46b2 423b 8342 fcbc
00000170: 24e4 a2bc a32e ffbc 0922 83bc 2d57 e2bf
00000180: 8d30 b33c b580 da3c 111f e7bc e41a 613c
00000190: 5c57 4a3d b647 843d 85fe 2a3d 2d45 59bf
000001a0: 4572 a83b 91ab 093d 8c3c 4bbc ee61 acb7
000001b0: af87 94bc 92dc 323c 57a1 e13b 4c8f 443e
000001c0: 95ee c03a f74d f0bc 3727 863c fd33 323c
000001d0: 49a1 083d 2922 cebb 648d 14bd db52 73bf
000001e0: 8b85 b0bc c5a5 16bd 24ab 073d 360a c23b
000001f0: 9d78 113d d7d9 e2bb b76a 55bc da2f 98be
00000200: 9046 183d b21d 4e3e 5125 f1bd 55cd 333d
00000210: 396f 533c 5493 2c3d 1f71 653d 7ea0 0441
00000220: 52e2 e1bd f5fb 803e 4ff6 7d3d 5c87 013e
00000230: 5c41 93bd d498 c1ba 7f6d 88be fc3c 35c0
00000240: 0448 b7bc 7ef1 01bc b9ff 063c 52fe 98b9
00000250: c817 4dbd 5e23 c4bc 0b6c e93c 7ca1 89be
00000260: 66fd d7be 7e5f 0b40 7bc5 833f 0ba4 5d3d
00000270: a0c7 febf 078a 16bf 06b9 ef3f 414e e4bf
00000280: 3ce3 613c e489 8d3b 731c bebb a2ea 7bbc
00000290: d7ee 983b 812a 603c 63ef f03b f906 e0bf
000002a0: 97ff 833d 398f 02be d81b d13d 2621 27be
000002b0: 590f e1bc 0e03 17bc 7cb6 b6bc 5bfe 0a40
000002c0: 825a aabb 58da 29bc d60d 963d fd3a 8cbb
000002d0: 4227 39bd 66ef d2bc d185 c43c d39b 8fc0
000002e0: 8258 f73c 44d8 0c3d b2f1 0bbd 19f0 11bc
000002f0: b2ab b4bc 99eb 2b3d 8b79 4dbc a07d 593f

bigru.weight_hh_l0_reverse f4 [24, 8]
0.52094626 2.1919158 3.2372973 -1.2160852 0.5935836 -8.584844 -0.38356596 -3.6095924
0.96083766 -2.9018345 0.63027215 -2.3503017 5.91092 -1.2611867 -4.941327 -12.6705475
0.31918105 -1.0785878 -0.90356165 3.3785717 1.6356916 0.8848203 -0.8462783 -0.2939204
-0.5300884 0.5335754 0.39021462 0.73711956 0.44824964 -0.30861622 0.5398775 -0.23569863
0.38797152 -0.57225096 -1.4764162 2.9063206 -0.25739723 1.2821254 -0.22437243 0.7129815
-2.5150912 2.3539114 1.1885626 2.6816943 -0.8817129 -2.3860202 2.0786529 -1.3002881
-0.029138561 -0.2755819 -0.09201353 0.36265072 2.525929 8.747503 -1.8703457 1.9023608
0.20609342 -0.630348 1.9944484 -2.510797 -0.9223039 0.3012363 1.0722797 0.35367474
0.75631815 -2.7818768 -2.286746 -3.8745701 3.6766603 -1.2118238 -1.8741102 0.6545865
2.7162206 -1.6542954 0.114269525 -2.5101519 0.33497027 0.1046981 -2.0556865 -1.5537024
3.798905 -1.7637564 -1.0777292 -0.52647716 2.1470606 0.82658124 1.1687087 0.16769223
2.6033587 -3.0928779 -2.7922864 -3.042551 -0.94744056 3.1404014 -3.1596649 2.1716864
0.80853796 -0.6251079 -1.8670338 1.8142487 -0.13286375 1.1976464 -4.170338 0.55858403
0.04012502 -0.5299328 -0.9714175 -0.6207322 -1.7675142 0.16748731 1.7254466 -0.52198625
-2.2359846 2.9388514 3.032914 1.1487159 0.66326016 -0.37800243 -0.22771513 0.9810922
16.108871 -20.731873 12.064005 -5.154022 0.5495359 2.7095418 -12.097097 11.524483
1.4932258 -0.03323731 -0.7258538 1.6101612 -4.4691734 2.191602 3.3244894 2.5892851
0.7867599 5.2815104 1.7754531 -1.610883 4.758688 -7.7024474 -6.8702693 -2.7624679
-1.3895258 0.416671 1.9572222 3.3261058 1.9106236 -1.7054757 -1.1792095 -1.4432098
-1.5102429 0.02219842 1.6796622 0.99235183 1.2548022 0.25711998 0.27931902 -0.5784101
-1.7315876 -1.744184 0.64331645 5.3467298 0.1893626 -0.5662093 1.2303051 -3.7552261
3.4229856 -1.8886368 -1.3511127 -4.6019945 5.4891768 -4.1358166 -1.7655824 -0.8715797
-0.84615767 -4.2953315 0.27324718 2.2126954 -3.470049 1.5249492 -4.2506394 0.28531584
1.9953923 -1.7664361 -2.213574 -2.076265 1.6882977 0.6117755 1.6362866 0.8778416
00000000: bc5c 053f 5948 0c40 e12f 4f40 aea8 9bbf
00000010: 18f5 173f 855b 09c1 c262 c4be 9003 67c0
00000020: 75f9 753f a8b7 39c0 8459 213f 586b 16c0
00000030: 4226 bd40 916e a1bf 5a1f 9ec0 90ba 4ac1
00000040: b36b a33e 2a0f 8abf d14f 67bf 853a 5840
00000050: 585e d13f 9583 623f b2a5 58bf bc7c 96be
00000060: e0b3 07bf 6698 083f 36ca c73e deb3 3c3f
00000070: fa80 e53e f202 9ebe 6935 0a3f fb5a 71be
00000080: 34a4 c63e 0a7f 12bf 35fb bcbf 2801 3a40
00000090: 92c9 83be af1c a43f e3c1 65be f585 363f
000000a0: 41f7 20c0 7ca6 1640 d222 983f e1a0 2b40
000000b0: f0b7 61bf 8eb4 18c0 a608 0540 d76f a6bf
000000c0: feb3 eebc 1219 8dbe 9771 bcbd 5bad b93e
000000d0: d2a8 2140 c6f5 0b41 7d67 efbf 8f80 f33f
000000e0: 270a 533e 7d5e 21bf 164a ff3f e6b0 20c0
000000f0: 1c1c 6cbf a53b 9a3e 7640 893f db14 b53e
00000100: 119e 413f 450a 32c0 0c5a 12c0 f5f8 77c0
00000110: 674e 6b40 0b1d 9bbf d8e2 efbf fb92 273f
00000120: 8fd6 2d40 f4bf d3bf 2406 ea3d 54a6 20c0
00000130: 3981 ab3e f56b d63d 5e90 03c0 b8df c6bf
00000140: 4221 7340 c5c2 e1bf 08f3 89bf 35c7 06bf
00000150: 7169 0940 d49a 533f 3f98 953f 83b7 2b3e
00000160: 6e9d 2640 b6f1 45c0 d2b4 32c0 28b9 42c0
00000170: 778b 72bf 56fc 4840 f337 4ac0 e9fc 0a40
00000180: 58fc 4e3f 1207 20bf f7fa eebf 4d39 e83f
00000190: 6f0d 08be 7a4c 993f 6973 85c0 5dff 0e3f
000001a0: 225a 243d ada9 07bf d1ae 78bf 4ee8 1ebf
000001b0: e83d e2bf cb81 2b3e 6fdb dc3f e4a0 05bf
000001c0: 5f1a 0fc0 2416 3c40 431b 4240 1f09 933f
000001d0: 6bcb 293f 8989 c1be 282e 69be dc28 7b3f
000001e0: f8de 8041 e0da a5c1 2a06 4141 c0ed a4c0
000001f0: 62ae 0c3f 2269 2d40 b68d 41c1 4864 3841
00000200: 0622 bf3f d823 08bd 8ed1 39bf c319 ce3f
00000210: 7803 8fc0 3543 0c40 6fc4 5440 d9b6 2540
00000220: 1969 493f 2202 a940 0c42 e33f 6a31 cebf
00000230: 2c47 9840 737a f6c0 3fd9 dbc0 46cc 30c0
00000240: fbdb b1bf e755 d53e 4286 fa3f ebde 5440
00000250: 508f f43f 074d dabf 56f0 96bf 19bb b8bf
00000260: a44f c1bf 76d9 b53c 2cff d63f c50a 7e3f
00000270: 5c9d a03f 3ba5 833e e702 8f3e af12 14bf
00000280: aaa4 ddbf 6c41 dfbf 63b0 243f 6918 ab40
00000290: 45e8 413e 18f3 10bf a37a 9d3f a055 70c0
000002a0: 3212 5b40 dabe f1bf 43f1 acbf 8a43 93c0
000002b0: 56a7 af40 9c58 84c0 9bfe e1bf d91f 5fbf
000002c0: ca9d 58bf 5b73 89c0 0ee7 8b3e cd9c 0d40
000002d0: 4815 5ec0 8931 c33f 3d05 88c0 eb14 923e
000002e0: 0469 ff3f 941a e2bf 32ab 0dc0 87e1 04c0
000002f0: 241a d83f 529d 1c3f d771 d13f 3aba 603f

bigru.bias_ih_l0_reverse f4 [24]
-0.9175507 -1.5944782 -1.0197393 1.1713517 -0.6818733 4.737102 0.5082086 -0.2818504
3.6613934 3.0223331 2.210203 -0.16363202 0.8632909 0.5336374 -0.7294097 0.06475461
-1.3705503 -2.5468106 -1.0474561 2.237041 0.034011543 3.0712304 1.0215704 0.13856886
00000000: 9ae4 6abf dd17 ccbf d186 82bf daee 953f
00000010: 408f 2ebf 5796 9740 f519 023f b24e 90be
00000020: 4554 6a40 e86d 4140 f773 0d40 278f 27be
00000030: a200 5d3f 769c 083f 98ba 3abf 119e 843d
00000040: 316e afbf f2fe 22c0 0b13 86bf ae2b 0f40
00000050: b04f 0b3d 0a8f 4440 d2c2 823f ffe4 0d3e

bigru.bias_hh_l0_reverse f4 [24]
-0.9175507 -1.5944782 -1.0197393 1.1713517 -0.6818733 4.737102 0.5082086 -0.2818504
3.6613934 3.0223331 2.210203 -0.16363202 0.8632909 0.5336374 -0.7294097 0.06475461
-1.2790835 -1.700194 0.9714248 2.1491687 -2.3465238 6.803492 1.8958296 1.6925743
00000000: 9ae4 6abf dd17 ccbf d186 82bf daee 953f
00000010: 408f 2ebf 5796 9740 f519 023f b24e 90be
00000020: 4554 6a40 e86d 4140 f773 0d40 278f 27be
00000030: a200 5d3f 769c 083f 98ba 3abf 119e 843d
00000040: 02b9 a3bf f59f d9bf 4caf 783f fb8b 0940
00000050: 722d 16c0 35b6 d940 8baa f23f 46a6 d83f

bigru.weight_ih_l1 f4 [24, 16]
0.59185785 0.35929176 -1.8639451 -0.1384106 -2.6149037 3.3334696 0.42840692 -0.9301455
-3.7690444 -1.5450586 1.8138659 11.694912 -6.730644 0.059124716 3.3650095 0.71001905
-1.2880886 -1.5248137 -5.0260034 -0.62702185 1.9926765 0.8455291 0.15706405 -0.7434255
-1.4807559 -0.15549387 4.4576416 7.6079197 -1.0010617 -0.54109335 4.5545206 3.1974869
-7.1696234 13.47962 1.4861574 3.2757769 -0.80900717 1.9095287 1.0123371 6.2470746
-1.1290644 2.5611343 -1.3647854 1.1411554 1.9012815 0.14216481 0.70557284 -3.1815867
1.5321516 -1.0139476 3.5590432 -0.7517011 -0.8100827 1.7966336 -0.38720345 0.17392199
-0.68708974 4.308441 -1.2886074 0.44457054 8.854843 -1.7956759 -0.77208287 1.4134257
-1.9145831 3.616408 -0.14716046 -0.207542 0.26637053 -0.3869161 -0.0926033 6.286637
-0.67668545 -0.89042896 -0.45055014 -3.5654867 -5.983146 0.16553415 -1.1010971 0.4682113
-16.659794 0.12076888 -4.3668904 0.27595186 3.512779 -0.34833214 -0.89983064 0.12777102
0.1637437 -0.15803795 3.7085924 -1.7712971 2.5606172 1.8964851 4.8975425 -0.50136495
-4.875716 2.1802366 0.3505418 1.5661515 2.703946 -4.47414 3.3653195 1.1562595
-2.0310774 3.0964057 -2.1722047 -0.16995971 1.0440584 1.231319 -2.1655931 -0.10098221
-3.5735018 -15.43621 0.65427494 0.9199163 3.0035305 -2.60202 -4.835791 -2.6401894
1.5897111 -0.69170576 0.37160894 -1.041271 3.4536488 -0.83600765 -2.568718 -0.5192943
4.967456 -3.0985737 -0.062158998 1.250699 -0.20852521 0.10674855 -2.8294694 1.0259919
0.73884505 0.33429804 -0.17323318 -0.67538214 0.6961245 0.64045984 -0.96537966 -0.6902775
-3.0961502 0.3805312 -0.3109881 -1.2781308 -0.6486671 1.4642639 3.5520365 -0.33980858
0.46000645 -0.98128307 0.9137421 0.054812122 0.760232 -0.07278284 0.16619305 1.1834748
-3.280636 4.562206 -1.3322655 -0.30221957 -0.704016 0.71171767 -0.079082705 0.86411244
-1.3737811 2.020331 1.5830165 0.12606254 -1.4407784 -0.89287853 -2.3255153 -0.4412872
-9.852069 0.0029511608 0.41653746 -2.0847027 3.1977725 -1.3202817 0.93572325 -0.53512126
0.6060306 2.611337 -3.1274614 0.17506623 0.585072 -1.8617957 -0.63200223 -3.0579343
-4.0836496 3.960799 -1.0431924 0.7348818 -0.3111532 1.6659234 -1.4769951 -1.3442734
0.3014385 -2.119396 -2.7929845 0.02281434 -3.3278477 -1.0281094 -1.6344665 -0.9110503
-10.192885 1.5752503 -1.0533453 -0.21268643 -0.95184463 0.55451494 1.9779239 0.41114515
1.8884996 -0.4074188 0.9998753 -0.6404651 -2.71602 0.21934192 -0.35364276 0.18433298
-2.370829 0.81017125 -0.11771769 0.68028355 -1.3190744 1.9306242 -0.089710884 0.11853187
0.831967 -0.3186181 1.2232007 -0.8562029 1.8697726 0.9954094 1.6704962 0.19324331
5.0447354 3.0027704 -0.81025195 -2.476682 2.3845422 4.3931074 -2.2438738 1.1376774
-0.0033734513 -0.21128578 -0.38760856 -2.1252897 0.16797575 -2.314819 -1.597591 -2.2790973
00000000: ff83 173f 17f5 b73e c195 eebf 82bb 0dbe
00000010: 955a 27c0 9157 5540 2758 db3e 041e 6ebf
00000020: 0638 71c0 7bc4 c5bf c22c e83f 5c1e 3b41
00000030: 7061 d7c0 c22c 723d 515c 5740 cfc3 353f
00000040: 16e0 a4bf 182d c3bf 05d5 a0c0 8184 20bf
00000050: 0610 ff3f 9874 583f 66d5 203e 2251 3ebf
00000060: 6989 bdbf c939 1fbe 00a5 8e40 1474 f340
00000070: ca22 80bf 1885 0abf a2be 9140 a0a3 4c40
00000080: 8e6d e5c0 86ac 5741 683a be3f 54a6 5140
00000090: 181b 4fbf 706b f43f 4394 813f 09e8 c740
000000a0: 2f85 90bf a0e9 2340 4ab1 aebf 6111 923f
000000b0: 315d f33f a793 113e 6ca0 343f 1e9f 4bc0
000000c0: 8b1d c43f 09c9 81bf 5dc7 6340 7c6f 40bf
000000d0: 9461 4fbf 17f8 e53f 883f c6be 9b18 323e
000000e0: 1de5 2fbf c0de 8940 16f1 a4bf c09e e33e
000000f0: 70ad 0d41 b5d8 e5bf 39a7 45bf 22eb b43f
00000100: 0f11 f5bf 3b73 6740 3bb1 16be e485 54be
00000110: b861 883e de19 c6be cda6 bdbd 212c c940
00000120: 423b 2dbf 27f3 63bf 82ae e6be ef30 64c0
00000130: ef75 bfc0 c981 293e c0f0 8cbf 64b9 ef3e
00000140: 4247 85c1 ad55 f73d 91bd 8bc0 9049 8d3e
00000150: 5fd1 6040 9758 b2be 4d5b 66bf 68d6 023e
00000160: 6eac 273e b3d4 21be 9459 6d40 ddb9 e2bf
00000170: 27e1 2340 06c0 f23f abb8 9c40 7459 00bf
00000180: de05 9cc0 ff88 0b40 377a b33e a777 c83f
00000190: 740d 2d40 282c 8fc0 6561 5740 5000 943f
000001a0: 2cfd 01c0 832b 4640 6705 0bc0 eb09 2ebe
000001b0: b5a3 853f dc9b 9d3f 1499 0ac0 c3cf cebd
000001c0: 41b4 64c0 b7fa 76c1 907e 273f a27f 6b3f
000001d0: d839 4040 7f87 26c0 cdbe 9ac0 ddf8 28c0
000001e0: a77b cb3f a113 31bf 8743 be3e 5e48 85bf
000001f0: 9508 5d40 9904 56bf e065 24c0 79f0 04bf
00000200: 66f5 9e40 084f 46c0 6f9a 7ebd e816 a03f
00000210: a287 55be fc9e da3d 0716 35c0 b453 833f
00000220: f324 3d3f 1d29 ab3e 0a64 31be d8e5 2cbf
00000230: 3735 323f 2df5 233f 1f23 77bf 07b6 30bf
00000240: 5327 46c0 fcd4 c23e d539 9fbe ca99 a3bf
00000250: 0c0f 26bf 006d bb3f 9154 6340 64fb adbe
00000260: f785 eb3e 5e35 7bbf 01eb 693f ad82 603d
00000270: 909e 423f 2b0f 95bd 832e 2a3e 1a7c 973f
00000280: f1f5 51c0 97fd 9140 ad87 aabf 86bc 9abe
00000290: 643a 34bf 2133 363f 1df6 a1bd 7936 5d3f
000002a0: 0fd8 afbf 1a4d 0140 49a0 ca3f 8a16 013e
000002b0: 6d6b b8bf b093 64bf 3ed5 14c0 65f0 e1be
000002c0: 13a2 1dc1 4368 413b 6644 d53e c56b 05c0
000002d0: 4ea8 4c40 fefe a8bf 8f8b 6f3f b5fd 08bf
000002e0: d224 1b3f 2520 2740 5428 48c0 9044 333e
000002f0: 47c7 153f 524f eebf e6ca 21bf 32b5 43c0
00000300: 42ad 82c0 bb7d 7d40 5487 85bf 3721 3c3f
00000310: 794f 9fbe fa3c d53f 2d0e bdbf 2711 acbf
00000320: 2656 9a3e 2fa4 07c0 42c0 32c0 24e5 ba3c
00000330: 75fb 54c0 1799 83bf 3336 d1bf 983a 69bf
00000340: 0f16 23c1 cda1 c93f 05d4 86bf 79ca 59be
00000350: 17ac 73bf b1f4 0d3f 9c2c fd3f 9e81 d23e
00000360: 5bba f13f 3299 d0be d4f7 7f3f 85f5 23bf
00000370: 46d3 2dc0 2b9b 603e aa10 b5be c9c1 3c3e
00000380: aabb 17c0 6267 4f3f f915 f1bd 1027 2e3f
00000390: 6ed7 a8bf b21e f73f 57ba b7bd d6c0 f23d
000003a0: cafb 543f e921 a3be d791 9c3f 1d30 5bbf
000003b0: b554 ef3f 27d3 7e3f d2d2 d53f 93e1 453e
000003c0: 796e a140 642d 4040 ac6c 4fbf f581 1ec0
000003d0: 579c 1840 5694 8c40 a19b 0fc0 6a9f 913f
000003e0: 1f15 5dbb 4d5b 58be a174 c6be bf04 08c0
000003f0: d601 2c3e ff25 14c0 dd7d ccbf bbdc 11c0

bigru.weight_hh_l1 f4 [24, 8]
2.2990758 0.16196401 -1.272045 0.478274 0.6983152 1.3837947 -5.477949 0.6962585
-0.59207666 -1.9635749 -2.1702123 0.87807655 -0.42362136 -3.8697238 1.7009137 -3.574171
-1.6803774 -4.9150057 6.9677944 -6.871916 -4.224616 8.348765 1.113568 0.9474316
3.261049 2.0432205 1.3147426 1.8889518 -1.4354084 -4.2937355 0.091995284 2.2745068
-1.7890198 0.76378185 0.6174381 1.56896 -0.071095005 -0.8160795 -2.1560645 6.3916755
-1.329127 -1.5748452 0.29349196 -1.3930143 -1.806257 -2.3750477 1.7839677 -1.6432194
-1.7034932 -2.0369546 2.3762407 -2.506282 1.0458922 -5.130014 2.7822263 2.0089338
-0.0023576696 -2.5119498 0.7289661 3.0271332 -2.842259 6.3498993 -1.8200545 -2.3285093
2.006421 0.7799775 0.00932605 1.4937357 -1.5315095 0.037649408 -2.5481935 2.1394534
0.1496868 -5.4548416 0.04740683 0.41573256 0.17209615 0.58394307 0.33472288 -1.6323696
-0.06487067 0.7088413 0.41655922 -1.6691349 0.3346327 -1.3325729 -3.068953 0.23195446
-0.016480763 0.749743 -6.2695093 -5.2714405 -7.220653 -1.3437884 4.381255 -2.2005274
0.28359845 0.5460254 0.29615775 -0.24647354 1.4224066 0.20819147 1.8073967 1.0865437
0.13677682 -2.9621894 0.96631247 0.3280024 -0.4401284 1.8034244 1.033297 -0.39784834
0.57816064 0.5087428 0.60429144 0.56507725 -0.6232645 -0.9960188 1.1728166 2.3528924
1.4080285 2.8578467 -0.053294133 -0.035531875 2.8137805 -0.3182807 0.8070286 1.2118049
1.3063437 -3.45262 -0.7933122 0.07800233 0.15953867 -0.17887747 -0.35309073 -0.88761324
0.3541204 -1.3036807 -2.4809558 0.8760624 0.46613768 -1.6834613 -2.48702 0.9527199
3.1190112 -2.987303 1.4688168 -8.497848 3.231876 0.5044594 -0.20165522 14.068538
1.3582195 -1.4008766 -0.5913673 -5.0710435 -1.6708716 2.206031 -0.39021438 -5.671733
-0.25989196 0.0622581 -3.956809 -2.6953137 3.6678836 2.2791438 -1.7674552 7.2647276
-0.9306263 -0.9898959 2.3663208 1.2867143 -1.3857808 -0.9567792 1.1285912 -0.6800795
0.34991974 1.5758283 -0.15166844 -0.07088615 0.3532654 -0.4140488 -1.0297158 -0.70662105
-0.5457897 -2.4652243 -0.17283593 -0.46516663 0.09412349 -1.529874 2.3701105 2.0210545
00000000: 0f24 1340 e5d9 253e 5fd2 a2bf 54e0 f43e
00000010: c9c4 323f 2f20 b13f 5c4b afc0 ff3d 323f
00000020: 5692 17bf 6c56 fbbf c2e4 0ac0 a0c9 603f
00000030: e6e4 d8be 8ea9 77c0 8ab7 d93f 38bf 64c0
00000040: 9b16 d7bf ba47 9dc0 2cf8 de40 bce6 dbc0
00000050: 0e30 87c0 8b94 0541 6589 8e3f e18a 723f
00000060: 07b5 5040 20c4 0240 7c49 a83f 2cc9 f13f
00000070: 76bb b7bf 4866 89c0 0668 bc3d 8591 1140
00000080: 9afe e4bf 3587 433f 6c10 1e3f aed3 c83f
00000090: 429a 91bd 96ea 50bf f6fc 09c0 9b88 cc40
000000a0: d520 aabf 8794 c9bf 9444 963e 4b4e b2bf
000000b0: 6e33 e7bf c800 18c0 0e59 e43f 0355 d2bf
000000c0: 110c dabf 775d 02c0 5414 1840 ed66 20c0
000000d0: ccdf 853f 1329 a4c0 ff0f 3240 5f92 0040
000000e0: 2283 1abb c9c3 20c0 869d 3a3f 8dbc 4140
000000f0: 92e7 35c0 6032 cb40 8cf7 e8bf 4c06 15c0
00000100: 3469 0040 9bac 473f 4acc 183c bb32 bf3f
00000110: 8108 c4bf 4436 1a3d 9a15 23c0 ceec 0840
00000120: 7f47 193e 108e aec0 aa2d 423d e6da d43e
00000130: f939 303e 4b7d 153f cc60 ab3e 7df1 d0bf
00000140: eada 84bd a076 353f 4047 d53e 36a6 d5bf
00000150: fa54 ab3e c091 aabf ba69 44c0 7885 6d3e
00000160: aa02 87bc 28ef 3f3f d29f c8c0 a4af a8c0
00000170: 970f e7c0 4201 acbf 3e33 8c40 71d5 0cc0
00000180: d133 913e 52c8 0b3f fda1 973e 8f63 7cbe
00000190: 6b11 b63f 2530 553e c658 e73f dd13 8b3f
000001a0: 390f 0c3e 8394 3dc0 4160 773f eeef a73e
000001b0: 8258 e1be 9cd6 e63f 1343 843f c7b2 cbbe
000001c0: 5602 143f f83c 023f d8b2 1a3f e7a8 103f
000001d0: 438e 1fbf 17fb 7ebf db1e 963f ca95 1640
000001e0: 473a b43f f6e6 3640 f34a 5abd df89 11bd
000001f0: fb14 3440 b0f5 a2be 6d99 4e3f 6c1c 9b3f
00000200: 4536 a73f baf7 5cc0 8216 4bbf b0bf 9f3d
00000210: 1b5e 233e a82b 37be 4fc8 b4be 9f3a 63bf
00000220: 454f b53e 02df a6bf fbc7 1ec0 a045 603f
00000230: 99a9 ee3e a97b d7bf 562b 1fc0 74e5 733f
00000240: e19d 4740 f92f 3fc0 3002 bc3f 2ff7 07c1
00000250: 0ed7 4e40 4024 013f b57e 4ebe bb18 6141
00000260: 23da ad3f ed4f b3bf d963 17bf fd45 a2c0
00000270: 1fdf d5bf 9d2f 0d40 2eca c7be d67e b5c0
00000280: 8f10 85be 5902 7f3d 5c3c 7dc0 0580 2cc0
00000290: 9bbe 6a40 7edd 1140 f93b e2bf a678 e840
000002a0: 863d 6ebf d169 7dbf cd71 1740 0eb3 a43f
000002b0: 4461 b1bf 7bef 74bf ad75 903f b119 2ebf
000002c0: ae28 b33e beb4 c93f f94e 1bbe c22c 91bd
000002d0: 34df b43e 34fe d3be bacd 83bf 1ee5 34bf
000002e0: e0b8 0bbf 3cc6 1dc0 e7fb 30be 522a eebe
000002f0: d1c3 c03d e9d2 c3bf e4af 1740 f558 0140

bigru.bias_ih_l1 f4 [24]
0.24482894 -0.52507716 1.4532409 -1.49566 -0.4897171 0.76140845 -1.423066 -1.2646937
0.35618633 -0.066480905 -0.8700696 -1.1002795 -0.74403405 1.6000869 -0.4477393 1.13996
-1.1945202 -0.7086272 1.0301217 -0.65714073 0.7203331 0.2843396 1.0634699 0.3381882
00000000: 70b4 7a3e 756b 06bf cc03 ba3f c971 bfbf
00000010: 33bc fabe aaeb 423f 0727 b6bf 7ce1 a1bf
00000020: 0e5e b63e 2427 88bd e2bc 5ebf f5d5 8cbf
00000030: 0479 3ebf a6cf cc3f 163e e5be 36ea 913f
00000040: 0ae6 98bf 9868 35bf 07db 833f 603a 28bf
00000050: c067 383f f694 913e c81f 883f 0127 ad3e

bigru.bias_hh_l1 f4 [24]
0.24482894 -0.52507716 1.4532409 -1.49566 -0.4897171 0.76140845 -1.423066 -1.2646937
0.35618633 -0.066480905 -0.8700696 -1.1002795 -0.74403405 1.6000869 -0.4477393 1.13996
0.21262044 -0.44869614 2.2266502 -2.6418962 3.3668306 -1.402609 -0.6982539 -1.0672773
00000000: 70b4 7a3e 756b 06bf cc03 ba3f c971 bfbf
00000010: 33bc fabe aaeb 423f 0727 b6bf 7ce1 a1bf
00000020: 0e5e b63e 2427 88bd e2bc 5ebf f5d5 8cbf
00000030: 0479 3ebf a6cf cc3f 163e e5be 36ea 913f
00000040: 2cb9 593e 80bb e5be 7081 0e40 d414 29c0
00000050: 277a 5740 b188 b3bf c5c0 32bf 8b9c 88bf

bigru.weight_ih_l1_reverse f4 [24, 16]
-7.4021354 -0.15441209 0.41139632 -0.94424343 -7.927507 -0.3590471 -0.26307055 1.6675799
1.23941 -1.2797109 -2.334206 4.2833385 -2.2927837 -0.3271507 0.9345864 1.2863425
-3.138145 -0.9848732 -8.402823 -1.2410322 -1.8573586 0.07199357 0.6814534 -1.9095645
-4.8495164 4.376742 3.6814492 -17.236053 -8.38534 -1.1995732 -8.716709 2.497121
4.5533013 -9.835836 -3.866524 -1.3614095 0.6677632 1.1551977 0.6984423 -0.25450006
3.3507547 -2.273246 -8.37135 -10.887916 -1.9931742 -0.29420802 -2.6370168 -0.27804974
-9.324321 0.12529294 -4.57854 0.9195865 4.8472676 -0.015535179 -0.9782498 0.3484284
8.791039 -3.6277988 -4.8626714 -0.47787455 7.344409 6.454958 2.5532203 -1.0598152
-2.1667035 -0.91159683 -9.590924 1.7208146 2.3389304 -2.0514357 -1.5110418 -0.2682217
3.1813798 -1.1442596 -1.7163166 15.71691 -1.5602788 -3.692493 2.8238475 -2.7462606
1.6066699 2.722211 -16.763699 0.85911596 1.5161006 -0.9846829 -0.47243774 0.3434145
-8.291382 4.816351 7.9121137 -10.150731 4.5534472 -4.548338 -3.6181138 -1.7557364
4.6059356 -3.9974291 -3.1382833 -0.629606 -0.23388793 -0.02400714 0.6118781 -0.5943954
2.6867893 -1.7961519 -0.6034155 6.9151525 0.46824956 0.71356237 0.8791634 0.3780571
-10.755935 -8.646866 -3.9052129 -1.7524239 -3.2479088 0.8155114 1.7836695 -1.827454
-1.6967705 -0.01895562 -0.1684836 -13.648035 -3.635792 -1.0782757 -8.258242 1.7802092
3.432244 1.3884621 0.37887546 -0.13642035 1.2460995 0.039534654 -0.47326177 -0.16645382
-0.2787117 0.5022015 0.29019332 -1.4222032 -1.4416683 -0.68665767 -1.0869191 0.49030712
-9.062801 0.3870439 -7.463173 -0.13374917 0.79451627 1.3627577 -0.40979275 2.415172
0.44168377 1.4875042 -0.90462947 3.1914358 -10.294956 1.7135038 -1.7664077 0.062155854
3.5043437 -1.5600474 -0.8453297 -1.2417955 -0.8896744 1.754809 0.70854765 -1.0371959
-0.56047326 -0.6339034 -0.35408208 -2.5803883 3.0369272 0.6123873 0.26635328 -0.2212754
0.51986426 1.2391329 -0.28272334 0.60320807 -0.29110014 0.13459936 -1.0704123 0.4979447
-0.98444 1.7176224 0.8653244 -3.1611505 -0.06556192 0.5190104 -0.9694418 0.45053086
3.4232848 0.9369757 0.69147617 0.7814008 0.8157019 0.072956085 -0.7449629 -2.4712012
0.2817625 -0.94637775 -0.14091758 11.144548 0.044630945 1.0683285 2.1349952 0.10080084
0.66964376 0.31547844 0.079439744 -0.8847571 2.7924926 1.5124763 1.5685148 0.9263665
9.341955 -3.415588 -2.2458293 -0.35500753 2.238207 2.3803747 0.8404606 1.7719862
-7.552434 -3.0999632 0.5330418 0.43738005 -1.2731925 -0.053260602 1.0729972 -0.71921825
11.771786 -3.0778544 -3.2222102 0.050879553 0.33529413 2.7720058 1.2214991 1.9023333
0.1703788 0.39079365 5.308824 -2.1118827 -4.782186 2.1906152 1.7622857 -1.0689278
0.03952101 -1.8900161 -0.20522419 -0.18059231 3.4466765 -3.4501474 -1.8222682 1.8476518
00000000: 4bde ecc0 341e 1ebe 8aa2 d23e f0b9 71bf
00000010: 23ae fdc0 06d5 b7be 2fb1 86be 4273 d53f
00000020: fda4 9e3f 91cd a3bf a263 15c0 1c11 8940
00000030: f8bc 12c0 4c80 a7be 0e41 6f3f dfa6 a43f
00000040: 5ed7 48c0 a620 7cbf f771 06c1 25da 9ebf
00000050: edbd edbf 5d71 933d bb73 2e3f 9c6c f4bf
00000060: 3d2f 9bc0 450e 8c40 dd9c 6b40 70e3 89c1
00000070: 5a2a 06c1 9d8b 99bf a477 0bc1 d5d0 1f40
00000080: a5b4 9140 965f 1dc1 2175 77c0 ab42 aebf
00000090: 87f2 2a3f 85dd 933f 1dcd 323f d54d 82be
000000a0: c472 5640 dd7c 11c0 0df1 05c1 e734 2ec1
000000b0: 5520 ffbf 6fa2 96be e2c4 28c0 895c 8ebe
000000c0: 6b30 15c1 cb4c 003e 6683 92c0 056a 6b3f
000000d0: d11c 9b40 4387 7ebc 946e 7abf 3565 b23e
000000e0: 19a8 0c41 db2d 68c0 019b 9bc0 f9ab f4be
000000f0: 6605 eb40 048f ce40 f667 2340 06a8 87bf
00000100: 45ab 0ac0 695e 69bf 6d74 19c1 a743 dc3f
00000110: 09b1 1540 b94a 03c0 d169 c1bf 5b54 89be
00000120: ba9b 4b40 1977 92bf 43b0 dbbf 7778 7b41
00000130: 37b7 c7bf ce51 6cc0 ebb9 3440 bcc2 2fc0
00000140: 5ca7 cd3f b438 2e40 0e1c 86c1 06ef 5b3f
00000150: 960f c23f 2e14 7cbf 5ce3 f1be 06d4 af3e
00000160: 80a9 04c1 8c1f 9a40 0930 fd40 6569 22c1
00000170: d7b5 9140 fc8b 91c0 2d8f 67c0 f8bb e0bf
00000180: d363 9340 e1d5 7fc0 a2d9 48c0 dc2d 21bf
00000190: 5180 6fbe 9faa c4bc 0ba4 1c3f 4c2a 18bf
000001a0: 5bf4 2b40 4ee8 e5bf 7079 1abf ee48 dd40
000001b0: 68be ef3e 06ac 363f da10 613f b390 c13e
000001c0: 4f18 2cc1 9059 0ac1 02ef 79c0 6d4f e0bf
000001d0: bddd 4fc0 5bc5 503f 484f e43f 03ea e9bf
000001e0: c72f d9bf d148 9bbc f786 2cbe 5a5e 5ac1
000001f0: d1b0 68c0 f004 8abf c221 04c1 e5dd e33f
00000200: e3a9 5b40 20b9 b13f f7fb c13e c7b1 0bbe
00000210: 3080 9f3f 17ef 213d 5e4f f2be df72 2abe
00000220: 4db3 8ebe 4790 003f 3894 943e c10a b6bf
00000230: 9688 b8bf ccc8 2fbf 2a20 8bbf 8909 fb3e
00000240: 3c01 11c1 9e2a c63e 50d2 eec0 8bf5 08be
00000250: 6b65 4b3f d86e ae3f 5bd0 d1be 2e92 1a40
00000260: 6024 e23e 8a66 be3f cc95 67bf 7c40 4c40
00000270: 24b8 24c1 1854 db3f a619 e2bf 2397 7e3d
00000280: 2b47 6040 a2af c7bf 8767 58bf 28f3 9ebf
00000290: b4c1 63bf 959d e03f 6163 353f d6c2 84bf
000002a0: 2d7b 0fbf 7e47 22bf 3f4a b5be 1525 25c0
000002b0: 045d 4240 6ac5 1c3f 755f 883e 0596 62be
000002c0: d315 053f e89b 9e3f 1dc1 90be d86b 1a3f
000002d0: 140b 95be 6ad4 093e 4503 89bf 9cf2 fe3e
000002e0: 4304 7cbf 0ddb db3f e685 5d3f 4a50 4ac0
000002f0: 5445 86bd dedd 043f 562d 78bf fbab e63e
00000300: 1917 5b40 a4dd 6f3f 9504 313f e209 483f
00000310: d7d1 503f 006a 953d e3b5 3ebf 2928 1ec0
00000320: 2d43 903e d045 72bf b34c 10be 1250 3241
00000330: f0ce 363d fdbe 883f c3a3 0840 ac70 ce3d
00000340: c66d 2b3f 6486 a13e 4eb1 a23d 717f 62bf
00000350: 33b8 3240 d398 c13f 18c5 c83f 5b26 6d3f
00000360: a678 1541 fe98 5ac0 abbb 0fc0 8cc3 b5be
00000370: c93e 0f40 0f58 1840 6d28 573f 72d0 e23f
00000380: 8aad f1c0 cc65 46c0 6d75 083f 47f0 df3e
00000390: f9f7 a2bf ca27 5abd f957 893f b01e 38bf
000003a0: 3c59 3c41 91fb 44c0 b138 4ec0 1467 503d
000003b0: acab ab3e 8b68 3140 155a 9c3f a87f f33f
000003c0: c877 2e3e 1b16 c83e e3e1 a940 1629 07c0
000003d0: ab07 99c0 0a33 0c40 9492 e13f a0d2 88bf
000003e0: c8e0 213d 0cec f1bf 4a26 52be 31ed 38be
000003f0: 5996 5c40 37cf 5cc0 1640 e9bf db7f ec3f

bigru.weight_hh_l1_reverse f4 [24, 8]
-0.00305295 -0.13248101 -0.3872188 -0.07548023 0.27191558 0.01704531 0.043630943 0.063457645
0.07717096 -0.16319925 -0.29305598 0.25693274 -0.35280377 0.20518038 -0.20664246 -0.24238299
-0.24054231 -0.14830314 -0.28285187 0.37728074 0.27528095 -0.329704 -0.085640006 0.06913486
-0.091390744 -0.12214327 -0.10767087 -0.17829204 -0.0943562 -0.026084077 0.6077683 -0.13929123
0.03229614 -0.0004946611 -0.100849256 0.13429345 0.01630633 0.20622489 -0.04482333 0.42182806
0.39942098 0.008582652 -0.12604603 -0.04555787 -0.09614594 -0.20736143 -0.30894542 0.03594335
0.004743037 0.20763251 0.24226438 -0.27276975 -0.12169024 -0.27861425 0.032187656 0.102853335
-0.119614735 0.2297428 0.26317957 0.026798937 -0.066455394 0.12809241 -0.15016137 -0.03958354
-0.21615167 -0.12207564 -0.09829146 -0.025635166 -0.14966723 0.1523825 0.08174239 -0.08382365
-0.2064263 -0.08928175 0.043658018 -0.22889039 -0.24890031 0.41791013 -0.16585797 0.04164975
0.008387874 -0.37972343 -0.09009651 0.025564851 -0.41631606 0.06958262 0.15312992 0.14064838
-0.26324394 -0.23484764 0.08778595 -0.034917295 0.23620728 0.15018281 -0.12474991 -0.03169803
0.08235851 -0.38223553 0.18948555 -0.43367308 0.16171035 -0.03130721 -0.04784542 0.31860104
-0.20021342 -0.14626114 0.30236542 0.2363372 -0.010111293 -0.10608015 -0.3064483 -0.007867981
0.04768756 0.08296522 -0.049523864 -0.14503945 -0.0130244 -0.06686747 -0.23628134 -0.37887767
-0.0873394 -0.39185134 0.18939152 0.19559129 -0.05217057 -0.18135281 -0.10934069 -0.08386702
0.05005215 -0.123810984 -0.10077252 -0.36595413 0.38955718 0.116203375 -0.16074911 -0.39028123
-0.25417185 -0.041784763 -0.37163556 -0.31092855 -0.27013186 -0.24149482 -0.12972672 -0.019081783
-0.5169788 0.17964654 -0.20390204 -0.09081621 0.1478401 0.09548871 -0.14950463 0.11071461
0.1889723 0.083218254 -0.25514027 -0.040314324 -0.059317153 -0.24780598 -0.042519163 -0.0924502
-0.19295736 0.23122506 -0.13569732 -0.06492609 -0.078385584 -0.23528083 -0.02043565 0.3841632
-0.34402913 0.01494264 0.20921148 0.024655288 -0.10876729 -0.32669526 0.21043977 -0.33036548
-0.10819569 0.28399432 -0.025962537 -0.109999806 -0.2265211 0.08161865 -0.21941791 -0.037403855
0.0077027376 0.28666505 -0.087905966 0.20830716 0.16179545 0.28758976 0.24652895 -0.09141746
00000000: 0014 48bb 1aa9 07be 8b41 c6be 6195 9abd
00000010: 8538 8b3e 9ba2 8b3c 5cb6 323d 15f6 813d
00000020: cf0b 9e3d b41d 27be 6f0b 96be b08c 833e
00000030: b2a2 b4be ce1a 523e 159a 53be 3f33 78be
00000040: b950 76be c7dc 17be f6d1 90be f12a c13e
00000050: a0f1 8c3e f6ce a8be 0764 afbd 9496 8d3d
00000060: 122b bbbd 4026 fabd 8c82 dcbd 3092 36be
00000070: d33d c1bd 46ae d5bc b496 1b3f 5ca2 0ebe
00000080: f548 043d 25ac 01ba 0e8a cebd 3984 093e
00000090: da94 853c 9e2c 533e ab98 37bd d9f9 d73e
000000a0: e880 cc3e 409e 0c3c 3612 01be e49a 3abd
000000b0: 2ae8 c4bd 8e56 54be 182e 9ebe 5639 133d
000000c0: 7a6b 9b3b 9e9d 543e 2714 783e 7aa8 8bbe
000000d0: bc38 f9bd 87a6 8ebe 34d7 033d c5a4 d23d
000000e0: 92f8 f4bd b241 6b3e 79bf 863e 7289 db3c
000000f0: c419 88bd a82a 033e e7c3 19be 5a22 22bd
00000100: dd56 5dbe cb02 fabd 084d c9bd d700 d2bc
00000110: 5e42 19be 280a 1c3e 8e68 a73d bcab abbd
00000120: 6a61 53be 5ad9 b6bd c0d2 323d 3e62 6abe
00000130: b9df 7ebe 51f8 d53e acd6 29be ee98 2a3d
00000140: 4b6d 093c 1c6b c2be 8584 b8bd 616d d13c
00000150: 6127 d5be 5581 8e3d 17ce 1c3e 2106 103e
00000160: e9c7 86be e67b 70be 1fc9 b33d 7005 0fbd
00000170: 52e0 713e 86c9 193e e17c ffbd cbd5 01bd
00000180: 94ab a83d 60b4 c3be 8008 423e 660a debe
00000190: 6697 253e fd3b 00bd 8ff9 43bd ad1f a33e
000001a0: bf04 4dbe 7bc5 15be a4cf 9a3e 6102 723e
000001b0: d6a9 25bc 8d40 d9bd cbe6 9cbe b4e8 00bc
000001c0: 0854 433d abe9 a93d 89d9 4abd 3985 14be
000001d0: 4b64 55bc d0f1 88bd bcf3 71be 41fc c1be
000001e0: 00df b2bd bda0 c8be daef 413e 1549 483e
000001f0: cfb0 55bd 8db4 39be 03ee dfbd 79c2 abbd
00000200: 7c03 4d3d 9d90 fdbd d361 cebd 575e bbbe
00000210: 0a74 c73e 09fc ed3d 6a9b 24be f1d2 c7be
00000220: d022 82be 8026 2bbd 0447 bebe 0732 9fbe
00000230: b94e 8abe 6b4a 77be 15d7 04be 6651 9cbc
00000240: b958 04bf 43f5 373e b2cb 50be d9fd b9bd
00000250: 6563 173e 968f c33d be17 19be 57be e23d
00000260: f481 413e 556e aa3d bfa1 82be a220 25bd
00000270: 8bf6 72bd dac0 7dbe 9328 2ebd 8856 bdbd
00000280: 9d96 45be 43c6 6c3e 3df4 0abe f8f7 84bd
00000290: 9f88 a0bd 75ed 70be aa68 a7bc 0ab1 c43e
000002a0: 9624 b0be fad1 743c 893b 563e e3f9 c93c
000002b0: 63c1 debd 9a44 a7be 867d 573e aa25 a9be
000002c0: b495 ddbd b467 913e 63af d4bc 9447 e1bd
000002d0: 26f5 67be ae27 a73d 17af 60be c934 19bd
000002e0: 3f67 fc3b c3c5 923e 0b08 b4bd 794e 553e
000002f0: b5ad 253e f73e 933e 1672 7c3e 1439 bbbd

bigru.bias_ih_l1_reverse f4 [24]
0.1062962 -0.82180005 -1.5855322 0.71077293 1.761906 0.61466575 -0.3101496 -1.6920211
0.027857943 -0.07249552 -0.8098365 0.9375106 0.3729722 -0.9383753 -0.54160714 -2.0161793
-0.7446923 -0.19317642 0.9903297 -0.29411152 -0.870254 -0.9933744 -0.028100822 -0.41835988
00000000: d2b1 d93d 7d61 52bf b8f2 cabf 37f5 353f
00000010: 2386 e13f bc5a 1d3f eecb 9ebe 2694 d8bf
00000020: 5736 e43c 8878 94bd 7251 4fbf b200 703f
00000030: 36f6 be3e 5d39 70bf c4a6 0abf 1509 01c0
00000040: 28a4 3ebf 0ad0 45be 3f86 7d3f c995 96be
00000050: f7c8 5ebf c94d 7ebf b233 e6bc 4433 d6be

bigru.bias_hh_l1_reverse f4 [24]
0.1062962 -0.82180005 -1.5855322 0.71077293 1.761906 0.61466575 -0.3101496 -1.6920211
0.027857943 -0.07249552 -0.8098365 0.9375106 0.3729722 -0.9383753 -0.54160714 -2.0161793
-6.248797 -3.4960432 -2.563488 -5.171382 -9.822524 -9.897986 1.6053464 3.284125
00000000: d2b1 d93d 7d61 52bf b8f2 cabf 37f5 353f
00000010: 2386 e13f bc5a 1d3f eecb 9ebe 2694 d8bf
00000020: 5736 e43c 8878 94bd 7251 4fbf b200 703f
00000030: 36f6 be3e 5d39 70bf c4a6 0abf 1509 01c0
00000040: 25f6 c7c0 2cbf 5fc0 3010 24c0 f67b a5c0
00000050: 0f29 1dc1 275e 1ec1 fe7b cd3f 1b2f 5240

linear.weight f4 [1, 16]
0.21582562 0.325688 0.8111882 -0.26849908 0.6285289 -1.4721581 0.6764752 0.07882138
-1.2893275 -0.099629685 0.7650302 1.4482553 -1.4161401 -0.24411291 -0.61588323 0.2521381
00000000: 6401 5d3e 94c0 a63e 08aa 4f3f b678 89be
00000010: 45e7 203f ad6f bcbf 7b2d 2d3f 1b6d a13d
00000020: af08 a5bf a60a ccbd 05d9 433f 6e60 b93f
00000030: 1444 b5bf bcf8 79be 86aa 1dbf 3f18 813e
