models/CNTFET/pretrained_rnn_dcnt1.33_sca1.pth (torch, 206674 bytes, 28 tensors)

embedding.weight f4 [32, 1, 1]
0	0xba879801	-0.0010344983
1	0xbf2b2f07	-0.66868633
2	0xba160f4d	-0.0005724326
3	0x3da2f4e8	0.079568684
4	0xba4ca15a	-0.00078060257
5	0x3c491d3b	0.0122750355
6	0xbe445355	-0.19172414
7	0xbadfd3ee	-0.001707671
8	0xbda18bb2	-0.07887973
9	0x3f49c491	0.7881556
10	0x3f507fd2	0.8144504
11	0xb9e6f128	-0.00044048694
12	0xbeb52104	-0.3537675
13	0xbf4f7564	-0.810385
14	0x3aaa522c	0.001299446
15	0x3abc4d16	0.0014366235
16	0xbc80a521	-0.01570374
17	0xbf238632	-0.6387664
18	0x3f78a59d	0.97127706
19	0xbf4851ea	-0.7824999
20	0xbd2bbf51	-0.0419305
21	0x39f859f6	0.00047369272
22	0x3f0c20ed	0.5473774
23	0x3a894c78	0.001047506
24	0x3adff46c	0.0017086393
25	0xba69c903	-0.0008918198
26	0x3ede7a28	0.43452573
27	0xbae3021b	-0.0017319353
28	0x3f21e7d8	0.6324439
29	0xbf50eea0	-0.8161411
30	0x3eb6279b	0.35577092
31	0x3e2e1ffe	0.17004392

embedding.bias f4 [32]
0	0x399975ae	0.00029270112
1	0x3e274caf	0.16337846
2	0x3990727d	0.0002755112
3	0x3f2a363b	0.66489
4	0xba0187db	-0.00049412035
5	0xbe563897	-0.20920025
6	0xbdfee3d1	-0.12445796
7	0xbb5755b9	-0.0032857491
8	0x3ea5e39c	0.32400215
9	0xbef35f4d	-0.47533646
10	0xbf059c4d	-0.5219162
11	0x3a9cbec8	0.0011958713
12	0x3f4b1d4d	0.79341584
13	0x3e2cfaff	0.16892622
14	0x3ab23512	0.0013596138
15	0x3a1c03cc	0.00059514935
16	0x3e6f7a7c	0.23386568
17	0xbf3e5112	-0.74342453
18	0xbf3f71a2	-0.74782765
19	0x3f36c32d	0.71391565
20	0x3f3b4226	0.7314781
21	0xbad6724e	-0.001636097
22	0xbf377ffb	-0.7167966
23	0x3a8b4851	0.001062641
24	0x3a8431c6	0.0010085634
25	0x3a226898	0.0006195395
26	0x3eac0b84	0.33602536
27	0xbb27d29b	-0.0025607708
28	0xbe122ce4	-0.14274937
29	0x3e3aa7eb	0.18228118
30	0x3db5cba7	0.08876734
31	0xbe8c0c4b	-0.2735313

bigru.weight_ih_l0 f4 [96, 32]
0	0xbd63cfe4	-0.05561818
1	0x3ee68716	0.45024937
2	0xbf08a22d	-0.5337246
3	0xbd86fc75	-0.06591121
4	0x3eb0c77d	0.34527197
5	0x3e30ca90	0.17264771
6	0x3e9902a1	0.29884818
7	0xbed3f89c	-0.4140061
8	0x3df0be6e	0.117550716
9	0x3e957b02	0.2919541
10	0xbeadf670	-0.3397708
11	0x3eac07ba	0.33599645
12	0xbd8df142	-0.06930782
13	0x3f18b234	0.59646916
14	0xbd56b190	-0.05241543
15	0x3de682b8	0.112554014
16	0xbe9b9ea7	-0.3039448
17	0xbe85e3aa	-0.26150256
18	0x3e924321	0.2856684
19	0x3db0fd3a	0.08642049
20	0xbdc15787	-0.09440523
21	0x3c820966	0.015873622
22	0xbeb6740e	-0.35635418
23	0xbdb28656	-0.08717029
24	0x3e3d9c1d	0.18516584
25	0xbe4a86a9	-0.19777931
26	0x3b5ff381	0.003417224
27	0xbcd0fee4	-0.025512166
28	0xbf4c47e5	-0.797972
29	0x3ed7257e	0.42020792
30	0xbd165a1d	-0.036707032
31	0xbd7f151c	-0.06227599
32	0xbe528853	-0.20559816
33	0xbf945772	-1.1589186
34	0x3e07311a	0.13202325
35	0xbe833200	-0.25624084
36	0xbe37a144	-0.17932612
37	0xbeceec46	-0.40414637
38	0xbf37f75c	-0.71861815
39	0xbe693d29	-0.22777237
40	0xbe63e94f	-0.22256969
41	0x3f957a83	1.1678013
42	0x3f2c5726	0.6732048
43	0x3e648b1a	0.22318688
44	0x3d10a08c	0.03530936
45	0xbf9b49e5	-1.2131926
46	0xbe39e868	-0.18155062
47	0x3ec66a4a	0.38752967
48	0x3e87a686	0.26494235
49	0xbf532aff	-0.8248748
50	0x3ea22030	0.31665182
51	0xbef239b6	-0.47309655
52	0x3e9255a1	0.28580955
53	0x3f04d997	0.51894516
54	0x3ec82f36	0.3909852
55	0x3f9a7dc2	1.2069628
56	0x3f054a14	0.5206616
57	0x3fca9a3b	1.5828317
58	0x3e78f02e	0.24310371
59	0xbf2197b1	-0.6312209
60	0x3fa54a5b	1.2913316
61	0xbf8837ca	-1.0642025
62	0x3f32139e	0.69561183
63	0x3e1595f0	0.14607978
64	0x3e1f1e0c	0.15538806
65	0xbea5727e	-0.32313913
66	0x3d886e8d	0.06661711
67	0xbf2bd434	-0.6712067
68	0xbf2ad649	-0.66733223
69	0xbe165927	-0.14682446
70	0x3e06f055	0.13177617
71	0xbd8f6fbd	-0.07003734
72	0xbb3090bc	-0.0026941737
73	0x3edf62e3	0.43630132
74	0x3d61f111	0.05516154
75	0xbeaa0db6	-0.33213586
76	0xbe1aa1c4	-0.15100771
77	0xbef39570	-0.4757495
78	0xbe111ca2	-0.14171079
79	0x3d8e4d1e	0.06948303
80	0xbe372f36	-0.17889103
81	0xbe5ed435	-0.21760638
82	0xbdb86d55	-0.090052284
83	0xbe88c408	-0.2671206
84	0x3e9b6435	0.3034989
85	0xbece6a49	-0.40315464
86	0xbc8c0c1d	-0.01709562
87	0x3de13ae7	0.10997563
88	0xbea21505	-0.31656662
89	0xbe415d46	-0.18883237
90	0x3d3451a6	0.04402318
91	0x3f01bab0	0.5067549
92	0x3eedd683	0.46452722
93	0xbe40dfe3	-0.18835406
94	0x3e7dbe1b	0.2477955
95	0x3ec0f75c	0.3768872
96	0x3dfbc9c1	0.12294341
97	0xbf8da138	-1.1064825
98	0x3ec42239	0.3830736
99	0x3e04a0e5	0.12952001
100	0x3ed151a6	0.40882605
101	0xbdfe0c8a	-0.124047354
102	0x3b8f1dd9	0.004367572
103	0xbf7275bd	-0.94710904
104	0x3f2084bb	0.6270253
105	0xbe4d9d8d	-0.20079632
106	0xbd3adfee	-0.045623712
107	0x3ee5cd9c	0.4488343
108	0x3e8e7553	0.27823886
109	0xbf6dea4d	-0.9293564
110	0x3e087a3f	0.13327883
111	0xbdbda9ba	-0.092608884
112	0x3f290e1d	0.6603716
113	0xbf2431d6	-0.64138544
114	0xbe453715	-0.19259293
115	0x3d7022b3	0.05862684
116	0x3ea0b668	0.31389165
117	0xbd1bf32e	-0.03807371
118	0xbe4c017e	-0.19922444
119	0x3f3070ae	0.68921936
120	0x40228e44	2.5399332
121	0xbd9e39cf	-0.0772587
122	0x3f58c5a0	0.8467655
123	0x3f5a7749	0.85338265
124	0x3f94ec05	1.1634527
125	0xbe2ec2c1	-0.1706648
126	0x3ed71347	0.42006895
127	0xbf1fcaf1	-0.6241904
128	0xbfd20802	-1.6408694
129	0xbd235236	-0.039873324
130	0xbfc5f62f	-1.5465754
131	0xbfe88f53	-1.8168739
132	0x3f3f04d6	0.74616754
133	0x3fef7df2	1.871031
134	0x3f082887	0.5318684
135	0x414e1d5e	12.88217
136	0xc123e281	-10.242799
137	0x3f994631	1.1974546
138	0x3f816a14	1.0110497
139	0xc02310a0	-2.5478897
140	0xc1172cd4	-9.448444
141	0xbed51d40	-0.41623878
142	0x3f21b99c	0.6317384
143	0x3e9c713c	0.3055514
144	0xbfcac152	-1.5840247
145	0x3fbc35b9	1.4703895
146	0x3f978506	1.183747
147	0xbf99da92	-1.2019827
148	0xbfc222f6	-1.5166919
149	0x3ef3b33e	0.47597688
150	0x402abe16	2.667852
151	0xbd88c403	-0.06678011
152	0x3fd8f321	1.6949197
153	0x3e8380e7	0.25684282
154	0xbf4e9267	-0.8069214
155	0xbf8c9785	-1.098374
156	0xbe89988a	-0.2687419
157	0x3dffa403	0.12482455
158	0xbf72b8bc	-0.9481313
159	0x4262a555	56.661457
160	0xbda586e1	-0.08082367
161	0xbebe2966	-0.3714096
162	0xbe38fab7	-0.1806439
163	0xbe5d84dc	-0.21632713
164	0xbe3b8d37	-0.18315588
165	0xbdc2a3dc	-0.0950391
166	0x3e5ce42e	0.21571419
167	0x3e7c39cb	0.24631421
168	0x3c1ae1e3	0.00945327
169	0xbc961dd9	-0.01832478
170	0xbe022d3b	-0.12712567
171	0x3ddca821	0.107742555
172	0xbd704645	-0.058660764
173	0x3e2a8331	0.16651608
174	0x3d004401	0.031314854
175	0x3ecb9736	0.39763802
176	0x3eb09473	0.34488258
177	0xbeb7e79e	-0.35918897
178	0x3e3d5312	0.1848872
179	0xbd26b030	-0.04069537
180	0xbecb7f40	-0.39745522
181	0x3db882be	0.09009312
182	0x3d9341cd	0.07190285
183	0xbe80ea17	-0.25178596
184	0x3ef4ed74	0.47837412
185	0xbea3eaab	-0.32014975
186	0xbddf10d7	-0.10891884
187	0xbe9b7507	-0.30362722
188	0xbe3cf196	-0.18451533
189	0x3de30b87	0.11086183
190	0xbe83722c	-0.25673044
191	0x3ed05df0	0.4069667
192	0x3d7dd193	0.061967444
193	0x3f0cd5aa	0.55013525
194	0x3ea00c1f	0.31259248
195	0x3f33ae09	0.7018743
196	0x3e399eb9	0.18126954
197	0xbe813395	-0.25234666
198	0xbef6cd81	-0.48203662
199	0xbd7d891e	-0.061898343
200	0x3e988624	0.2978984
201	0xbf66e1eb	-0.90188473
202	0xbf1237ef	-0.571166
203	0x3e6d62ed	0.23182268
204	0x3f10ac33	0.56512755
205	0x3ef6d57c	0.4820975
206	0xbd1259f8	-0.035730332
207	0xbd88ee02	-0.066860214
208	0x3f6de7ae	0.9293164
209	0xbf7e0b65	-0.99236137
210	0xbf652879	-0.8951488
211	0x3f1c699a	0.61098635
212	0x3ea98220	0.3310709
213	0xbbea1d2e	-0.007144592
214	0xbf1a1709	-0.601914
215	0x3eeaec88	0.45883584
216	0xbd53c06b	-0.051697176
217	0xbe3ab2dd	-0.18232293
218	0x3eca812d	0.39551678
219	0x3e25b3ad	0.16181822
220	0x3b30d244	0.0026980797
221	0xbda66717	-0.081251316
222	0x3f04161c	0.51596236
223	0xbf3e59af	-0.74355596
224	0xbc7c8127	-0.015411652
225	0x3ea41f39	0.3205507
226	0x3ed89989	0.42304638
227	0xbdba3ef0	-0.090940356
228	0xbf70b5d7	-0.94027466
229	0xbd90c1f8	-0.070682466
230	0x3ccbfd00	0.024900913
231	0xbd93b8f5	-0.07213012
232	0xbe8c8d55	-0.27451578
233	0x3ed21007	0.41027853
234	0x3f1edd7c	0.6205671
235	0x3e599c36	0.21250996
236	0xbec7626c	-0.38942277
237	0x3e923227	0.28553888
238	0x3e8bb544	0.27286732
239	0x3edb1cd5	0.42795435
240	0xbf347f97	-0.70507187
241	0x3e1f76dc	0.15572685
242	0x3ec09b87	0.37618658
243	0xbed9fa50	-0.42573786
244	0xbe23ecc5	-0.16008289
245	0xbed86b23	-0.4226924
246	0x3de684e3	0.11255815
247	0xbf43c977	-0.76479286
248	0x3eb5f6ea	0.35539943
249	0xbfac6459	-1.3468124
250	0xbe4effa2	-0.20214704
251	0x3f484e0b	0.78244084
252	0xbddb82c9	-0.10718305
253	0xbe6ceefa	-0.23138037
254	0xbea9f792	-0.33196694
255	0x3ed665c6	0.41874522

bigru.weight_hh_l0 f4 [96, 32]
0	0x3dc2e182	0.095156685
1	0xbd0db7b3	-0.034599017
2	0xbfb89319	-1.4419891
3	0x3e9ae400	0.30252075
4	0xbcc7f989	-0.02441098
5	0xbfe57cf8	-1.7928762
6	0xbf207518	-0.6267867
7	0xbe813e1c	-0.25242698
8	0x3e1b291e	0.15152404
9	0xbe10e1ee	-0.14148685
10	0xbebef6a4	-0.37297547
11	0x3e8cae74	0.27476847
12	0x3dc6e935	0.097124495
13	0xbf720eaa	-0.94553626
14	0xbdd3fb5a	-0.10350676
15	0x3f0d3691	0.55161387
16	0x3e54af94	0.20770103
17	0xbee4ae79	-0.44664362
18	0x3e34453a	0.17604533
19	0xbfbef97b	-1.4919885
20	0xbea578b1	-0.32318643
21	0xbe6b86f2	-0.23000696
22	0xbe4180ad	-0.18896742
23	0xbe882105	-0.26587692
24	0xbfa4ff04	-1.2890325
25	0x3ebb3644	0.3656484
26	0x3f3bf784	0.73424554
27	0xbdf5d7ae	-0.12004028
28	0x3ee1bed9	0.44090918
29	0xbe9a2123	-0.30103406
30	0xbed643a0	-0.4184847
31	0xbe3c0d77	-0.18364511
32	0x3db805f9	0.08985514
33	0x3e7f21b0	0.24915195
34	0x3f00f9a8	0.50380945
35	0x406d0a24	3.703744
36	0x3e6877c4	0.22701937
37	0x3e39125b	0.18073408
38	0xbf8028c0	-1.0012436
39	0xbf0fc563	-0.56160563
40	0xbddea72b	-0.108717285
41	0xbf356970	-0.7086401
42	0xc051bc2d	-3.2771103
43	0x3d2163cd	0.039401818
44	0xbec9bfd1	-0.39404157
45	0xbfb5a0a1	-1.4189645
46	0xbe22452b	-0.15846698
47	0x3ca2f72a	0.019893248
48	0xbd621c1a	-0.05520258
49	0xbe0e9ff5	-0.13928206
50	0xbef25e2f	-0.4733748
51	0x3e521611	0.2051623
52	0xbe21efd6	-0.15814146
53	0x3eab84fb	0.33499894
54	0x3dff4496	0.124642536
55	0xbd140757	-0.036139812
56	0xbfff63e2	-1.9952357
57	0xbe5dcdaa	-0.21660486
58	0xbecdb911	-0.40180257
59	0x401957a2	2.3959737
60	0x3ddba5bd	0.107249714
61	0xbea8eac0	-0.329916
62	0x3eaf0a62	0.3418761
63	0x3f42eba7	0.76140827
64	0x3f4d48c3	0.8018915
65	0x3e6bad95	0.23015435
66	0x3f604067	0.8759827
67	0x3e79a253	0.24378328
68	0x3eb6a673	0.35673866
69	0xbf16d679	-0.5892101
70	0xbeca89ae	-0.39558166
71	0xbe91f927	-0.285104
72	0xbe7f41b3	-0.24927406
73	0xbd822f02	-0.06356622
74	0xbf66115e	-0.8987025
75	0x3ff465b3	1.9093536
76	0xbcefdfd9	-0.029281544
77	0xbee3ed95	-0.44517198
78	0x3eeec7c4	0.46636784
79	0xbec4c340	-0.38430214
80	0xbe3875dd	-0.18013711
81	0xbdaa6ce2	-0.08321549
82	0xbf00dc97	-0.50336593
83	0xbf1921ca	-0.59817183
84	0x3f01eadc	0.5074899
85	0x3efb9539	0.49137285
86	0x3f330da3	0.69942683
87	0xbd9beb14	-0.07613197
88	0x3e35d143	0.17755608
89	0xbea48a9d	-0.32137004
90	0x3ea79dd3	0.32737598
91	0xbf916ccc	-1.1361327
92	0x3f99388f	1.1970385
93	0xbf2a48ab	-0.6651713
94	0x3dabd7e4	0.08390787
95	0xbf22c62e	-0.6358365
96	0xbf5934ac	-0.84845996
97	0xbebd91f2	-0.3702541
98	0xc00486d2	-2.0707288
99	0xbf17e2c7	-0.5933041
100	0x3eae127b	0.33998474
101	0x3ff8ea0c	1.9446425
102	0x3ecf7666	0.40520018
103	0x3fb0e68c	1.3820357
104	0xbed0cb83	-0.40780267
105	0xbd1a1dd9	-0.03762612
106	0x3f934801	1.1506349
107	0xbe36a9a9	-0.17838158
108	0xbf0d6b4c	-0.5524185
109	0xbedd7f18	-0.43261027
110	0xbf94589c	-1.1589541
111	0xbfb7ce0d	-1.4359757
112	0xbea695a0	-0.3253603
113	0xbf5ee7c8	-0.8707242
114	0xc0082250	-2.1270943
115	0xbf90e21f	-1.1319007
116	0xbc0a3019	-0.008434319
117	0xbf2283dc	-0.6348245
118	0x3dd3160c	0.103069395
119	0x3eb2b245	0.34901634
120	0xbec40209	-0.38282803
121	0xbda559be	-0.080737576
122	0xbfcff72a	-1.6247303
123	0x40287134	2.6319094
124	0xbe58aecc	-0.2116043
125	0xbe80abf0	-0.25131178
126	0x3edd32e6	0.43202895
127	0xbed265fb	-0.4109343
128	0xbe109ff4	-0.14123517
129	0xbe19a867	-0.15005647
130	0xbe469721	-0.19393589
131	0xbeafd9e2	-0.3434592
132	0x3c1fd411	0.00975515
133	0x3e4a56a1	0.19759609
134	0x3ddf2767	0.10896187
135	0x3e17d049	0.14825548
136	0xbccf52bb	-0.025308004
137	0x3dba7936	0.091051504
138	0x3e584b65	0.2112251
139	0xbe9ec298	-0.31007838
140	0x3d82673f	0.06367349
141	0x3d944726	0.07240133
142	0xbd730447	-0.05933025
143	0x3cec5d0a	0.028852958
144	0x3e2d5627	0.16927396
145	0x3e7d0e43	0.24712472
146	0x3e180372	0.14845064
147	0x3e83a0d9	0.25708655
148	0xbe1ddd62	-0.15416482
149	0x3e2915c9	0.16512217
150	0xbde838b5	-0.11338941
151	0x3d35bf1e	0.044371717
152	0x3e3b5071	0.18292405
153	0x3e54375a	0.2072424
154	0x3e7ba413	0.24574308
155	0x3b9a1838	0.004702594
156	0x3e7f77fb	0.24948113
157	0x3de49cd1	0.11162723
158	0xbe237e21	-0.15966083
159	0x3e51d54c	0.20491523
160	0xbddeb8df	-0.10875105
161	0x3e374fbf	0.17901514
162	0x3ec5e8e7	0.38654253
163	0xbeb5ee3c	-0.3553332
164	0x3b271089	0.0025492033
165	0x3f359225	0.70926124
166	0x3f4c5053	0.79810065
167	0xbe966be9	-0.29379204
168	0x3e6ee977	0.23331247
169	0x3ed6b982	0.41938406
170	0xbfd4bde8	-1.6620455
171	0x3dd57ede	0.104245886
172	0xbdcb9705	-0.09940914
173	0xbf7d89af	-0.99038213
174	0xbe3419c9	-0.17587961
175	0xbd9ddb5d	-0.07707856
176	0xbda69eb4	-0.08135739
177	0xbedbcf40	-0.42931557
178	0x3ea4751b	0.32120594
179	0x3e9d4b52	0.30721527
180	0x3ee6515a	0.4498394
181	0xbdaae9f3	-0.083454035
182	0xbfc795d0	-1.5592594
183	0x3d401492	0.046894617
184	0xbf07e9fb	-0.530914
185	0x3e6eb221	0.23310138
186	0x3ea20f70	0.31652403
187	0x3f0b2c40	0.54364395
188	0xbf036254	-0.5132191
189	0x3f41d2d7	0.7571234
190	0xba868d5d	-0.0010265518
191	0x3ee16628	0.44023252
192	0x3e0423f8	0.12904346
193	0xbf8fd804	-1.1237798
194	0x3e61d2f5	0.2205313
195	0x3f72e926	0.94887006
196	0xbf5542ba	-0.8330494
197	0x3e297c3d	0.165513
198	0xbeae8727	-0.34087488
199	0xbdc5a6e1	-0.0965097
200	0xbf60d166	-0.87819517
201	0xbf115982	-0.56777203
202	0xbe78f1fb	-0.24311058
203	0xbe89943d	-0.2687091
204	0x3ec56523	0.38553724
205	0x3ddfc8a3	0.1092694
206	0xbe38cb63	-0.18046336
207	0xbedb3500	-0.42813873
208	0xbf8c707d	-1.0971829
209	0xbfe95f38	-1.8232183
210	0x3d1a560f	0.037679728
211	0x3ec2ec47	0.3807089
212	0xbf887032	-1.0659239
213	0xbf53fc4e	-0.8280686
214	0x3f08ce28	0.5343957
215	0x3f509646	0.814793
216	0xbe6cc223	-0.23120932
217	0xbf832c8a	-1.0247967
218	0x3e8059cc	0.2506851
219	0x3e87bb78	0.26510215
220	0x3f7ea588	0.9947133
221	0xbee31626	-0.44352835
222	0x3e8792de	0.26479238
223	0x3f9df90d	1.2341629
224	0xbf13a7a9	-0.57677704
225	0xbf10aeec	-0.5651691
226	0xbee154da	-0.4401005
227	0x401e16da	2.4701447
228	0xbe58f02e	-0.21185371
229	0xbe9a419d	-0.30128184
230	0xbe940a5b	-0.2891415
231	0xbfab1cf8	-1.3368216
232	0x3ed0f292	0.40810066
233	0x3f3bc92b	0.7335383
234	0xbfe4a378	-1.7862387
235	0xbf0d5971	-0.552146
236	0x3ef280cc	0.4736389
237	0xc059d5b9	-3.4036696
238	0xbefd9062	-0.49524218
239	0x3f88d263	1.0689205
240	0x3f3a027b	0.72660035
241	0x3daf4da6	0.08559732
242	0xc041c133	-3.027417
243	0xbdf9c9c9	-0.121966906
244	0x3f879db7	1.0595006
245	0x40266e2d	2.6004746
246	0xbf05f76b	-0.52330655
247	0xbe330c07	-0.17485057
248	0xbfad91ca	-1.3560116
249	0x3f374d42	0.7160226
250	0xbf952b78	-1.1653891
251	0xbfc2c653	-1.5216774
252	0xbef6877a	-0.48150235
253	0x3ecb46ba	0.39702398
254	0x3e7db2fa	0.24775305
255	0x3f06d81f	0.52673525

bigru.bias_ih_l0 f4 [96]
0	0xbd086e6f	-0.033308443
1	0x3e473311	0.19453074
2	0x3c14122a	0.009037534
3	0x3e21f6e7	0.15816842
4	0xc01c053f	-2.4378202
5	0xbcc678d5	-0.02422754
6	0x3f04ebbc	0.519222
7	0xbe780a22	-0.24222615
8	0xbf3efc63	-0.7460386
9	0xbea6a454	-0.32547247
10	0x3f83abc4	1.0286794
11	0x3e5575b9	0.20845689
12	0x3ee1ba5b	0.4408749
13	0x3ef0e778	0.47051597
14	0xbe8ce047	-0.2751486
15	0x3ef22809	0.4729617
16	0xbe8de338	-0.27712417
17	0xbf8a1c76	-1.0789936
18	0x3c3b1147	0.011417693
19	0xbe1728ed	-0.14761706
20	0xbecc3082	-0.3988076
21	0xbdf2fe4f	-0.11864912
22	0xbd4c4bcd	-0.049876977
23	0x3ecb74b2	0.3973747
24	0x3e5b22c5	0.21399982
25	0xbef26774	-0.47344553
26	0x3aac6ef9	0.0013155631
27	0x3df9acbf	0.12191152
28	0xbe6e43ad	-0.23268004
29	0xbf4b374c	-0.7938125
30	0x3e2ef8f5	0.17087157
31	0x3d2ba725	0.04190745
32	0xbe92d761	-0.28679946
33	0xbd8472c4	-0.06467202
34	0x3ebca973	0.3684803
35	0x3d6661cf	0.05624562
36	0xbc4883ac	-0.012238424
37	0x3f33e458	0.702703
38	0xbda4bfd6	-0.08044402
39	0x3ef3f909	0.47650936
40	0xbfaff4dd	-1.3746601
41	0x3d838369	0.06421549
42	0x3e8c9a7c	0.27461612
43	0xbfb06639	-1.3781196
44	0xbd8ad9f4	-0.067798525
45	0x3c86d181	0.016457321
46	0xbaf62755	-0.0018780032
47	0x3e1e5d31	0.15465237
48	0xbe857cc5	-0.26071754
49	0x3ef986b3	0.4873558
50	0x3d266753	0.04062588
51	0x3ead8a38	0.33894515
52	0x3e72bfb6	0.23705944
53	0x3ebc6c09	0.36801174
54	0xbecf69da	-0.40510446
55	0x3c7e4f7a	0.015521878
56	0x3e945842	0.28973585
57	0xbde7a3e8	-0.113105595
58	0xbd89d425	-0.067299165
59	0x3f4ef703	0.8084566
60	0x3ddfdf88	0.10931307
61	0x3e35fbc9	0.1777183
62	0x3da95e49	0.082699366
63	0x3ee12d01	0.43979648
64	0xbd98a2bc	-0.07452914
65	0xbea2889e	-0.31744856
66	0x3e141798	0.14462125
67	0x3d22a543	0.039708387
68	0xbd9e1517	-0.07718866
69	0x3cc15a89	0.02360274
70	0xbd371c54	-0.04470475
71	0x3c870a5f	0.016484438
72	0x3c72019d	0.014770892
73	0x3c8e6e48	0.01738657
74	0xbe12ad7b	-0.1432399
75	0x3d14d41a	0.03633509
76	0x3e8a55f4	0.27018702
77	0x3f52539f	0.82158846
78	0xbdd725a8	-0.10505229
79	0x3f63c9ab	0.88979596
80	0xbc544a0d	-0.012957108
81	0xbd89b946	-0.06724791
82	0xbaa5a473	-0.0012637511
83	0x3e0e1ee6	0.13878974
84	0x3b358e9f	0.0027703417
85	0xbc927a6b	-0.017880639
86	0xbd3c1cf8	-0.045926064
87	0x3e9ceb7a	0.30648404
88	0xbdac35b1	-0.08408678
89	0xbcad757a	-0.021174181
90	0xbf1ef9ad	-0.62099725
91	0x3e77711f	0.24164246
92	0xbdddda2a	-0.10832627
93	0x3c69570e	0.014241947
94	0xbe30e251	-0.17273833
95	0x3ee166fe	0.4402389

bigru.bias_hh_l0 f4 [96]
0	0xbd086e6f	-0.033308443
1	0x3e473311	0.19453074
2	0x3c14122a	0.009037534
3	0x3e21f6e7	0.15816842
4	0xc01c053f	-2.4378202
5	0xbcc678d5	-0.02422754
6	0x3f04ebbc	0.519222
7	0xbe780a22	-0.24222615
8	0xbf3efc63	-0.7460386
9	0xbea6a454	-0.32547247
10	0x3f83abc4	1.0286794
11	0x3e5575b9	0.20845689
12	0x3ee1ba5b	0.4408749
13	0x3ef0e778	0.47051597
14	0xbe8ce047	-0.2751486
15	0x3ef22809	0.4729617
16	0xbe8de338	-0.27712417
17	0xbf8a1c76	-1.0789936
18	0x3c3b1147	0.011417693
19	0xbe1728ed	-0.14761706
20	0xbecc3082	-0.3988076
21	0xbdf2fe4f	-0.11864912
22	0xbd4c4bcd	-0.049876977
23	0x3ecb74b2	0.3973747
24	0x3e5b22c5	0.21399982
25	0xbef26774	-0.47344553
26	0x3aac6ef9	0.0013155631
27	0x3df9acbf	0.12191152
28	0xbe6e43ad	-0.23268004
29	0xbf4b374c	-0.7938125
30	0x3e2ef8f5	0.17087157
31	0x3d2ba725	0.04190745
32	0xbe92d761	-0.28679946
33	0xbd8472c4	-0.06467202
34	0x3ebca973	0.3684803
35	0x3d6661cf	0.05624562
36	0xbc4883ac	-0.012238424
37	0x3f33e458	0.702703
38	0xbda4bfd6	-0.08044402
39	0x3ef3f909	0.47650936
40	0xbfaff4dd	-1.3746601
41	0x3d838369	0.06421549
42	0x3e8c9a7c	0.27461612
43	0xbfb06639	-1.3781196
44	0xbd8ad9f4	-0.067798525
45	0x3c86d181	0.016457321
46	0xbaf62755	-0.0018780032
47	0x3e1e5d31	0.15465237
48	0xbe857cc5	-0.26071754
49	0x3ef986b3	0.4873558
50	0x3d266753	0.04062588
51	0x3ead8a38	0.33894515
52	0x3e72bfb6	0.23705944
53	0x3ebc6c09	0.36801174
54	0xbecf69da	-0.40510446
55	0x3c7e4f7a	0.015521878
56	0x3e945842	0.28973585
57	0xbde7a3e8	-0.113105595
58	0xbd89d425	-0.067299165
59	0x3f4ef703	0.8084566
60	0x3ddfdf88	0.10931307
61	0x3e35fbc9	0.1777183
62	0x3da95e49	0.082699366
63	0x3ee12d01	0.43979648
64	0x3eb2b58f	0.34904143
65	0xbe7c5733	-0.24642639
66	0x3e7f7ac4	0.24949175
67	0x3d077b30	0.033076465
68	0xbf9ba501	-1.215973
69	0x3e2dca13	0.16971616
70	0x3e541add	0.20713373
71	0xbe7b7c79	-0.24559201
72	0xbef1cb5b	-0.4722546
73	0xbea1b599	-0.3158386
74	0xbffb42c2	-1.9629748
75	0x3cff101a	0.031135608
76	0x3ed4ad30	0.41538382
77	0xbda2aee0	-0.07943511
78	0xbd26e361	-0.04074419
79	0x3f23f3f9	0.6404415
80	0xbe103775	-0.14083655
81	0x3e52e64b	0.20595662
82	0xbd4c5db3	-0.049894046
83	0xbe8e1d8d	-0.2775692
84	0xbe697aed	-0.22800799
85	0xbd8d138b	-0.06888493
86	0x3e85874e	0.26079792
87	0x3e96ca33	0.2945114
88	0xbcada478	-0.021196589
89	0xbe3a9f6f	-0.18224882
90	0xbf1ade82	-0.6049577
91	0x3ea229a2	0.31672388
92	0xbd8ae737	-0.06782382
93	0x3cfb9b72	0.03071377
94	0xbf07f6f1	-0.5311118
95	0xbd91b405	-0.07114414

bigru.weight_ih_l0_reverse f4 [96, 32]
0	0x3ede461f	0.43412873
1	0xbf08cc4f	-0.5343675
2	0xbea8ce08	-0.3296969
3	0xbfadb664	-1.3571286
4	0x3eaa3b82	0.33248526
5	0x3fa5e452	1.2960303
6	0x3fa25f7e	1.2685392
7	0x3f5c706e	0.86109054
8	0xbf320b32	-0.6954833
9	0x3f68a2f6	0.9087366
10	0x3f5b0ee3	0.8556959
11	0xbfaef8ab	-1.3669637
12	0xbfcd7c0b	-1.605348
13	0x3f160132	0.58595574
14	0x3e06ef65	0.1317726
15	0xbd59635e	-0.05307328
16	0xbfade057	-1.3584088
17	0x3fa4194c	1.282022
18	0x3f481ad0	0.7816591
19	0xbf9866c7	-1.1906365
20	0xbf887ad9	-1.066249
21	0x3e21e908	0.1581155
22	0x3f775da2	0.9662725
23	0x3f7459c8	0.95449495
24	0x3f033edc	0.5126779
25	0x3e90a801	0.28253177
26	0xbfc1ac13	-1.5130638
27	0xbe91cca7	-0.2847645
28	0xbdddb08a	-0.10824688
29	0xbdcb34b3	-0.09922161
30	0xbf7b01c0	-0.98049545
31	0x3f4a14b9	0.7893787
32	0xbcb0baa4	-0.021573372
33	0x3f84ba03	1.0369266
34	0x3e2e6240	0.17029667
35	0xbd187082	-0.03721667
36	0x3e5e6c20	0.21720934
37	0x3c6035ee	0.013684733
38	0xbdc01cc0	-0.093804836
39	0xbedabf1c	-0.4272393
40	0x3f4015e9	0.7503343
41	0xbee26d0e	-0.44223827
42	0xbf7b0a06	-0.9806217
43	0x3e924846	0.28570765
44	0x3efa354e	0.48868793
45	0x3f5996c2	0.84995663
46	0x3c3a5609	0.011373051
47	0x3cfa3de3	0.030547088
48	0x3e11c6a5	0.14235933
49	0x3e64eb98	0.22355497
50	0xbf2d6bd3	-0.6774265
51	0x3edeaec3	0.43492708
52	0x3e7b38b3	0.24533348
53	0xbe225792	-0.15853718
54	0xbfa71f6a	-1.3056462
55	0x3e2b7cfe	0.167469
56	0xbd26eb4e	-0.040751748
57	0xbe4c9994	-0.1998046
58	0x3e5300bf	0.20605753
59	0x3d87bb2a	0.066274956
60	0xbf971859	-1.1804305
61	0x3f75374b	0.95787495
62	0xbf3b3636	-0.73129594
63	0xbe0e9043	-0.13922219
64	0xbc25ed7a	-0.01012742
65	0x3f71c864	0.94446397
66	0x3f077ecc	0.5292785
67	0x3efeb915	0.4975058
68	0x3f5555a7	0.8333382
69	0xbe98862e	-0.2978987
70	0x3d5909f5	0.05298801
71	0xbf9f3000	-1.2436523
72	0x3f78c372	0.97173226
73	0xbfc764cd	-1.5577637
74	0xbf90b903	-1.1306461
75	0xbe575fa9	-0.21032585
76	0x3f81e75d	1.0148731
77	0x3ea3b88f	0.31976745
78	0xbf7ff18f	-0.99977964
79	0xbe9e9b53	-0.30977878
80	0x3e939e56	0.28831738
81	0x3b316f3e	0.0027074362
82	0xbfd99245	-1.6997763
83	0x40149c33	2.3220336
84	0x3ec97c20	0.39352512
85	0xbf0175dd	-0.5057047
86	0xc05cc107	-3.4492815
87	0xbf899022	-1.0747111
88	0xbf1473e1	-0.5798932
89	0x3f18523c	0.5950048
90	0xbe98743e	-0.29776186
91	0x3f5d330c	0.86406016
92	0xbe27dac8	-0.16392052
93	0x3f19e823	0.6011984
94	0x3d3f5371	0.046710435
95	0xbfb66ae5	-1.4251372
96	0xbf6308f6	-0.8868555
97	0x3f821702	1.0163271
98	0xbf4cbfd1	-0.7998019
99	0xbf296618	-0.6617141
100	0xbec25d9a	-0.37962037
101	0x3ef11267	0.47084352
102	0x3f0e3460	0.5554867
103	0xbc4f3102	-0.012645962
104	0xbe44bfd3	-0.192138
105	0xbeb2621a	-0.3484047
106	0xbf2475e5	-0.6424239
107	0xbf4c3619	-0.79770046
108	0xbe93521d	-0.28773585
109	0x3f0c5769	0.5482088
110	0xbe8bd3fc	-0.2731017
111	0x3d96189c	0.073289126
112	0xbe392382	-0.18079951
113	0x3f1cbcd1	0.6122561
114	0xbe645781	-0.22299005
115	0x3e0552ec	0.13019913
116	0xbf215bf1	-0.63030916
117	0xbea76398	-0.32693172
118	0xbe4add62	-0.19811013
119	0x3e7f4ffc	0.24932855
120	0x3e546d1e	0.2074475
121	0xbead0d63	-0.33799276
122	0xbef01d43	-0.46897325
123	0xbf789631	-0.97104174
124	0xbf1407a7	-0.57824177
125	0x3f8d73dd	1.1050984
126	0xbefca64c	-0.49345624
127	0x3e4f895a	0.20267239
128	0xbe34ff6f	-0.17675565
129	0x3f8a9a18	1.0828276
130	0xbf16f30f	-0.5896463
131	0xbf41a023	-0.75634974
132	0x3e6d4c41	0.2317362
133	0x3ecfbfd4	0.4057604
134	0x3e3f9c39	0.18711938
135	0x3f1fecdd	0.624708
136	0xbe7e2ba4	-0.24821335
137	0xbed25c97	-0.41086265
138	0x3d412b10	0.04716021
139	0xbe971200	-0.2950592
140	0x3d0b222d	0.03396814
141	0x3f836f39	1.0268317
142	0x3e40f320	0.18842745
143	0x3ebc822d	0.36818066
144	0xbf0d0438	-0.5508456
145	0x3f76166a	0.9612795
146	0xbeb8ff99	-0.36132506
147	0x3d0feb73	0.03513665
148	0xbe2201e7	-0.15821038
149	0xbdd1c1cc	-0.10242042
150	0x3e0fd294	0.14045173
151	0xbf56b878	-0.83875227
152	0xbea1823a	-0.31544667
153	0xbe87078c	-0.26372945
154	0xbf304f52	-0.68871033
155	0x3da265a4	0.07929543
156	0xbfa9594f	-1.323038
157	0x3ef563d0	0.47927713
158	0xbf2ce1bb	-0.6753194
159	0x3f2427b4	0.6412308
160	0x3e533ef9	0.20629491
161	0xbdf93a52	-0.12169327
162	0xbef9d04a	-0.48791724
163	0xbee118bc	-0.43964183
164	0x3eca8e60	0.39561749
165	0xbf12d0e9	-0.5735002
166	0xbe083d73	-0.13304691
167	0x3f153874	0.58289266
168	0xbf5160c1	-0.8178826
169	0x3ea4af80	0.32165146
170	0x3f0b0f5c	0.5432031
171	0xbeae6012	-0.3405767
172	0xbe495fc6	-0.19665441
173	0xbe1020d1	-0.14075018
174	0xbda72276	-0.0816087
175	0xbe6c2cab	-0.23063914
176	0x3eb83cf2	0.35983998
177	0xbeb4b565	-0.35294643
178	0x3ed5d721	0.41765693
179	0xbed41106	-0.41419238
180	0xbc9adc67	-0.018903924
181	0xbdd22a56	-0.10261981
182	0x3ee9f261	0.45692733
183	0xbeafeced	-0.34360448
184	0x3dec8818	0.11549395
185	0x3e1e5e6a	0.15465704
186	0x3e178936	0.14798436
187	0x3dfb6b5c	0.122763366
188	0x3d066ff2	0.032821603
189	0xbe385033	-0.17999344
190	0x3f2bfb48	0.671803
191	0xbdeb0d51	-0.11477149
192	0x3f47b97b	0.78017396
193	0xbe269429	-0.16267456
194	0xbeaad79f	-0.3336763
195	0x3d2693c6	0.04066827
196	0xbf4ecfe2	-0.80785954
197	0x3f4371a2	0.76345265
198	0x3ec44e89	0.38341168
199	0x3f2a7c51	0.6659594
200	0xbf300b08	-0.6876683
201	0x3f8512ac	1.0396323
202	0x3ec87ea9	0.39159134
203	0xbe111acd	-0.1417038
204	0xbeea5ed5	-0.45775476
205	0x3e232585	0.15932281
206	0x3cde5895	0.027141849
207	0xbeb046b4	-0.34428942
208	0xbf5994a9	-0.8499246
209	0x3f21b740	0.6317024
210	0x3e257863	0.16159205
211	0xbf059ab2	-0.5218917
212	0xbf198b06	-0.5997776
213	0x3e8f73cc	0.28018034
214	0x3f266b0d	0.65007097
215	0x3f44342b	0.766421
216	0xbc69ac47	-0.0142622655
217	0xbe85fd0f	-0.2616963
218	0x3d5e3205	0.05424692
219	0xbd30eea1	-0.043196324
220	0xbce1520b	-0.027504941
221	0x3d95e92e	0.07319866
222	0x3e758811	0.23977686
223	0x3f6cc37d	0.9248579
224	0x3f197e4e	0.5995835
225	0xbe6aea2e	-0.22940895
226	0x3f657471	0.896308
227	0x3f903ab0	1.126791
228	0xbf81b10f	-1.0132159
229	0xbf8298ad	-1.0202843
230	0xbfba51de	-1.4556234
231	0xbedd87cd	-0.4326767
232	0x3f3e0419	0.74225
233	0xbefd3371	-0.4945331
234	0xbd993820	-0.07481408
235	0x3f95a280	1.1690216
236	0x3eae5290	0.34047365
237	0xbf678ffa	-0.90454066
238	0xbe9b2e6a	-0.3030885
239	0xbe43afff	-0.19110106
240	0x3f35a947	0.7096142
241	0xbf95b5b3	-1.1696075
242	0xbedf4a0b	-0.43611178
243	0x3ec7e754	0.39043677
244	0x3f8b2b2a	1.0872548
245	0xbf5afdd2	-0.8554355
246	0xbf3b32d4	-0.7312443
247	0x3ecd824a	0.40138465
248	0xbf16b449	-0.58868843
249	0x3f0aafec	0.54174685
250	0x3fbc23e2	1.469845
251	0x3ebb30b4	0.36560595
252	0x3e3c3b6e	0.18382046
253	0xbf39da34	-0.72598577
254	0x3fecaf35	1.8490969
255	0xbf25090b	-0.64466923

bigru.weight_hh_l0_reverse f4 [96, 32]
0	0xbf83e5fa	-1.0304558
1	0xbe698239	-0.22803582
2	0x3f442431	0.76617724
3	0xbf54f3e2	-0.83184636
4	0x3e2691c4	0.16266543
5	0x3f7448a6	0.9542335
6	0x3ec01700	0.37517548
7	0x3e5030ca	0.20331112
8	0xbec2fcc5	-0.38083473
9	0xbf304198	-0.6885009
10	0x3e9dfaa5	0.3085529
11	0x3f563c19	0.8368545
12	0xbf845369	-1.0337955
13	0xbf4c2d81	-0.79756933
14	0xbeedd4bd	-0.4645137
15	0xbd9682ab	-0.07349142
16	0xbf4375bd	-0.7635153
17	0x3e506857	0.20352302
18	0xbe57e996	-0.210852
19	0xbf63e11f	-0.8901538
20	0xbd31c08b	-0.043396514
21	0xbe3680c8	-0.17822564
22	0x3f770758	0.9649558
23	0xbf815e40	-1.0106888
24	0xbe968d53	-0.29404697
25	0xbf495601	-0.78646857
26	0xbec205d7	-0.3789508
27	0xbe9d001e	-0.30664152
28	0x3cc9294e	0.024555828
29	0xbf7caa7c	-0.9869764
30	0xbf0a936f	-0.54131216
31	0xbe906bd0	-0.28207254
32	0xbcd66e74	-0.026175715
33	0x3ef0833c	0.46975124
34	0x3eafd3c5	0.34341255
35	0xbed11adc	-0.40840805
36	0xbe8258e8	-0.25458455
37	0x3ee11348	0.43960023
38	0xbec8af01	-0.39196017
39	0x3e63df58	0.22253168
40	0xbc18de08	-0.00933028
41	0xbec63962	-0.38715655
42	0xbf860451	-1.0470067
43	0xbe635a62	-0.22202447
44	0xbec02f64	-0.37536156
45	0xbf2ba83d	-0.67053586
46	0xbe7c91c7	-0.24664985
47	0x3e48b106	0.19598779
48	0xbdbeceee	-0.093168125
49	0x3dfbcaa1	0.12294508
50	0xbe7cf7a1	-0.24703838
51	0xbee94da0	-0.45567036
52	0xbde4c849	-0.11171014
53	0x3e17afee	0.14813206
54	0x3ddeae5d	0.10873101
55	0x3c8ac983	0.016941791
56	0x3df8e217	0.12152498
57	0x3e7b6ca6	0.24553165
58	0x3ea5c4d8	0.32376742
59	0x3ece41ec	0.4028467
60	0x3e255b6c	0.16148156
61	0xbf2602d6	-0.6484808
62	0xbeee3554	-0.4652506
63	0xbf060bfc	-0.52362037
64	0xbdd35d4d	-0.1032053
65	0x3e1e84a6	0.15480289
66	0x3dc1c3f3	0.094612025
67	0x3e245a7f	0.16050147
68	0xbe5c2aac	-0.21500653
69	0x3cdb41a0	0.02676469
70	0xbdc156d0	-0.09440386
71	0x404c1ef0	3.1893883
72	0xbe3a137b	-0.18171494
73	0x3e30a73d	0.17251296
74	0xbd5e6a46	-0.05430057
75	0xbecea42d	-0.4035963
76	0x3e667952	0.22507218
77	0x3e9482e3	0.2900611
78	0xbf56d236	-0.83914506
79	0xbdb717e9	-0.089401074
80	0x3e2b7dfa	0.16747275
81	0x3cd76a97	0.026295943
82	0xbe803db9	-0.2504709
83	0x3c78407c	0.015152093
84	0x3daac14c	0.0833765
85	0xbd17a728	-0.037024647
86	0xbe0e11ba	-0.1387395
87	0xbe1c953c	-0.15291303
88	0x3f2f499e	0.68471706
89	0xbd2f45c4	-0.042791143
90	0xbde17faa	-0.11010678
91	0x3faabc9e	1.3338811
92	0x3ded3726	0.11582784
93	0x3b8b8939	0.0042583016
94	0x3e2d4ff5	0.16925032
95	0xbe72d0e2	-0.23712495
96	0xbf99b746	-1.2009056
97	0xbe90d427	-0.2828686
98	0xbea2c574	-0.3179127
99	0xbf0a3ed2	-0.54002106
100	0x3f5cf572	0.8631202
101	0x3b9647e2	0.004586206
102	0x3f6109a0	0.8790531
103	0xbec5fef0	-0.38671064
104	0x3f0e8fd5	0.5568822
105	0xbe63fb0a	-0.22263733
106	0x3f219e42	0.6313211
107	0x3faae905	1.3352362
108	0xbf19d78a	-0.6009451
109	0xbf1c8212	-0.6113597
110	0x3d7b491b	0.061349016
111	0x3cc998ae	0.024608936
112	0xbed142a5	-0.40871158
113	0x3e17d05d	0.14825578
114	0xbe403f06	-0.18774042
115	0x3e117cb5	0.14207728
116	0x3f046694	0.5171902
117	0xbea3ed48	-0.3201697
118	0x3e6e4bce	0.23271105
119	0xbfe43b3f	-1.783058
120	0xbed2946f	-0.4112887
121	0xc003927f	-2.0558164
122	0xbf4708bc	-0.777477
123	0xbec51ee5	-0.38500133
124	0xbe7b6b8d	-0.24552746
125	0x3cbe6afc	0.023244374
126	0x3f40a713	0.75254935
127	0x3e9beedb	0.3045567
128	0xbecbbb79	-0.39791468
129	0xbe242eed	-0.16033526
130	0x3d51af72	0.05119271
131	0xbdcb1919	-0.099168964
132	0x3d6faea2	0.058516152
133	0x3ef23b65	0.4731094
134	0x3ea2d7fd	0.3180541
135	0x3ebfe3f2	0.37478596
136	0xbdfd6316	-0.12372415
137	0xbe807ca5	-0.25095096
138	0xbfc3a8c9	-1.5285884
139	0x3e93a73f	0.28838536
140	0xbd8da89a	-0.06916924
141	0xbe07a4e7	-0.13246499
142	0xbf188d39	-0.5959049
143	0xbdad3be3	-0.08458688
144	0xbf6fc241	-0.9365578
145	0x3ec1cb52	0.37850434
146	0xbdb8c4c5	-0.09021906
147	0xbeca89b6	-0.3955819
148	0xbdf894c4	-0.1213775
149	0xbf0d4f88	-0.5519948
150	0x3d9d2f4d	0.076750375
151	0xbebf725b	-0.37391934
152	0xbe83b33b	-0.2572268
153	0x3e486891	0.19571139
154	0xbf5f299d	-0.8717287
155	0x3df6587c	0.12028596
156	0xbdb621ce	-0.088931665
157	0xbe3b48f1	-0.18289544
158	0x3ae5b0f6	0.0017524052
159	0xbf1fe736	-0.62462175
160	0x3f13debd	0.57761747
161	0xbe37e282	-0.179575
162	0xbf04889f	-0.5177097
163	0x3e99a520	0.30008793
164	0x3ec2678a	0.3796962
165	0xbeb1f798	-0.34759212
166	0x3e5d60e4	0.21618992
167	0xbce35766	-0.027751636
168	0xbe8ad01a	-0.27111894
169	0x3e729bbf	0.23692225
170	0x3f076ddf	0.52902025
171	0x3ebd2690	0.36943483
172	0x3deca455	0.11554781
173	0x3e23d97f	0.16000937
174	0x400997c9	2.1498892
175	0xbe8268df	-0.25470635
176	0xbe743f70	-0.23852324
177	0x3f1bfb33	0.60930175
178	0xbdca4891	-0.09877122
179	0x3e6748cd	0.22586365
180	0xbd0cda29	-0.03438774
181	0xbdaca866	-0.08430557
182	0xbe6fb0d2	-0.23407295
183	0x3e0f8a4e	0.14017603
184	0xbd930ff2	-0.07180776
185	0x3e6f1c68	0.2335068
186	0xbdee26cb	-0.11628493
187	0x3eff9293	0.49916515
188	0xbce43720	-0.027858317
189	0x3f0c593d	0.54823667
190	0x3ef107a1	0.47076133
191	0x3f65caad	0.89762384
192	0x3fa2a8dd	1.2707783
193	0xbdec1d65	-0.11529044
194	0x3d7d359e	0.06181871
195	0x3f2568ec	0.64613223
196	0xbe1b8818	-0.15188634
197	0xbe609217	-0.21930729
198	0xbed9b220	-0.4251871
199	0x3f740aaf	0.953288
200	0xc01474b1	-2.3196223
201	0x3f42ee9f	0.76145357
202	0x3fb0270e	1.3761919
203	0xbfab3a02	-1.3377078
204	0x3f4af30c	0.7927711
205	0x3f69aee1	0.9128247
206	0xbf8ed07a	-1.1157372
207	0xbef66e9e	-0.4813127
208	0x3fd2da2d	1.6472832
209	0x3f5bd4fc	0.85871863
210	0xbf0b939f	-0.54522127
211	0x3e29e9c6	0.16593084
212	0xbdab114b	-0.08352908
213	0x3e08f62d	0.13375159
214	0xbf2a0ca8	-0.6642556
215	0x40166f58	2.350546
216	0x3eed460f	0.46342513
217	0x3fcb465b	1.5880846
218	0x3e587908	0.2113992
219	0xbe9f8855	-0.311587
220	0xbedd68dd	-0.43244067
221	0xbc812af1	-0.015767546
222	0xbe1f7b02	-0.15574268
223	0xbe95b0bd	-0.29236403
224	0x3efe1242	0.49623305
225	0x3ee3776d	0.44427052
226	0x3f3c13c3	0.73467654
227	0x3e45cedc	0.19317192
228	0xbf407522	-0.7517873
229	0x3e09672b	0.13418262
230	0xbf82f67c	-1.0231471
231	0x3f62bb01	0.88566595
232	0x3ec00eac	0.37511194
233	0x3eb3a1c1	0.35084346
234	0xbf17a442	-0.5923501
235	0xbf90f3d9	-1.1324416
236	0x3e2326f6	0.15932831
237	0x3ea694e0	0.32535458
238	0xbf811fc8	-1.0087824
239	0xbda35734	-0.07975617
240	0x3f0b4c02	0.54412854
241	0xbf075fdd	-0.5288065
242	0x3e298d02	0.16557696
243	0xbe3a290b	-0.18179719
244	0xbe1a478a	-0.15066352
245	0x3ea1a0ba	0.31567937
246	0xbe70430f	-0.23463081
247	0x3f09ceee	0.53831375
248	0x3e493c4b	0.19651906
249	0xbe22ff25	-0.15917642
250	0x3f11a2c9	0.56889015
251	0x3f44b936	0.7684511
252	0xbcef1081	-0.029182674
253	0xbdea283a	-0.11433454
254	0xbef7b6c0	-0.48381615
255	0xbf79ea53	-0.97623175

bigru.bias_ih_l0_reverse f4 [96]
0	0xbf9995ba	-1.1998818
1	0x3e161ae4	0.14658695
2	0x3ea448ca	0.32086784
3	0xbef2db68	-0.4743302
4	0xbe86eb9b	-0.26351628
5	0xbcf8506d	-0.030311788
6	0xbf0e48da	-0.5557991
7	0x3f611f09	0.8793798
8	0xbddbd2eb	-0.10733589
9	0x3e0b856e	0.13625118
10	0x3ec23cba	0.37936956
11	0xbecbe245	-0.39821067
12	0x3fb00e4a	1.3754361
13	0x3fabd4e2	1.3424342
14	0x3e06950e	0.13142797
15	0xbeed1934	-0.4630829
16	0xbe381a21	-0.17978717
17	0xbf3f3912	-0.7469646
18	0x3bf2819f	0.007400706
19	0x3eec0502	0.4609757
20	0xbe936758	-0.28789783
21	0xbf2b6025	-0.6694358
22	0xbe608531	-0.21925808
23	0x3ee39331	0.44448236
24	0xbecc09ec	-0.3985132
25	0xbf84d145	-1.0376364
26	0x3dc18450	0.09449065
27	0xbe4c6597	-0.19960628
28	0xbe92a0be	-0.28638262
29	0xbc9da914	-0.019245662
30	0xbf3a240d	-0.7271126
31	0xbf8fe1bd	-1.1240765
32	0xbe4e8558	-0.20168054
33	0xbdbc7feb	-0.09204086
34	0x3f879aed	1.0594155
35	0x3c1de56e	0.00963722
36	0x3e7515e3	0.2393413
37	0x3ee31951	0.44355252
38	0x3e48ef77	0.19622599
39	0x3ee11aff	0.4396591
40	0x3f3f946b	0.7483584
41	0x3c8ce58f	0.017199306
42	0x3ec0dc66	0.3766815
43	0x3e8291ea	0.2550195
44	0x3e5d6964	0.21622235
45	0x3e0357ba	0.12826434
46	0x3e8813f9	0.26577738
47	0xbfbcef33	-1.4760498
48	0xbf18c215	-0.59671146
49	0x3e16db04	0.14731985
50	0xbed2f191	-0.41199926
51	0x3ebecbf3	0.37264976
52	0x3dad8847	0.084732585
53	0x3e3c98b5	0.18417628
54	0x3eee29c8	0.46516252
55	0xbefd3ba6	-0.4945957
56	0xbf380236	-0.71878374
57	0x3ca046a4	0.019564934
58	0xbd8cf41f	-0.068825
59	0x3e68dbb9	0.22740068
60	0xbf182723	-0.5943472
61	0x3ecd584f	0.40106437
62	0x3f7f4162	0.9970914
63	0x3e934641	0.28764537
64	0x3d754524	0.05988039
65	0xbca03b14	-0.01955942
66	0xbe8bb0dc	-0.2728337
67	0x3ebfd49b	0.37466893
68	0x3d8f8252	0.070072785
69	0xbf21d58b	-0.63216466
70	0xbd844771	-0.06458939
71	0xbda3b81d	-0.07994101
72	0x3e162b66	0.14664993
73	0x3e2bd264	0.16779476
74	0x3d2cd28b	0.042192977
75	0xbe7d967a	-0.24764434
76	0x3fd16cdc	1.6361346
77	0x3f5322e2	0.824751
78	0x3dbc86b9	0.09205384
79	0xbbe051b4	-0.0068456773
80	0x3bf12ba3	0.007359938
81	0x3caf3216	0.021386188
82	0xbb7b2fdd	-0.003832809
83	0x3d78fe35	0.060789306
84	0x3cdc6918	0.026905581
85	0xbd928ce9	-0.07155783
86	0xbf43f4d9	-0.7654548
87	0x3fb13679	1.3844749
88	0xbce5f314	-0.02807001
89	0x3e1424ac	0.14467114
90	0x3d272789	0.040809188
91	0x3c86fef5	0.016478995
92	0x3cb8b6e7	0.022548152
93	0x3fc90314	1.5704064
94	0x3e5e3794	0.21700889
95	0x3d46afed	0.04850762

bigru.bias_hh_l0_reverse f4 [96]
0	0xbf9995ba	-1.1998818
1	0x3e161ae4	0.14658695
2	0x3ea448ca	0.32086784
3	0xbef2db68	-0.4743302
4	0xbe86eb9b	-0.26351628
5	0xbcf8506d	-0.030311788
6	0xbf0e48da	-0.5557991
7	0x3f611f09	0.8793798
8	0xbddbd2eb	-0.10733589
9	0x3e0b856e	0.13625118
10	0x3ec23cba	0.37936956
11	0xbecbe245	-0.39821067
12	0x3fb00e4a	1.3754361
13	0x3fabd4e2	1.3424342
14	0x3e06950e	0.13142797
15	0xbeed1934	-0.4630829
16	0xbe381a21	-0.17978717
17	0xbf3f3912	-0.7469646
18	0x3bf2819f	0.007400706
19	0x3eec0502	0.4609757
20	0xbe936758	-0.28789783
21	0xbf2b6025	-0.6694358
22	0xbe608531	-0.21925808
23	0x3ee39331	0.44448236
24	0xbecc09ec	-0.3985132
25	0xbf84d145	-1.0376364
26	0x3dc18450	0.09449065
27	0xbe4c6597	-0.19960628
28	0xbe92a0be	-0.28638262
29	0xbc9da914	-0.019245662
30	0xbf3a240d	-0.7271126
31	0xbf8fe1bd	-1.1240765
32	0xbe4e8558	-0.20168054
33	0xbdbc7feb	-0.09204086
34	0x3f879aed	1.0594155
35	0x3c1de56e	0.00963722
36	0x3e7515e3	0.2393413
37	0x3ee31951	0.44355252
38	0x3e48ef77	0.19622599
39	0x3ee11aff	0.4396591
40	0x3f3f946b	0.7483584
41	0x3c8ce58f	0.017199306
42	0x3ec0dc66	0.3766815
43	0x3e8291ea	0.2550195
44	0x3e5d6964	0.21622235
45	0x3e0357ba	0.12826434
46	0x3e8813f9	0.26577738
47	0xbfbcef33	-1.4760498
48	0xbf18c215	-0.59671146
49	0x3e16db04	0.14731985
50	0xbed2f191	-0.41199926
51	0x3ebecbf3	0.37264976
52	0x3dad8847	0.084732585
53	0x3e3c98b5	0.18417628
54	0x3eee29c8	0.46516252
55	0xbefd3ba6	-0.4945957
56	0xbf380236	-0.71878374
57	0x3ca046a4	0.019564934
58	0xbd8cf41f	-0.068825
59	0x3e68dbb9	0.22740068
60	0xbf182723	-0.5943472
61	0x3ecd584f	0.40106437
62	0x3f7f4162	0.9970914
63	0x3e934641	0.28764537
64	0x3d5f2779	0.054481003
65	0x3e190c99	0.14946212
66	0xbf08d27d	-0.5344618
67	0xbead660e	-0.33866924
68	0xbd36fb93	-0.044673514
69	0x3d96ff05	0.0737286
70	0xbbf73f9d	-0.007545425
71	0xbdadd9bd	-0.08488796
72	0xbec9cdde	-0.39414877
73	0x3ea9db9c	0.3317536
74	0x3d848b3b	0.064718686
75	0xbdcef9f5	-0.10106269
76	0x3f1a2d4f	0.60225385
77	0x402d421c	2.70716
78	0x3c8954a7	0.016763998
79	0xbdd9e15e	-0.106386885
80	0xbe8004f6	-0.25003785
81	0x3de72da0	0.11287999
82	0x3e5590c7	0.2085601
83	0xbd59d76c	-0.053183958
84	0xbe2ec472	-0.17067125
85	0x3daa0578	0.08301824
86	0xbf6a5a53	-0.91544074
87	0x3f8b0c96	1.0863216
88	0xbe128066	-0.14306793
89	0xbd11e939	-0.03562281
90	0x3d80ec01	0.06295014
91	0xbd09f3ca	-0.03367976
92	0xbe478634	-0.19484788
93	0x3fd36157	1.6514081
94	0x3d4c1ef8	0.04983422
95	0x3c7ac98d	0.0153068425

bigru.weight_ih_l1 f4 [96, 64]
0	0x3eae1be0	0.34005642
1	0x3e58717e	0.21137044
2	0xbf4d0403	-0.80084246
3	0xbea82bcb	-0.3284591
4	0x3e8c226b	0.2737001
5	0xbe1caee6	-0.15301093
6	0xbf6a0794	-0.91417813
7	0xbfbbe82f	-1.4680232
8	0xbc97b898	-0.018520638
9	0xbca1b8a5	-0.019741366
10	0xbf7d55c0	-0.9895897
11	0x3ef2258c	0.4729427
12	0xbf028197	-0.5097899
13	0xbfb089e2	-1.3792078
14	0xbe0c2eb3	-0.1368969
15	0xbe1522e5	-0.14564092
16	0x3e82fc2c	0.25583017
17	0x3e6a479b	0.22878878
18	0x3e0c5d0f	0.13707374
19	0x3fb46452	1.4093115
20	0x3f4f2213	0.8091137
21	0x3fb3b56d	1.4039742
22	0x3f2fe1dc	0.6870401
23	0xbea9460d	-0.33061257
24	0x3f23e0be	0.64014804
25	0xbebdba5d	-0.37056246
26	0xbf8046e5	-1.0021635
27	0xbeb7fe68	-0.35936284
28	0x3f3ade46	0.7299541
29	0xbdbbc2d6	-0.091680214
30	0x3dfa546b	0.12223133
31	0xbf3e2831	-0.7428008
32	0xbeab988f	-0.3351483
33	0x3ea0d895	0.3141524
34	0xbf8252cf	-1.0181521
35	0x3e166b09	0.14689268
36	0xbd6097ad	-0.05483215
37	0xbca23051	-0.01979843
38	0xbdfeeea4	-0.12447861
39	0xbf8b8e62	-1.0902827
40	0xc050666d	-3.2562516
41	0x3d4f833b	0.05066226
42	0xc04d149b	-3.2043827
43	0x3e2df13e	0.16986558
44	0xbdeb63d0	-0.11493647
45	0x3ea8b180	0.32947922
46	0x3ebcbd24	0.36863053
47	0x3d83d6ec	0.064374775
48	0x3d552ed2	0.052046604
49	0x3f0b067a	0.5430676
50	0x3e68e9eb	0.22745483
51	0x3e816bd3	0.25277576
52	0xbf8e4afd	-1.1116635
53	0xbd1ed31b	-0.038775545
54	0xbde18350	-0.11011374
55	0xbf378fee	-0.71703994
56	0x3e4309ac	0.19046658
57	0xbdc3500e	-0.095367536
58	0xbd8ce219	-0.06879062
59	0x3fbe1f5e	1.4853323
60	0x3f1a9b9a	0.6039368
61	0xbda4464a	-0.08021219
62	0xbe877fa6	-0.26464576
63	0x3f768b0a	0.96305907
64	0x3e0657f5	0.1311949
65	0xbf3b946d	-0.73273355
66	0x3fff278d	1.9933945
67	0xbd37611c	-0.044770345
68	0xbeee8cd4	-0.46591818
69	0x3e494f74	0.19659215
70	0x3f61f2cf	0.8826112
71	0x3e0e2f79	0.13885297
72	0x3e31441d	0.1731114
73	0xbd30d4cb	-0.043171685
74	0xbe7154f4	-0.23567563
75	0xbe2a233e	-0.16615006
76	0x3eb98b9a	0.3623932
77	0xbf639a66	-0.8890747
78	0xbeda103c	-0.4259051
79	0x3e3340d0	0.17505193
80	0xbf0fff7c	-0.56249213
81	0xbfa9c318	-1.3262663
82	0xbea5ab04	-0.32357037
83	0x3f3be537	0.7339663
84	0xbf1db2f2	-0.61601174
85	0xbe58d690	-0.21175599
86	0x3e6e0b3c	0.23246473
87	0x3e5b5fc4	0.2142325
88	0xbf1e317d	-0.61794263
89	0x3d85e19e	0.06537174
90	0xbf74b836	-0.95593584
91	0xbee66d99	-0.4500549
92	0xbf0dfddc	-0.55465484
93	0xbd072466	-0.032993697
94	0x3ecfb7b9	0.40569857
95	0xbea861b9	-0.32887056
96	0xbe857374	-0.26064646
97	0xbe0e1671	-0.13875748
98	0xbcf0cc6f	-0.029394357
99	0x3e49f666	0.197229
100	0x3e28780c	0.16452044
101	0xbea40188	-0.32032418
102	0x3de7c2b3	0.11316433
103	0x3e828c60	0.25497723
104	0xbf551673	-0.8323738
105	0x3f1d9d9a	0.61568606
106	0x3da82b96	0.08211438
107	0x3e0d878f	0.13821243
108	0x3d1eaf44	0.038741365
109	0x3ea72fb1	0.32653573
110	0xc0108384	-2.258027
111	0x3e3704fe	0.17872998
112	0x3e91b34c	0.28457105
113	0x3fb2fd40	1.3983536
114	0xbf4c33f1	-0.79766756
115	0x3e8decc6	0.27719706
116	0x3d8b478d	0.068007566
117	0xbed13cee	-0.40866798
118	0xbed7b3f8	-0.42129493
119	0x3f91a559	1.1378585
120	0x3f242490	0.6411829
121	0xbf0ae3f2	-0.54254067
122	0xbf33ef99	-0.7028747
123	0x3f1be11a	0.6089035
124	0xbdeda65f	-0.116039984
125	0x3ef84d62	0.48496538
126	0xbd9283bc	-0.071540326
127	0x3e714997	0.23563229
128	0x3d3769bf	0.04477858
129	0xbe977da3	-0.2958804
130	0xbee3cc4a	-0.44491798
131	0xbe1f7364	-0.15571362
132	0x3de6cd0a	0.11269577
133	0x3ec7ee7a	0.3904913
134	0xbf2eec12	-0.68328965
135	0x3d7af035	0.061264236
136	0x3dc927e2	0.0982206
137	0xbdb485ee	-0.088146076
138	0x3f091bb1	0.5355788
139	0x3eaa811d	0.3330163
140	0x3daa1658	0.08305043
141	0x3e7a95c6	0.24471197
142	0x3da24925	0.079241075
143	0xbd80929e	-0.06277965
144	0x3e5f11a4	0.21784073
145	0x3ed2a239	0.4113939
146	0x3e521dfc	0.2051925
147	0x3f28cf89	0.65941674
148	0xbf7ec40f	-0.9951791
149	0x3f88f6e8	1.070035
150	0x3e0b93fd	0.13630672
151	0x3ddc03ca	0.1074291
152	0xbd985b0e	-0.07439242
153	0x3e20dd1e	0.1570935
154	0xbc654f18	-0.013995908
155	0xbdd99c55	-0.10625521
156	0x3f7aebd0	0.9801607
157	0xbf0d343e	-0.5515784
158	0xbe2225f5	-0.15834792
159	0xbdb02cb7	-0.08602279
160	0x3e7fbdca	0.24974743
161	0x3e949db1	0.2902656
162	0xbea36b5c	-0.31917846
163	0xbd4d2ec1	-0.050093416
164	0xbdc121f2	-0.09430303
165	0xbdff673b	-0.124708615
166	0xbd9c8a94	-0.07643619
167	0x3eb68373	0.35647163
168	0x3f4e8f0b	0.80687016
169	0xbddb7cb0	-0.10717142
170	0xbed0a85b	-0.40753445
171	0x3c3f2af2	0.011667954
172	0xbe992365	-0.29909816
173	0x3ddec260	0.10876918
174	0xbf2d8d5b	-0.67793816
175	0x3ddaca8b	0.10683163
176	0xbf3fe38d	-0.7495659
177	0xbbff725a	-0.007795614
178	0x3e92244c	0.28543317
179	0xbe065504	-0.13118368
180	0x3e33b099	0.17547835
181	0x3e92a8ea	0.28644496
182	0xbe17b712	-0.1481593
183	0xbec97aff	-0.3935165
184	0xbeaec853	-0.3413721
185	0xbec79bea	-0.3898614
186	0x3ecc84d2	0.39945084
187	0xbf76b6d5	-0.9637273
188	0xbf01687d	-0.5055006
189	0xbde669e0	-0.11250663
190	0xbf2f2489	-0.68415123
191	0xbe1daf48	-0.15398896
192	0xbe4b89ea	-0.19876829
193	0x3ed5c6c8	0.4175322
194	0xbfdfa327	-1.7471665
195	0xbe0b6841	-0.13613988
196	0xbd329bdb	-0.043605667
197	0x3e6f4f6a	0.23370138
198	0x3ed819b0	0.42207098
199	0xbef23880	-0.4730873
200	0xbe4017da	-0.18759099
201	0xbda02c90	-0.078209996
202	0xbec9d91f	-0.39423463
203	0x3e352cc8	0.17692864
204	0xbf04e791	-0.5191584
205	0xbd87524f	-0.06607496
206	0x3e389d66	0.18028793
207	0xbbaa4102	-0.005195738
208	0xbe029ee4	-0.12755924
209	0xbeb82638	-0.3596666
210	0xbda65ca2	-0.08123137
211	0x3f768f81	0.9631272
212	0x3d0f6a30	0.035013378
213	0x3d90f99e	0.07078861
214	0x3eed6023	0.4636241
215	0x3d55f0c2	0.052231558
216	0x3f253b17	0.6454329
217	0xbe2a9d98	-0.1666168
218	0xbd559191	-0.052140776
219	0x3fb2211e	1.3916357
220	0x3ee8ffbb	0.45507607
221	0xbe315229	-0.17316498
222	0x3d972f15	0.07382027
223	0xbf882700	-1.0636902
224	0xbd1fcbe0	-0.03901279
225	0x3d8ecdbc	0.069728345
226	0x3ec8be2a	0.39207584
227	0xbeb67380	-0.35634995
228	0x3eb8da89	0.3610423
229	0x3f070440	0.5274086
230	0xbd190277	-0.037355866
231	0x3f36b55a	0.7137047
232	0xbfda4008	-1.7050791
233	0x3e2467ea	0.16055265
234	0xbf7b7826	-0.98230207
235	0x3e04a10a	0.12952057
236	0x3e19a402	0.1500397
237	0xbd8c9116	-0.068636104
238	0xbe1f35b8	-0.15547836
239	0x3eeddd51	0.46457914
240	0x3e26be61	0.16283561
241	0x3f1f4dff	0.6222839
242	0xbdff12f7	-0.12454789
243	0xbf0565f2	-0.5210868
244	0xbe844be2	-0.25839144
245	0xbe3e39ad	-0.18576689
246	0xbdb42997	-0.08796995
247	0xbecf4bdf	-0.40487573
248	0x3df5e9e6	0.12007503
249	0x3e8d0701	0.27544406
250	0xbdfb4812	-0.12269606
251	0xbf0eca07	-0.5577702
252	0xbea2c35c	-0.31789672
253	0xbe5c3872	-0.21505907
254	0xbe9872b4	-0.29775012
255	0x3efc23df	0.49246117
